…
I0809 19:05:35.495779  5225 VideoImg.cpp:106] Start for saveVideo~
I0809 19:05:35.495848  5225 main.cpp:88] ---------- Start Prediction ----------
I0809 19:05:35.495995  5225 VideoImg.cpp:128] Classify_thread create success!
I0809 19:05:35.496122  6149 VideoImg.cpp:138] ---------- Loading model sysfile ----------
I0809 19:05:38.738747  6149 net.cpp:53] Initializing net from parameters: 
name: "Resnet18"
state {
  phase: TEST
  level: 0
}
layer {
  name: "data"
  type: "Input"
  top: "data"
  input_param {
    shape {
      dim: 1
      dim: 3
      dim: 112
      dim: 112
    }
  }
}
layer {
  name: "conv1"
  type: "Convolution"
  bottom: "data"
  top: "conv1"
  convolution_param {
    num_output: 64
    bias_term: false
    pad: 3
    kernel_size: 7
    stride: 2
    weight_filler {
      type: "msra"
    }
  }
}
layer {
  name: "conv1/bn"
  type: "BatchNorm"
  bottom: "conv1"
  top: "conv1/bn"
  batch_norm_param {
    moving_average_fraction: 0.9
    eps: 0.0001
  }
}
layer {
  name: "conv1/scale"
  type: "Scale"
  bottom: "conv1/bn"
  top: "conv1/bn"
  param {
    lr_mult: 1
    decay_mult: 0
  }
  param {
    lr_mult: 1
    decay_mult: 0
  }
  scale_param {
    bias_term: true
  }
}
layer {
  name: "conv1/relu"
  type: "ReLU"
  bottom: "conv1/bn"
  top: "conv1/bn"
}
layer {
  name: "pool1"
  type: "Pooling"
  bottom: "conv1/bn"
  top: "pool1"
  pooling_param {
    pool: MAX
    kernel_size: 3
    stride: 2
  }
}
layer {
  name: "res2.1.conv1"
  type: "Convolution"
  bottom: "pool1"
  top: "res2.1.conv1"
  convolution_param {
    num_output: 64
    bias_term: false
    pad: 1
    kernel_size: 3
    weight_filler {
      type: "msra"
    }
  }
}
layer {
  name: "res2.1.conv1/bn"
  type: "BatchNorm"
  bottom: "res2.1.conv1"
  top: "res2.1.conv1/bn"
  batch_norm_param {
    moving_average_fraction: 0.9
    eps: 0.0001
  }
}
layer {
  name: "res2.1.conv1/scale"
  type: "Scale"
  bottom: "res2.1.conv1/bn"
  top: "res2.1.conv1/bn"
  param {
    lr_mult: 1
    decay_mult: 0
  }
  param {
    lr_mult: 1
    decay_mult: 0
  }
  scale_param {
    bias_term: true
  }
}
layer {
  name: "res2.1.conv1/relu"
  type: "ReLU"
  bottom: "res2.1.conv1/bn"
  top: "res2.1.conv1/bn"
}
layer {
  name: "res2.1.conv2"
  type: "Convolution"
  bottom: "res2.1.conv1/bn"
  top: "res2.1.conv2"
  convolution_param {
    num_output: 64
    bias_term: false
    pad: 1
    kernel_size: 3
    weight_filler {
      type: "msra"
    }
  }
}
layer {
  name: "res2.1.conv2/bn"
  type: "BatchNorm"
  bottom: "res2.1.conv2"
  top: "res2.1.conv2/bn"
  batch_norm_param {
    moving_average_fraction: 0.9
    eps: 0.0001
  }
}
layer {
  name: "res2.1.conv2/scale"
  type: "Scale"
  bottom: "res2.1.conv2/bn"
  top: "res2.1.conv2/bn"
  param {
    lr_mult: 1
    decay_mult: 0
  }
  param {
    lr_mult: 1
    decay_mult: 0
  }
  scale_param {
    bias_term: true
  }
}
layer {
  name: "res2.1.sum"
  type: "Eltwise"
  bottom: "res2.1.conv2/bn"
  bottom: "pool1"
  top: "res2.1.sum"
  eltwise_param {
    operation: SUM
  }
}
layer {
  name: "res2.1.relu"
  type: "ReLU"
  bottom: "res2.1.sum"
  top: "res2.1.sum"
}
layer {
  name: "res2.2.conv1"
  type: "Convolution"
  bottom: "res2.1.sum"
  top: "res2.2.conv1"
  convolution_param {
    num_output: 64
    bias_term: false
    pad: 1
    kernel_size: 3
    weight_filler {
      type: "msra"
    }
  }
}
layer {
  name: "res2.2.conv1/bn"
  type: "BatchNorm"
  bottom: "res2.2.conv1"
  top: "res2.2.conv1/bn"
  batch_norm_param {
    moving_average_fraction: 0.9
    eps: 0.0001
  }
}
layer {
  name: "res2.2.conv1/scale"
  type: "Scale"
  bottom: "res2.2.conv1/bn"
  top: "res2.2.conv1/bn"
  param {
    lr_mult: 1
    decay_mult: 0
  }
  param {
    lr_mult: 1
    decay_mult: 0
  }
  scale_param {
    bias_term: true
  }
}
layer {
  name: "res2.2.conv1/relu"
  type: "ReLU"
  bottom: "res2.2.conv1/bn"
  top: "res2.2.conv1/bn"
}
layer {
  name: "res2.2.conv2"
  type: "Convolution"
  bottom: "res2.2.conv1/bn"
  top: "res2.2.conv2"
  convolution_param {
    num_output: 64
    bias_term: false
    pad: 1
    kernel_size: 3
    weight_filler {
      type: "msra"
    }
  }
}
layer {
  name: "res2.2.conv2/bn"
  type: "BatchNorm"
  bottom: "res2.2.conv2"
  top: "res2.2.conv2/bn"
  batch_norm_param {
    moving_average_fraction: 0.9
    eps: 0.0001
  }
}
layer {
  name: "res2.2.conv2/scale"
  type: "Scale"
  bottom: "res2.2.conv2/bn"
  top: "res2.2.conv2/bn"
  param {
    lr_mult: 1
    decay_mult: 0
  }
  param {
    lr_mult: 1
    decay_mult: 0
  }
  scale_param {
    bias_term: true
  }
}
layer {
  name: "res2.2.sum"
  type: "Eltwise"
  bottom: "res2.2.conv2/bn"
  bottom: "res2.1.sum"
  top: "res2.2.sum"
  eltwise_param {
    operation: SUM
  }
}
layer {
  name: "res2.2.relu"
  type: "ReLU"
  bottom: "res2.2.sum"
  top: "res2.2.sum"
}
layer {
  name: "res3.1.conv1"
  type: "Convolution"
  bottom: "res2.2.sum"
  top: "res3.1.conv1"
  convolution_param {
    num_output: 128
    bias_term: false
    pad: 1
    kernel_size: 3
    stride: 2
    weight_filler {
      type: "msra"
    }
  }
}
layer {
  name: "res3.1.conv1/bn"
  type: "BatchNorm"
  bottom: "res3.1.conv1"
  top: "res3.1.conv1/bn"
  batch_norm_param {
    moving_average_fraction: 0.9
    eps: 0.0001
  }
}
layer {
  name: "res3.1.conv1/scale"
  type: "Scale"
  bottom: "res3.1.conv1/bn"
  top: "res3.1.conv1/bn"
  param {
    lr_mult: 1
    decay_mult: 0
  }
  param {
    lr_mult: 1
    decay_mult: 0
  }
  scale_param {
    bias_term: true
  }
}
layer {
  name: "res3.1.conv1/relu"
  type: "ReLU"
  bottom: "res3.1.conv1/bn"
  top: "res3.1.conv1/bn"
}
layer {
  name: "res3.1.conv2"
  type: "Convolution"
  bottom: "res3.1.conv1/bn"
  top: "res3.1.conv2"
  convolution_param {
    num_output: 128
    bias_term: false
    pad: 1
    kernel_size: 3
    weight_filler {
      type: "msra"
    }
  }
}
layer {
  name: "res3.1.conv2/bn"
  type: "BatchNorm"
  bottom: "res3.1.conv2"
  top: "res3.1.conv2/bn"
  batch_norm_param {
    moving_average_fraction: 0.9
    eps: 0.0001
  }
}
layer {
  name: "res3.1.conv2/scale"
  type: "Scale"
  bottom: "res3.1.conv2/bn"
  top: "res3.1.conv2/bn"
  param {
    lr_mult: 1
    decay_mult: 0
  }
  param {
    lr_mult: 1
    decay_mult: 0
  }
  scale_param {
    bias_term: true
  }
}
layer {
  name: "res3.1.skipConv"
  type: "Convolution"
  bottom: "res2.2.sum"
  top: "res3.1.skipConv"
  convolution_param {
    num_output: 128
    bias_term: false
    kernel_size: 1
    stride: 2
    weight_filler {
      type: "msra"
    }
  }
}
layer {
  name: "res3.1.skipConv/bn"
  type: "BatchNorm"
  bottom: "res3.1.skipConv"
  top: "res3.1.skipConv/bn"
  batch_norm_param {
    moving_average_fraction: 0.9
    eps: 0.0001
  }
}
layer {
  name: "res3.1.skipConv/scale"
  type: "Scale"
  bottom: "res3.1.skipConv/bn"
  top: "res3.1.skipConv/bn"
  param {
    lr_mult: 1
    decay_mult: 0
  }
  param {
    lr_mult: 1
    decay_mult: 0
  }
  scale_param {
    bias_term: true
  }
}
layer {
  name: "res3.1.sum"
  type: "Eltwise"
  bottom: "res3.1.conv2/bn"
  bottom: "res3.1.skipConv/bn"
  top: "res3.1.sum"
  eltwise_param {
    operation: SUM
  }
}
layer {
  name: "res3.1.relu"
  type: "ReLU"
  bottom: "res3.1.sum"
  top: "res3.1.sum"
}
layer {
  name: "res3.2.conv1"
  type: "Convolution"
  bottom: "res3.1.sum"
  top: "res3.2.conv1"
  convolution_param {
    num_output: 128
    bias_term: false
    pad: 1
    kernel_size: 3
    weight_filler {
      type: "msra"
    }
  }
}
layer {
  name: "res3.2.conv1/bn"
  type: "BatchNorm"
  bottom: "res3.2.conv1"
  top: "res3.2.conv1/bn"
  batch_norm_param {
    moving_average_fraction: 0.9
    eps: 0.0001
  }
}
layer {
  name: "res3.2.conv1/scale"
  type: "Scale"
  bottom: "res3.2.conv1/bn"
  top: "res3.2.conv1/bn"
  param {
    lr_mult: 1
    decay_mult: 0
  }
  param {
    lr_mult: 1
    decay_mult: 0
  }
  scale_param {
    bias_term: true
  }
}
layer {
  name: "res3.2.conv1/relu"
  type: "ReLU"
  bottom: "res3.2.conv1/bn"
  top: "res3.2.conv1/bn"
}
layer {
  name: "res3.2.conv2"
  type: "Convolution"
  bottom: "res3.2.conv1/bn"
  top: "res3.2.conv2"
  convolution_param {
    num_output: 128
    bias_term: false
    pad: 1
    kernel_size: 3
    weight_filler {
      type: "msra"
    }
  }
}
layer {
  name: "res3.2.conv2/bn"
  type: "BatchNorm"
  bottom: "res3.2.conv2"
  top: "res3.2.conv2/bn"
  batch_norm_param {
    moving_average_fraction: 0.9
    eps: 0.0001
  }
}
layer {
  name: "res3.2.conv2/scale"
  type: "Scale"
  bottom: "res3.2.conv2/bn"
  top: "res3.2.conv2/bn"
  param {
    lr_mult: 1
    decay_mult: 0
  }
  param {
    lr_mult: 1
    decay_mult: 0
  }
  scale_param {
    bias_term: true
  }
}
layer {
  name: "res3.2.sum"
  type: "Eltwise"
  bottom: "res3.2.conv2/bn"
  bottom: "res3.1.sum"
  top: "res3.2.sum"
  eltwise_param {
    operation: SUM
  }
}
layer {
  name: "res3.2.relu"
  type: "ReLU"
  bottom: "res3.2.sum"
  top: "res3.2.sum"
}
layer {
  name: "res4.1.conv1"
  type: "Convolution"
  bottom: "res3.2.sum"
  top: "res4.1.conv1"
  convolution_param {
    num_output: 256
    bias_term: false
    pad: 1
    kernel_size: 3
    stride: 2
    weight_filler {
      type: "msra"
    }
  }
}
layer {
  name: "res4.1.conv1/bn"
  type: "BatchNorm"
  bottom: "res4.1.conv1"
  top: "res4.1.conv1/bn"
  batch_norm_param {
    moving_average_fraction: 0.9
    eps: 0.0001
  }
}
layer {
  name: "res4.1.conv1/scale"
  type: "Scale"
  bottom: "res4.1.conv1/bn"
  top: "res4.1.conv1/bn"
  param {
    lr_mult: 1
    decay_mult: 0
  }
  param {
    lr_mult: 1
    decay_mult: 0
  }
  scale_param {
    bias_term: true
  }
}
layer {
  name: "res4.1.conv1/relu"
  type: "ReLU"
  bottom: "res4.1.conv1/bn"
  top: "res4.1.conv1/bn"
}
layer {
  name: "res4.1.conv2"
  type: "Convolution"
  bottom: "res4.1.conv1/bn"
  top: "res4.1.conv2"
  convolution_param {
    num_output: 256
    bias_term: false
    pad: 1
    kernel_size: 3
    weight_filler {
      type: "msra"
    }
  }
}
layer {
  name: "res4.1.conv2/bn"
  type: "BatchNorm"
  bottom: "res4.1.conv2"
  top: "res4.1.conv2/bn"
  batch_norm_param {
    moving_average_fraction: 0.9
    eps: 0.0001
  }
}
layer {
  name: "res4.1.conv2/scale"
  type: "Scale"
  bottom: "res4.1.conv2/bn"
  top: "res4.1.conv2/bn"
  param {
    lr_mult: 1
    decay_mult: 0
  }
  param {
    lr_mult: 1
    decay_mult: 0
  }
  scale_param {
    bias_term: true
  }
}
layer {
  name: "res4.1.skipConv"
  type: "Convolution"
  bottom: "res3.2.sum"
  top: "res4.1.skipConv"
  convolution_param {
    num_output: 256
    bias_term: false
    kernel_size: 1
    stride: 2
    weight_filler {
      type: "msra"
    }
  }
}
layer {
  name: "res4.1.skipConv/bn"
  type: "BatchNorm"
  bottom: "res4.1.skipConv"
  top: "res4.1.skipConv/bn"
  batch_norm_param {
    moving_average_fraction: 0.9
    eps: 0.0001
  }
}
layer {
  name: "res4.1.skipConv/scale"
  type: "Scale"
  bottom: "res4.1.skipConv/bn"
  top: "res4.1.skipConv/bn"
  param {
    lr_mult: 1
    decay_mult: 0
  }
  param {
    lr_mult: 1
    decay_mult: 0
  }
  scale_param {
    bias_term: true
  }
}
layer {
  name: "res4.1.sum"
  type: "Eltwise"
  bottom: "res4.1.conv2/bn"
  bottom: "res4.1.skipConv/bn"
  top: "res4.1.sum"
  eltwise_param {
    operation: SUM
  }
}
layer {
  name: "res4.1.relu"
  type: "ReLU"
  bottom: "res4.1.sum"
  top: "res4.1.sum"
}
layer {
  name: "res4.2.conv1"
  type: "Convolution"
  bottom: "res4.1.sum"
  top: "res4.2.conv1"
  convolution_param {
    num_output: 256
    bias_term: false
    pad: 1
    kernel_size: 3
    weight_filler {
      type: "msra"
    }
  }
}
layer {
  name: "res4.2.conv1/bn"
  type: "BatchNorm"
  bottom: "res4.2.conv1"
  top: "res4.2.conv1/bn"
  batch_norm_param {
    moving_average_fraction: 0.9
    eps: 0.0001
  }
}
layer {
  name: "res4.2.conv1/scale"
  type: "Scale"
  bottom: "res4.2.conv1/bn"
  top: "res4.2.conv1/bn"
  param {
    lr_mult: 1
    decay_mult: 0
  }
  param {
    lr_mult: 1
    decay_mult: 0
  }
  scale_param {
    bias_term: true
  }
}
layer {
  name: "res4.2.conv1/relu"
  type: "ReLU"
  bottom: "res4.2.conv1/bn"
  top: "res4.2.conv1/bn"
}
layer {
  name: "res4.2.conv2"
  type: "Convolution"
  bottom: "res4.2.conv1/bn"
  top: "res4.2.conv2"
  convolution_param {
    num_output: 256
    bias_term: false
    pad: 1
    kernel_size: 3
    weight_filler {
      type: "msra"
    }
  }
}
layer {
  name: "res4.2.conv2/bn"
  type: "BatchNorm"
  bottom: "res4.2.conv2"
  top: "res4.2.conv2/bn"
  batch_norm_param {
    moving_average_fraction: 0.9
    eps: 0.0001
  }
}
layer {
  name: "res4.2.conv2/scale"
  type: "Scale"
  bottom: "res4.2.conv2/bn"
  top: "res4.2.conv2/bn"
  param {
    lr_mult: 1
    decay_mult: 0
  }
  param {
    lr_mult: 1
    decay_mult: 0
  }
  scale_param {
    bias_term: true
  }
}
layer {
  name: "res4.2.sum"
  type: "Eltwise"
  bottom: "res4.2.conv2/bn"
  bottom: "res4.1.sum"
  top: "res4.2.sum"
  eltwise_param {
    operation: SUM
  }
}
layer {
  name: "res4.2.relu"
  type: "ReLU"
  bottom: "res4.2.sum"
  top: "res4.2.sum"
}
layer {
  name: "res5.1.conv1"
  type: "Convolution"
  bottom: "res4.2.sum"
  top: "res5.1.conv1"
  convolution_param {
    num_output: 512
    bias_term: false
    pad: 1
    kernel_size: 3
    stride: 2
    weight_filler {
      type: "msra"
    }
  }
}
layer {
  name: "res5.1.conv1/bn"
  type: "BatchNorm"
  bottom: "res5.1.conv1"
  top: "res5.1.conv1/bn"
  batch_norm_param {
    moving_average_fraction: 0.9
    eps: 0.0001
  }
}
layer {
  name: "res5.1.conv1/scale"
  type: "Scale"
  bottom: "res5.1.conv1/bn"
  top: "res5.1.conv1/bn"
  param {
    lr_mult: 1
    decay_mult: 0
  }
  param {
    lr_mult: 1
    decay_mult: 0
  }
  scale_param {
    bias_term: true
  }
}
layer {
  name: "res5.1.conv1/relu"
  type: "ReLU"
  bottom: "res5.1.conv1/bn"
  top: "res5.1.conv1/bn"
}
layer {
  name: "res5.1.conv2"
  type: "Convolution"
  bottom: "res5.1.conv1/bn"
  top: "res5.1.conv2"
  convolution_param {
    num_output: 512
    bias_term: false
    pad: 1
    kernel_size: 3
    weight_filler {
      type: "msra"
    }
  }
}
layer {
  name: "res5.1.conv2/bn"
  type: "BatchNorm"
  bottom: "res5.1.conv2"
  top: "res5.1.conv2/bn"
  batch_norm_param {
    moving_average_fraction: 0.9
    eps: 0.0001
  }
}
layer {
  name: "res5.1.conv2/scale"
  type: "Scale"
  bottom: "res5.1.conv2/bn"
  top: "res5.1.conv2/bn"
  param {
    lr_mult: 1
    decay_mult: 0
  }
  param {
    lr_mult: 1
    decay_mult: 0
  }
  scale_param {
    bias_term: true
  }
}
layer {
  name: "res5.1.skipConv"
  type: "Convolution"
  bottom: "res4.2.sum"
  top: "res5.1.skipConv"
  convolution_param {
    num_output: 512
    bias_term: false
    kernel_size: 1
    stride: 2
    weight_filler {
      type: "msra"
    }
  }
}
layer {
  name: "res5.1.skipConv/bn"
  type: "BatchNorm"
  bottom: "res5.1.skipConv"
  top: "res5.1.skipConv/bn"
  batch_norm_param {
    moving_average_fraction: 0.9
    eps: 0.0001
  }
}
layer {
  name: "res5.1.skipConv/scale"
  type: "Scale"
  bottom: "res5.1.skipConv/bn"
  top: "res5.1.skipConv/bn"
  param {
    lr_mult: 1
    decay_mult: 0
  }
  param {
    lr_mult: 1
    decay_mult: 0
  }
  scale_param {
    bias_term: true
  }
}
layer {
  name: "res5.1.sum"
  type: "Eltwise"
  bottom: "res5.1.conv2/bn"
  bottom: "res5.1.skipConv/bn"
  top: "res5.1.sum"
  eltwise_param {
    operation: SUM
  }
}
layer {
  name: "res5.1.relu"
  type: "ReLU"
  bottom: "res5.1.sum"
  top: "res5.1.sum"
}
layer {
  name: "res5.2.conv1"
  type: "Convolution"
  bottom: "res5.1.sum"
  top: "res5.2.conv1"
  convolution_param {
    num_output: 512
    bias_term: false
    pad: 1
    kernel_size: 3
    weight_filler {
      type: "msra"
    }
  }
}
layer {
  name: "res5.2.conv1/bn"
  type: "BatchNorm"
  bottom: "res5.2.conv1"
  top: "res5.2.conv1/bn"
  batch_norm_param {
    moving_average_fraction: 0.9
    eps: 0.0001
  }
}
layer {
  name: "res5.2.conv1/scale"
  type: "Scale"
  bottom: "res5.2.conv1/bn"
  top: "res5.2.conv1/bn"
  param {
    lr_mult: 1
    decay_mult: 0
  }
  param {
    lr_mult: 1
    decay_mult: 0
  }
  scale_param {
    bias_term: true
  }
}
layer {
  name: "res5.2.conv1/relu"
  type: "ReLU"
  bottom: "res5.2.conv1/bn"
  top: "res5.2.conv1/bn"
}
layer {
  name: "res5.2.conv2"
  type: "Convolution"
  bottom: "res5.2.conv1/bn"
  top: "res5.2.conv2"
  convolution_param {
    num_output: 512
    bias_term: false
    pad: 1
    kernel_size: 3
    weight_filler {
      type: "msra"
    }
  }
}
layer {
  name: "res5.2.conv2/bn"
  type: "BatchNorm"
  bottom: "res5.2.conv2"
  top: "res5.2.conv2/bn"
  batch_norm_param {
    moving_average_fraction: 0.9
    eps: 0.0001
  }
}
layer {
  name: "res5.2.conv2/scale"
  type: "Scale"
  bottom: "res5.2.conv2/bn"
  top: "res5.2.conv2/bn"
  param {
    lr_mult: 1
    decay_mult: 0
  }
  param {
    lr_mult: 1
    decay_mult: 0
  }
  scale_param {
    bias_term: true
  }
}
layer {
  name: "res5.2.sum"
  type: "Eltwise"
  bottom: "res5.2.conv2/bn"
  bottom: "res5.1.sum"
  top: "res5.2.sum"
  eltwise_param {
    operation: SUM
  }
}
layer {
  name: "res5.2.relu"
  type: "ReLU"
  bottom: "res5.2.sum"
  top: "res5.2.sum"
}
layer {
  name: "pool2"
  type: "Pooling"
  bottom: "res5.2.sum"
  top: "pool2"
  pooling_param {
    pool: AVE
    kernel_size: 4
  }
}
layer {
  name: "fc"
  type: "InnerProduct"
  bottom: "pool2"
  top: "fc"
  inner_product_param {
    num_output: 2
    weight_filler {
      type: "msra"
    }
    bias_filler {
      type: "constant"
      value: 0
    }
  }
}
layer {
  name: "prob"
  type: "Softmax"
  bottom: "fc"
  top: "prob"
}
I0809 19:05:38.741513  6149 layer_factory.hpp:77] Creating layer data
I0809 19:05:38.741705  6149 net.cpp:86] Creating Layer data
I0809 19:05:38.741866  6149 net.cpp:382] data -> data
I0809 19:05:38.875475  6149 net.cpp:124] Setting up data
I0809 19:05:38.875591  6149 net.cpp:131] Top shape: 1 3 112 112 (37632)
I0809 19:05:38.885916  6149 net.cpp:139] Memory required for data: 150528
I0809 19:05:38.887059  6149 layer_factory.hpp:77] Creating layer conv1
I0809 19:05:38.888353  6149 net.cpp:86] Creating Layer conv1
I0809 19:05:38.888458  6149 net.cpp:408] conv1 <- data
I0809 19:05:38.888554  6149 net.cpp:382] conv1 -> conv1
I0809 19:05:45.889328  6149 net.cpp:124] Setting up conv1
I0809 19:05:45.889495  6149 net.cpp:131] Top shape: 1 64 56 56 (200704)
I0809 19:05:45.889557  6149 net.cpp:139] Memory required for data: 953344
I0809 19:05:45.889700  6149 layer_factory.hpp:77] Creating layer conv1/bn
I0809 19:05:45.889914  6149 net.cpp:86] Creating Layer conv1/bn
I0809 19:05:45.890002  6149 net.cpp:408] conv1/bn <- conv1
I0809 19:05:45.890060  6149 net.cpp:382] conv1/bn -> conv1/bn
I0809 19:05:45.892645  6149 net.cpp:124] Setting up conv1/bn
I0809 19:05:45.892782  6149 net.cpp:131] Top shape: 1 64 56 56 (200704)
I0809 19:05:45.892864  6149 net.cpp:139] Memory required for data: 1756160
I0809 19:05:45.892967  6149 layer_factory.hpp:77] Creating layer conv1/scale
I0809 19:05:45.893046  6149 net.cpp:86] Creating Layer conv1/scale
I0809 19:05:45.893085  6149 net.cpp:408] conv1/scale <- conv1/bn
I0809 19:05:45.899194  6149 net.cpp:369] conv1/scale -> conv1/bn (in-place)
I0809 19:05:45.899626  6149 layer_factory.hpp:77] Creating layer conv1/scale
I0809 19:05:45.900220  6149 net.cpp:124] Setting up conv1/scale
I0809 19:05:45.900288  6149 net.cpp:131] Top shape: 1 64 56 56 (200704)
I0809 19:05:45.900338  6149 net.cpp:139] Memory required for data: 2558976
I0809 19:05:45.900401  6149 layer_factory.hpp:77] Creating layer conv1/relu
I0809 19:05:45.900458  6149 net.cpp:86] Creating Layer conv1/relu
I0809 19:05:45.900498  6149 net.cpp:408] conv1/relu <- conv1/bn
I0809 19:05:45.900538  6149 net.cpp:369] conv1/relu -> conv1/bn (in-place)
I0809 19:05:45.903828  6149 net.cpp:124] Setting up conv1/relu
I0809 19:05:45.903970  6149 net.cpp:131] Top shape: 1 64 56 56 (200704)
I0809 19:05:45.904053  6149 net.cpp:139] Memory required for data: 3361792
I0809 19:05:45.904093  6149 layer_factory.hpp:77] Creating layer pool1
I0809 19:05:45.904139  6149 net.cpp:86] Creating Layer pool1
I0809 19:05:45.904197  6149 net.cpp:408] pool1 <- conv1/bn
I0809 19:05:45.904264  6149 net.cpp:382] pool1 -> pool1
I0809 19:05:45.904592  6149 net.cpp:124] Setting up pool1
I0809 19:05:45.904669  6149 net.cpp:131] Top shape: 1 64 28 28 (50176)
I0809 19:05:45.904731  6149 net.cpp:139] Memory required for data: 3562496
I0809 19:05:45.904764  6149 layer_factory.hpp:77] Creating layer pool1_pool1_0_split
I0809 19:05:45.904825  6149 net.cpp:86] Creating Layer pool1_pool1_0_split
I0809 19:05:45.904878  6149 net.cpp:408] pool1_pool1_0_split <- pool1
I0809 19:05:45.904942  6149 net.cpp:382] pool1_pool1_0_split -> pool1_pool1_0_split_0
I0809 19:05:45.904990  6149 net.cpp:382] pool1_pool1_0_split -> pool1_pool1_0_split_1
I0809 19:05:45.905205  6149 net.cpp:124] Setting up pool1_pool1_0_split
I0809 19:05:45.905277  6149 net.cpp:131] Top shape: 1 64 28 28 (50176)
I0809 19:05:45.905342  6149 net.cpp:131] Top shape: 1 64 28 28 (50176)
I0809 19:05:45.905380  6149 net.cpp:139] Memory required for data: 3963904
I0809 19:05:45.905429  6149 layer_factory.hpp:77] Creating layer res2.1.conv1
I0809 19:05:45.905478  6149 net.cpp:86] Creating Layer res2.1.conv1
I0809 19:05:45.905532  6149 net.cpp:408] res2.1.conv1 <- pool1_pool1_0_split_0
I0809 19:05:45.905608  6149 net.cpp:382] res2.1.conv1 -> res2.1.conv1
I0809 19:05:45.919384  6149 net.cpp:124] Setting up res2.1.conv1
I0809 19:05:45.919528  6149 net.cpp:131] Top shape: 1 64 28 28 (50176)
I0809 19:05:45.919601  6149 net.cpp:139] Memory required for data: 4164608
I0809 19:05:45.919665  6149 layer_factory.hpp:77] Creating layer res2.1.conv1/bn
I0809 19:05:45.919718  6149 net.cpp:86] Creating Layer res2.1.conv1/bn
I0809 19:05:45.919754  6149 net.cpp:408] res2.1.conv1/bn <- res2.1.conv1
I0809 19:05:45.919818  6149 net.cpp:382] res2.1.conv1/bn -> res2.1.conv1/bn
I0809 19:05:45.922163  6149 net.cpp:124] Setting up res2.1.conv1/bn
I0809 19:05:45.925282  6149 net.cpp:131] Top shape: 1 64 28 28 (50176)
I0809 19:05:45.925381  6149 net.cpp:139] Memory required for data: 4365312
I0809 19:05:45.925475  6149 layer_factory.hpp:77] Creating layer res2.1.conv1/scale
I0809 19:05:45.925551  6149 net.cpp:86] Creating Layer res2.1.conv1/scale
I0809 19:05:45.925612  6149 net.cpp:408] res2.1.conv1/scale <- res2.1.conv1/bn
I0809 19:05:45.925664  6149 net.cpp:369] res2.1.conv1/scale -> res2.1.conv1/bn (in-place)
I0809 19:05:45.926059  6149 layer_factory.hpp:77] Creating layer res2.1.conv1/scale
I0809 19:05:45.926736  6149 net.cpp:124] Setting up res2.1.conv1/scale
I0809 19:05:45.926828  6149 net.cpp:131] Top shape: 1 64 28 28 (50176)
I0809 19:05:45.926875  6149 net.cpp:139] Memory required for data: 4566016
I0809 19:05:45.926921  6149 layer_factory.hpp:77] Creating layer res2.1.conv1/relu
I0809 19:05:45.926962  6149 net.cpp:86] Creating Layer res2.1.conv1/relu
I0809 19:05:45.926996  6149 net.cpp:408] res2.1.conv1/relu <- res2.1.conv1/bn
I0809 19:05:45.927037  6149 net.cpp:369] res2.1.conv1/relu -> res2.1.conv1/bn (in-place)
I0809 19:05:45.928812  6149 net.cpp:124] Setting up res2.1.conv1/relu
I0809 19:05:45.928937  6149 net.cpp:131] Top shape: 1 64 28 28 (50176)
I0809 19:05:45.929127  6149 net.cpp:139] Memory required for data: 4766720
I0809 19:05:45.929185  6149 layer_factory.hpp:77] Creating layer res2.1.conv2
I0809 19:05:45.929253  6149 net.cpp:86] Creating Layer res2.1.conv2
I0809 19:05:45.929329  6149 net.cpp:408] res2.1.conv2 <- res2.1.conv1/bn
I0809 19:05:45.929391  6149 net.cpp:382] res2.1.conv2 -> res2.1.conv2
I0809 19:05:45.945513  6149 net.cpp:124] Setting up res2.1.conv2
I0809 19:05:45.945652  6149 net.cpp:131] Top shape: 1 64 28 28 (50176)
I0809 19:05:45.945708  6149 net.cpp:139] Memory required for data: 4967424
I0809 19:05:45.945760  6149 layer_factory.hpp:77] Creating layer res2.1.conv2/bn
I0809 19:05:45.945915  6149 net.cpp:86] Creating Layer res2.1.conv2/bn
I0809 19:05:45.945961  6149 net.cpp:408] res2.1.conv2/bn <- res2.1.conv2
I0809 19:05:45.946799  6149 net.cpp:382] res2.1.conv2/bn -> res2.1.conv2/bn
I0809 19:05:45.951102  6149 net.cpp:124] Setting up res2.1.conv2/bn
I0809 19:05:45.951227  6149 net.cpp:131] Top shape: 1 64 28 28 (50176)
I0809 19:05:45.951282  6149 net.cpp:139] Memory required for data: 5168128
I0809 19:05:45.951339  6149 layer_factory.hpp:77] Creating layer res2.1.conv2/scale
I0809 19:05:45.951403  6149 net.cpp:86] Creating Layer res2.1.conv2/scale
I0809 19:05:45.951438  6149 net.cpp:408] res2.1.conv2/scale <- res2.1.conv2/bn
I0809 19:05:45.951491  6149 net.cpp:369] res2.1.conv2/scale -> res2.1.conv2/bn (in-place)
I0809 19:05:45.951776  6149 layer_factory.hpp:77] Creating layer res2.1.conv2/scale
I0809 19:05:45.952559  6149 net.cpp:124] Setting up res2.1.conv2/scale
I0809 19:05:45.952631  6149 net.cpp:131] Top shape: 1 64 28 28 (50176)
I0809 19:05:45.952679  6149 net.cpp:139] Memory required for data: 5368832
I0809 19:05:45.952762  6149 layer_factory.hpp:77] Creating layer res2.1.sum
I0809 19:05:45.952826  6149 net.cpp:86] Creating Layer res2.1.sum
I0809 19:05:45.952864  6149 net.cpp:408] res2.1.sum <- res2.1.conv2/bn
I0809 19:05:45.952905  6149 net.cpp:408] res2.1.sum <- pool1_pool1_0_split_1
I0809 19:05:45.952950  6149 net.cpp:382] res2.1.sum -> res2.1.sum
I0809 19:05:45.953143  6149 net.cpp:124] Setting up res2.1.sum
I0809 19:05:45.953244  6149 net.cpp:131] Top shape: 1 64 28 28 (50176)
I0809 19:05:45.953294  6149 net.cpp:139] Memory required for data: 5569536
I0809 19:05:45.953327  6149 layer_factory.hpp:77] Creating layer res2.1.relu
I0809 19:05:45.953366  6149 net.cpp:86] Creating Layer res2.1.relu
I0809 19:05:45.953397  6149 net.cpp:408] res2.1.relu <- res2.1.sum
I0809 19:05:45.953449  6149 net.cpp:369] res2.1.relu -> res2.1.sum (in-place)
I0809 19:05:45.957373  6149 net.cpp:124] Setting up res2.1.relu
I0809 19:05:45.959338  6149 net.cpp:131] Top shape: 1 64 28 28 (50176)
I0809 19:05:45.959415  6149 net.cpp:139] Memory required for data: 5770240
I0809 19:05:45.959455  6149 layer_factory.hpp:77] Creating layer res2.1.sum_res2.1.relu_0_split
I0809 19:05:45.959527  6149 net.cpp:86] Creating Layer res2.1.sum_res2.1.relu_0_split
I0809 19:05:45.959571  6149 net.cpp:408] res2.1.sum_res2.1.relu_0_split <- res2.1.sum
I0809 19:05:45.959628  6149 net.cpp:382] res2.1.sum_res2.1.relu_0_split -> res2.1.sum_res2.1.relu_0_split_0
I0809 19:05:45.959687  6149 net.cpp:382] res2.1.sum_res2.1.relu_0_split -> res2.1.sum_res2.1.relu_0_split_1
I0809 19:05:45.960161  6149 net.cpp:124] Setting up res2.1.sum_res2.1.relu_0_split
I0809 19:05:45.960467  6149 net.cpp:131] Top shape: 1 64 28 28 (50176)
I0809 19:05:45.960564  6149 net.cpp:131] Top shape: 1 64 28 28 (50176)
I0809 19:05:45.960610  6149 net.cpp:139] Memory required for data: 6171648
I0809 19:05:45.960649  6149 layer_factory.hpp:77] Creating layer res2.2.conv1
I0809 19:05:45.960736  6149 net.cpp:86] Creating Layer res2.2.conv1
I0809 19:05:45.960785  6149 net.cpp:408] res2.2.conv1 <- res2.1.sum_res2.1.relu_0_split_0
I0809 19:05:45.960851  6149 net.cpp:382] res2.2.conv1 -> res2.2.conv1
I0809 19:05:45.976661  6149 net.cpp:124] Setting up res2.2.conv1
I0809 19:05:45.976866  6149 net.cpp:131] Top shape: 1 64 28 28 (50176)
I0809 19:05:45.976950  6149 net.cpp:139] Memory required for data: 6372352
I0809 19:05:45.977152  6149 layer_factory.hpp:77] Creating layer res2.2.conv1/bn
I0809 19:05:45.977273  6149 net.cpp:86] Creating Layer res2.2.conv1/bn
I0809 19:05:45.977345  6149 net.cpp:408] res2.2.conv1/bn <- res2.2.conv1
I0809 19:05:45.977414  6149 net.cpp:382] res2.2.conv1/bn -> res2.2.conv1/bn
I0809 19:05:45.979387  6149 net.cpp:124] Setting up res2.2.conv1/bn
I0809 19:05:45.982666  6149 net.cpp:131] Top shape: 1 64 28 28 (50176)
I0809 19:05:45.982991  6149 net.cpp:139] Memory required for data: 6573056
I0809 19:05:45.983139  6149 layer_factory.hpp:77] Creating layer res2.2.conv1/scale
I0809 19:05:45.983295  6149 net.cpp:86] Creating Layer res2.2.conv1/scale
I0809 19:05:45.983374  6149 net.cpp:408] res2.2.conv1/scale <- res2.2.conv1/bn
I0809 19:05:45.983492  6149 net.cpp:369] res2.2.conv1/scale -> res2.2.conv1/bn (in-place)
I0809 19:05:45.983906  6149 layer_factory.hpp:77] Creating layer res2.2.conv1/scale
I0809 19:05:45.984716  6149 net.cpp:124] Setting up res2.2.conv1/scale
I0809 19:05:45.985008  6149 net.cpp:131] Top shape: 1 64 28 28 (50176)
I0809 19:05:45.985112  6149 net.cpp:139] Memory required for data: 6773760
I0809 19:05:45.985219  6149 layer_factory.hpp:77] Creating layer res2.2.conv1/relu
I0809 19:05:45.985311  6149 net.cpp:86] Creating Layer res2.2.conv1/relu
I0809 19:05:45.985430  6149 net.cpp:408] res2.2.conv1/relu <- res2.2.conv1/bn
I0809 19:05:45.985512  6149 net.cpp:369] res2.2.conv1/relu -> res2.2.conv1/bn (in-place)
I0809 19:05:45.989995  6149 net.cpp:124] Setting up res2.2.conv1/relu
I0809 19:05:45.990133  6149 net.cpp:131] Top shape: 1 64 28 28 (50176)
I0809 19:05:45.990193  6149 net.cpp:139] Memory required for data: 6974464
I0809 19:05:45.990234  6149 layer_factory.hpp:77] Creating layer res2.2.conv2
I0809 19:05:45.990344  6149 net.cpp:86] Creating Layer res2.2.conv2
I0809 19:05:45.990396  6149 net.cpp:408] res2.2.conv2 <- res2.2.conv1/bn
I0809 19:05:45.990449  6149 net.cpp:382] res2.2.conv2 -> res2.2.conv2
I0809 19:05:46.007905  6149 net.cpp:124] Setting up res2.2.conv2
I0809 19:05:46.008036  6149 net.cpp:131] Top shape: 1 64 28 28 (50176)
I0809 19:05:46.008085  6149 net.cpp:139] Memory required for data: 7175168
I0809 19:05:46.008133  6149 layer_factory.hpp:77] Creating layer res2.2.conv2/bn
I0809 19:05:46.008195  6149 net.cpp:86] Creating Layer res2.2.conv2/bn
I0809 19:05:46.008231  6149 net.cpp:408] res2.2.conv2/bn <- res2.2.conv2
I0809 19:05:46.008272  6149 net.cpp:382] res2.2.conv2/bn -> res2.2.conv2/bn
I0809 19:05:46.009963  6149 net.cpp:124] Setting up res2.2.conv2/bn
I0809 19:05:46.010105  6149 net.cpp:131] Top shape: 1 64 28 28 (50176)
I0809 19:05:46.010159  6149 net.cpp:139] Memory required for data: 7375872
I0809 19:05:46.010215  6149 layer_factory.hpp:77] Creating layer res2.2.conv2/scale
I0809 19:05:46.010265  6149 net.cpp:86] Creating Layer res2.2.conv2/scale
I0809 19:05:46.010298  6149 net.cpp:408] res2.2.conv2/scale <- res2.2.conv2/bn
I0809 19:05:46.010341  6149 net.cpp:369] res2.2.conv2/scale -> res2.2.conv2/bn (in-place)
I0809 19:05:46.010607  6149 layer_factory.hpp:77] Creating layer res2.2.conv2/scale
I0809 19:05:46.011292  6149 net.cpp:124] Setting up res2.2.conv2/scale
I0809 19:05:46.011350  6149 net.cpp:131] Top shape: 1 64 28 28 (50176)
I0809 19:05:46.011394  6149 net.cpp:139] Memory required for data: 7576576
I0809 19:05:46.011451  6149 layer_factory.hpp:77] Creating layer res2.2.sum
I0809 19:05:46.011497  6149 net.cpp:86] Creating Layer res2.2.sum
I0809 19:05:46.011531  6149 net.cpp:408] res2.2.sum <- res2.2.conv2/bn
I0809 19:05:46.011569  6149 net.cpp:408] res2.2.sum <- res2.1.sum_res2.1.relu_0_split_1
I0809 19:05:46.011615  6149 net.cpp:382] res2.2.sum -> res2.2.sum
I0809 19:05:46.011750  6149 net.cpp:124] Setting up res2.2.sum
I0809 19:05:46.011788  6149 net.cpp:131] Top shape: 1 64 28 28 (50176)
I0809 19:05:46.011826  6149 net.cpp:139] Memory required for data: 7777280
I0809 19:05:46.011857  6149 layer_factory.hpp:77] Creating layer res2.2.relu
I0809 19:05:46.011895  6149 net.cpp:86] Creating Layer res2.2.relu
I0809 19:05:46.011929  6149 net.cpp:408] res2.2.relu <- res2.2.sum
I0809 19:05:46.012130  6149 net.cpp:369] res2.2.relu -> res2.2.sum (in-place)
I0809 19:05:46.017696  6149 net.cpp:124] Setting up res2.2.relu
I0809 19:05:46.017827  6149 net.cpp:131] Top shape: 1 64 28 28 (50176)
I0809 19:05:46.017887  6149 net.cpp:139] Memory required for data: 7977984
I0809 19:05:46.017922  6149 layer_factory.hpp:77] Creating layer res2.2.sum_res2.2.relu_0_split
I0809 19:05:46.017982  6149 net.cpp:86] Creating Layer res2.2.sum_res2.2.relu_0_split
I0809 19:05:46.018019  6149 net.cpp:408] res2.2.sum_res2.2.relu_0_split <- res2.2.sum
I0809 19:05:46.018067  6149 net.cpp:382] res2.2.sum_res2.2.relu_0_split -> res2.2.sum_res2.2.relu_0_split_0
I0809 19:05:46.018121  6149 net.cpp:382] res2.2.sum_res2.2.relu_0_split -> res2.2.sum_res2.2.relu_0_split_1
I0809 19:05:46.018539  6149 net.cpp:124] Setting up res2.2.sum_res2.2.relu_0_split
I0809 19:05:46.025481  6149 net.cpp:131] Top shape: 1 64 28 28 (50176)
I0809 19:05:46.025599  6149 net.cpp:131] Top shape: 1 64 28 28 (50176)
I0809 19:05:46.025663  6149 net.cpp:139] Memory required for data: 8379392
I0809 19:05:46.025701  6149 layer_factory.hpp:77] Creating layer res3.1.conv1
I0809 19:05:46.025880  6149 net.cpp:86] Creating Layer res3.1.conv1
I0809 19:05:46.025969  6149 net.cpp:408] res3.1.conv1 <- res2.2.sum_res2.2.relu_0_split_0
I0809 19:05:46.026031  6149 net.cpp:382] res3.1.conv1 -> res3.1.conv1
I0809 19:05:46.043623  6149 net.cpp:124] Setting up res3.1.conv1
I0809 19:05:46.043789  6149 net.cpp:131] Top shape: 1 128 14 14 (25088)
I0809 19:05:46.043882  6149 net.cpp:139] Memory required for data: 8479744
I0809 19:05:46.043949  6149 layer_factory.hpp:77] Creating layer res3.1.conv1/bn
I0809 19:05:46.044028  6149 net.cpp:86] Creating Layer res3.1.conv1/bn
I0809 19:05:46.044114  6149 net.cpp:408] res3.1.conv1/bn <- res3.1.conv1
I0809 19:05:46.044198  6149 net.cpp:382] res3.1.conv1/bn -> res3.1.conv1/bn
I0809 19:05:46.046764  6149 net.cpp:124] Setting up res3.1.conv1/bn
I0809 19:05:46.046921  6149 net.cpp:131] Top shape: 1 128 14 14 (25088)
I0809 19:05:46.046980  6149 net.cpp:139] Memory required for data: 8580096
I0809 19:05:46.047132  6149 layer_factory.hpp:77] Creating layer res3.1.conv1/scale
I0809 19:05:46.047241  6149 net.cpp:86] Creating Layer res3.1.conv1/scale
I0809 19:05:46.047329  6149 net.cpp:408] res3.1.conv1/scale <- res3.1.conv1/bn
I0809 19:05:46.047396  6149 net.cpp:369] res3.1.conv1/scale -> res3.1.conv1/bn (in-place)
I0809 19:05:46.048261  6149 layer_factory.hpp:77] Creating layer res3.1.conv1/scale
I0809 19:05:46.050143  6149 net.cpp:124] Setting up res3.1.conv1/scale
I0809 19:05:46.050300  6149 net.cpp:131] Top shape: 1 128 14 14 (25088)
I0809 19:05:46.050364  6149 net.cpp:139] Memory required for data: 8680448
I0809 19:05:46.050451  6149 layer_factory.hpp:77] Creating layer res3.1.conv1/relu
I0809 19:05:46.050513  6149 net.cpp:86] Creating Layer res3.1.conv1/relu
I0809 19:05:46.050552  6149 net.cpp:408] res3.1.conv1/relu <- res3.1.conv1/bn
I0809 19:05:46.050595  6149 net.cpp:369] res3.1.conv1/relu -> res3.1.conv1/bn (in-place)
I0809 19:05:46.054873  6149 net.cpp:124] Setting up res3.1.conv1/relu
I0809 19:05:46.056707  6149 net.cpp:131] Top shape: 1 128 14 14 (25088)
I0809 19:05:46.056788  6149 net.cpp:139] Memory required for data: 8780800
I0809 19:05:46.056833  6149 layer_factory.hpp:77] Creating layer res3.1.conv2
I0809 19:05:46.056921  6149 net.cpp:86] Creating Layer res3.1.conv2
I0809 19:05:46.057015  6149 net.cpp:408] res3.1.conv2 <- res3.1.conv1/bn
I0809 19:05:46.057096  6149 net.cpp:382] res3.1.conv2 -> res3.1.conv2
I0809 19:05:46.085713  6149 net.cpp:124] Setting up res3.1.conv2
I0809 19:05:46.086014  6149 net.cpp:131] Top shape: 1 128 14 14 (25088)
I0809 19:05:46.086104  6149 net.cpp:139] Memory required for data: 8881152
I0809 19:05:46.086175  6149 layer_factory.hpp:77] Creating layer res3.1.conv2/bn
I0809 19:05:46.086324  6149 net.cpp:86] Creating Layer res3.1.conv2/bn
I0809 19:05:46.086376  6149 net.cpp:408] res3.1.conv2/bn <- res3.1.conv2
I0809 19:05:46.086431  6149 net.cpp:382] res3.1.conv2/bn -> res3.1.conv2/bn
I0809 19:05:46.090492  6149 net.cpp:124] Setting up res3.1.conv2/bn
I0809 19:05:46.090703  6149 net.cpp:131] Top shape: 1 128 14 14 (25088)
I0809 19:05:46.090777  6149 net.cpp:139] Memory required for data: 8981504
I0809 19:05:46.090914  6149 layer_factory.hpp:77] Creating layer res3.1.conv2/scale
I0809 19:05:46.091032  6149 net.cpp:86] Creating Layer res3.1.conv2/scale
I0809 19:05:46.091138  6149 net.cpp:408] res3.1.conv2/scale <- res3.1.conv2/bn
I0809 19:05:46.091223  6149 net.cpp:369] res3.1.conv2/scale -> res3.1.conv2/bn (in-place)
I0809 19:05:46.091612  6149 layer_factory.hpp:77] Creating layer res3.1.conv2/scale
I0809 19:05:46.093029  6149 net.cpp:124] Setting up res3.1.conv2/scale
I0809 19:05:46.093603  6149 net.cpp:131] Top shape: 1 128 14 14 (25088)
I0809 19:05:46.093688  6149 net.cpp:139] Memory required for data: 9081856
I0809 19:05:46.093973  6149 layer_factory.hpp:77] Creating layer res3.1.skipConv
I0809 19:05:46.094102  6149 net.cpp:86] Creating Layer res3.1.skipConv
I0809 19:05:46.094151  6149 net.cpp:408] res3.1.skipConv <- res2.2.sum_res2.2.relu_0_split_1
I0809 19:05:46.094202  6149 net.cpp:382] res3.1.skipConv -> res3.1.skipConv
I0809 19:05:46.123847  6149 net.cpp:124] Setting up res3.1.skipConv
I0809 19:05:46.123992  6149 net.cpp:131] Top shape: 1 128 14 14 (25088)
I0809 19:05:46.124054  6149 net.cpp:139] Memory required for data: 9182208
I0809 19:05:46.124104  6149 layer_factory.hpp:77] Creating layer res3.1.skipConv/bn
I0809 19:05:46.124173  6149 net.cpp:86] Creating Layer res3.1.skipConv/bn
I0809 19:05:46.124213  6149 net.cpp:408] res3.1.skipConv/bn <- res3.1.skipConv
I0809 19:05:46.124256  6149 net.cpp:382] res3.1.skipConv/bn -> res3.1.skipConv/bn
I0809 19:05:46.125447  6149 net.cpp:124] Setting up res3.1.skipConv/bn
I0809 19:05:46.125571  6149 net.cpp:131] Top shape: 1 128 14 14 (25088)
I0809 19:05:46.125670  6149 net.cpp:139] Memory required for data: 9282560
I0809 19:05:46.125730  6149 layer_factory.hpp:77] Creating layer res3.1.skipConv/scale
I0809 19:05:46.125844  6149 net.cpp:86] Creating Layer res3.1.skipConv/scale
I0809 19:05:46.126080  6149 net.cpp:408] res3.1.skipConv/scale <- res3.1.skipConv/bn
I0809 19:05:46.126180  6149 net.cpp:369] res3.1.skipConv/scale -> res3.1.skipConv/bn (in-place)
I0809 19:05:46.126514  6149 layer_factory.hpp:77] Creating layer res3.1.skipConv/scale
I0809 19:05:46.127319  6149 net.cpp:124] Setting up res3.1.skipConv/scale
I0809 19:05:46.127414  6149 net.cpp:131] Top shape: 1 128 14 14 (25088)
I0809 19:05:46.127463  6149 net.cpp:139] Memory required for data: 9382912
I0809 19:05:46.127516  6149 layer_factory.hpp:77] Creating layer res3.1.sum
I0809 19:05:46.127570  6149 net.cpp:86] Creating Layer res3.1.sum
I0809 19:05:46.127630  6149 net.cpp:408] res3.1.sum <- res3.1.conv2/bn
I0809 19:05:46.127673  6149 net.cpp:408] res3.1.sum <- res3.1.skipConv/bn
I0809 19:05:46.127717  6149 net.cpp:382] res3.1.sum -> res3.1.sum
I0809 19:05:46.127945  6149 net.cpp:124] Setting up res3.1.sum
I0809 19:05:46.128029  6149 net.cpp:131] Top shape: 1 128 14 14 (25088)
I0809 19:05:46.128085  6149 net.cpp:139] Memory required for data: 9483264
I0809 19:05:46.128211  6149 layer_factory.hpp:77] Creating layer res3.1.relu
I0809 19:05:46.128270  6149 net.cpp:86] Creating Layer res3.1.relu
I0809 19:05:46.128305  6149 net.cpp:408] res3.1.relu <- res3.1.sum
I0809 19:05:46.128376  6149 net.cpp:369] res3.1.relu -> res3.1.sum (in-place)
I0809 19:05:46.132127  6149 net.cpp:124] Setting up res3.1.relu
I0809 19:05:46.132582  6149 net.cpp:131] Top shape: 1 128 14 14 (25088)
I0809 19:05:46.132695  6149 net.cpp:139] Memory required for data: 9583616
I0809 19:05:46.132736  6149 layer_factory.hpp:77] Creating layer res3.1.sum_res3.1.relu_0_split
I0809 19:05:46.132802  6149 net.cpp:86] Creating Layer res3.1.sum_res3.1.relu_0_split
I0809 19:05:46.132841  6149 net.cpp:408] res3.1.sum_res3.1.relu_0_split <- res3.1.sum
I0809 19:05:46.132884  6149 net.cpp:382] res3.1.sum_res3.1.relu_0_split -> res3.1.sum_res3.1.relu_0_split_0
I0809 19:05:46.132933  6149 net.cpp:382] res3.1.sum_res3.1.relu_0_split -> res3.1.sum_res3.1.relu_0_split_1
I0809 19:05:46.133457  6149 net.cpp:124] Setting up res3.1.sum_res3.1.relu_0_split
I0809 19:05:46.133559  6149 net.cpp:131] Top shape: 1 128 14 14 (25088)
I0809 19:05:46.133607  6149 net.cpp:131] Top shape: 1 128 14 14 (25088)
I0809 19:05:46.133642  6149 net.cpp:139] Memory required for data: 9784320
I0809 19:05:46.133674  6149 layer_factory.hpp:77] Creating layer res3.2.conv1
I0809 19:05:46.133723  6149 net.cpp:86] Creating Layer res3.2.conv1
I0809 19:05:46.133757  6149 net.cpp:408] res3.2.conv1 <- res3.1.sum_res3.1.relu_0_split_0
I0809 19:05:46.133867  6149 net.cpp:382] res3.2.conv1 -> res3.2.conv1
I0809 19:05:46.158043  6149 net.cpp:124] Setting up res3.2.conv1
I0809 19:05:46.158183  6149 net.cpp:131] Top shape: 1 128 14 14 (25088)
I0809 19:05:46.158242  6149 net.cpp:139] Memory required for data: 9884672
I0809 19:05:46.158293  6149 layer_factory.hpp:77] Creating layer res3.2.conv1/bn
I0809 19:05:46.158357  6149 net.cpp:86] Creating Layer res3.2.conv1/bn
I0809 19:05:46.158396  6149 net.cpp:408] res3.2.conv1/bn <- res3.2.conv1
I0809 19:05:46.158438  6149 net.cpp:382] res3.2.conv1/bn -> res3.2.conv1/bn
I0809 19:05:46.159564  6149 net.cpp:124] Setting up res3.2.conv1/bn
I0809 19:05:46.159623  6149 net.cpp:131] Top shape: 1 128 14 14 (25088)
I0809 19:05:46.159662  6149 net.cpp:139] Memory required for data: 9985024
I0809 19:05:46.159710  6149 layer_factory.hpp:77] Creating layer res3.2.conv1/scale
I0809 19:05:46.159759  6149 net.cpp:86] Creating Layer res3.2.conv1/scale
I0809 19:05:46.159793  6149 net.cpp:408] res3.2.conv1/scale <- res3.2.conv1/bn
I0809 19:05:46.159885  6149 net.cpp:369] res3.2.conv1/scale -> res3.2.conv1/bn (in-place)
I0809 19:05:46.160163  6149 layer_factory.hpp:77] Creating layer res3.2.conv1/scale
I0809 19:05:46.160811  6149 net.cpp:124] Setting up res3.2.conv1/scale
I0809 19:05:46.160930  6149 net.cpp:131] Top shape: 1 128 14 14 (25088)
I0809 19:05:46.160986  6149 net.cpp:139] Memory required for data: 10085376
I0809 19:05:46.161068  6149 layer_factory.hpp:77] Creating layer res3.2.conv1/relu
I0809 19:05:46.161123  6149 net.cpp:86] Creating Layer res3.2.conv1/relu
I0809 19:05:46.161164  6149 net.cpp:408] res3.2.conv1/relu <- res3.2.conv1/bn
I0809 19:05:46.161211  6149 net.cpp:369] res3.2.conv1/relu -> res3.2.conv1/bn (in-place)
I0809 19:05:46.165495  6149 net.cpp:124] Setting up res3.2.conv1/relu
I0809 19:05:46.168833  6149 net.cpp:131] Top shape: 1 128 14 14 (25088)
I0809 19:05:46.168956  6149 net.cpp:139] Memory required for data: 10185728
I0809 19:05:46.169003  6149 layer_factory.hpp:77] Creating layer res3.2.conv2
I0809 19:05:46.169091  6149 net.cpp:86] Creating Layer res3.2.conv2
I0809 19:05:46.169137  6149 net.cpp:408] res3.2.conv2 <- res3.2.conv1/bn
I0809 19:05:46.169188  6149 net.cpp:382] res3.2.conv2 -> res3.2.conv2
I0809 19:05:46.192046  6149 net.cpp:124] Setting up res3.2.conv2
I0809 19:05:46.192250  6149 net.cpp:131] Top shape: 1 128 14 14 (25088)
I0809 19:05:46.192312  6149 net.cpp:139] Memory required for data: 10286080
I0809 19:05:46.192368  6149 layer_factory.hpp:77] Creating layer res3.2.conv2/bn
I0809 19:05:46.192438  6149 net.cpp:86] Creating Layer res3.2.conv2/bn
I0809 19:05:46.192481  6149 net.cpp:408] res3.2.conv2/bn <- res3.2.conv2
I0809 19:05:46.192525  6149 net.cpp:382] res3.2.conv2/bn -> res3.2.conv2/bn
I0809 19:05:46.193765  6149 net.cpp:124] Setting up res3.2.conv2/bn
I0809 19:05:46.197980  6149 net.cpp:131] Top shape: 1 128 14 14 (25088)
I0809 19:05:46.201602  6149 net.cpp:139] Memory required for data: 10386432
I0809 19:05:46.201845  6149 layer_factory.hpp:77] Creating layer res3.2.conv2/scale
I0809 19:05:46.201923  6149 net.cpp:86] Creating Layer res3.2.conv2/scale
I0809 19:05:46.201964  6149 net.cpp:408] res3.2.conv2/scale <- res3.2.conv2/bn
I0809 19:05:46.202008  6149 net.cpp:369] res3.2.conv2/scale -> res3.2.conv2/bn (in-place)
I0809 19:05:46.202381  6149 layer_factory.hpp:77] Creating layer res3.2.conv2/scale
I0809 19:05:46.203027  6149 net.cpp:124] Setting up res3.2.conv2/scale
I0809 19:05:46.203114  6149 net.cpp:131] Top shape: 1 128 14 14 (25088)
I0809 19:05:46.203303  6149 net.cpp:139] Memory required for data: 10486784
I0809 19:05:46.203366  6149 layer_factory.hpp:77] Creating layer res3.2.sum
I0809 19:05:46.203454  6149 net.cpp:86] Creating Layer res3.2.sum
I0809 19:05:46.203507  6149 net.cpp:408] res3.2.sum <- res3.2.conv2/bn
I0809 19:05:46.203552  6149 net.cpp:408] res3.2.sum <- res3.1.sum_res3.1.relu_0_split_1
I0809 19:05:46.203598  6149 net.cpp:382] res3.2.sum -> res3.2.sum
I0809 19:05:46.203789  6149 net.cpp:124] Setting up res3.2.sum
I0809 19:05:46.203835  6149 net.cpp:131] Top shape: 1 128 14 14 (25088)
I0809 19:05:46.203876  6149 net.cpp:139] Memory required for data: 10587136
I0809 19:05:46.203908  6149 layer_factory.hpp:77] Creating layer res3.2.relu
I0809 19:05:46.203948  6149 net.cpp:86] Creating Layer res3.2.relu
I0809 19:05:46.203979  6149 net.cpp:408] res3.2.relu <- res3.2.sum
I0809 19:05:46.204016  6149 net.cpp:369] res3.2.relu -> res3.2.sum (in-place)
I0809 19:05:46.207522  6149 net.cpp:124] Setting up res3.2.relu
I0809 19:05:46.207654  6149 net.cpp:131] Top shape: 1 128 14 14 (25088)
I0809 19:05:46.207705  6149 net.cpp:139] Memory required for data: 10687488
I0809 19:05:46.207737  6149 layer_factory.hpp:77] Creating layer res3.2.sum_res3.2.relu_0_split
I0809 19:05:46.207795  6149 net.cpp:86] Creating Layer res3.2.sum_res3.2.relu_0_split
I0809 19:05:46.207834  6149 net.cpp:408] res3.2.sum_res3.2.relu_0_split <- res3.2.sum
I0809 19:05:46.207878  6149 net.cpp:382] res3.2.sum_res3.2.relu_0_split -> res3.2.sum_res3.2.relu_0_split_0
I0809 19:05:46.207922  6149 net.cpp:382] res3.2.sum_res3.2.relu_0_split -> res3.2.sum_res3.2.relu_0_split_1
I0809 19:05:46.208245  6149 net.cpp:124] Setting up res3.2.sum_res3.2.relu_0_split
I0809 19:05:46.208302  6149 net.cpp:131] Top shape: 1 128 14 14 (25088)
I0809 19:05:46.208346  6149 net.cpp:131] Top shape: 1 128 14 14 (25088)
I0809 19:05:46.208379  6149 net.cpp:139] Memory required for data: 10888192
I0809 19:05:46.208410  6149 layer_factory.hpp:77] Creating layer res4.1.conv1
I0809 19:05:46.208469  6149 net.cpp:86] Creating Layer res4.1.conv1
I0809 19:05:46.208508  6149 net.cpp:408] res4.1.conv1 <- res3.2.sum_res3.2.relu_0_split_0
I0809 19:05:46.208554  6149 net.cpp:382] res4.1.conv1 -> res4.1.conv1
I0809 19:05:46.235591  6149 net.cpp:124] Setting up res4.1.conv1
I0809 19:05:46.235751  6149 net.cpp:131] Top shape: 1 256 7 7 (12544)
I0809 19:05:46.235802  6149 net.cpp:139] Memory required for data: 10938368
I0809 19:05:46.235849  6149 layer_factory.hpp:77] Creating layer res4.1.conv1/bn
I0809 19:05:46.235911  6149 net.cpp:86] Creating Layer res4.1.conv1/bn
I0809 19:05:46.235949  6149 net.cpp:408] res4.1.conv1/bn <- res4.1.conv1
I0809 19:05:46.235991  6149 net.cpp:382] res4.1.conv1/bn -> res4.1.conv1/bn
I0809 19:05:46.237287  6149 net.cpp:124] Setting up res4.1.conv1/bn
I0809 19:05:46.237390  6149 net.cpp:131] Top shape: 1 256 7 7 (12544)
I0809 19:05:46.237457  6149 net.cpp:139] Memory required for data: 10988544
I0809 19:05:46.237530  6149 layer_factory.hpp:77] Creating layer res4.1.conv1/scale
I0809 19:05:46.237609  6149 net.cpp:86] Creating Layer res4.1.conv1/scale
I0809 19:05:46.237671  6149 net.cpp:408] res4.1.conv1/scale <- res4.1.conv1/bn
I0809 19:05:46.237737  6149 net.cpp:369] res4.1.conv1/scale -> res4.1.conv1/bn (in-place)
I0809 19:05:46.238183  6149 layer_factory.hpp:77] Creating layer res4.1.conv1/scale
I0809 19:05:46.238979  6149 net.cpp:124] Setting up res4.1.conv1/scale
I0809 19:05:46.239076  6149 net.cpp:131] Top shape: 1 256 7 7 (12544)
I0809 19:05:46.239161  6149 net.cpp:139] Memory required for data: 11038720
I0809 19:05:46.239291  6149 layer_factory.hpp:77] Creating layer res4.1.conv1/relu
I0809 19:05:46.239365  6149 net.cpp:86] Creating Layer res4.1.conv1/relu
I0809 19:05:46.239423  6149 net.cpp:408] res4.1.conv1/relu <- res4.1.conv1/bn
I0809 19:05:46.239490  6149 net.cpp:369] res4.1.conv1/relu -> res4.1.conv1/bn (in-place)
I0809 19:05:46.242314  6149 net.cpp:124] Setting up res4.1.conv1/relu
I0809 19:05:46.242493  6149 net.cpp:131] Top shape: 1 256 7 7 (12544)
I0809 19:05:46.242560  6149 net.cpp:139] Memory required for data: 11088896
I0809 19:05:46.242830  6149 layer_factory.hpp:77] Creating layer res4.1.conv2
I0809 19:05:46.242966  6149 net.cpp:86] Creating Layer res4.1.conv2
I0809 19:05:46.243088  6149 net.cpp:408] res4.1.conv2 <- res4.1.conv1/bn
I0809 19:05:46.243188  6149 net.cpp:382] res4.1.conv2 -> res4.1.conv2
I0809 19:05:46.293535  6149 net.cpp:124] Setting up res4.1.conv2
I0809 19:05:46.293691  6149 net.cpp:131] Top shape: 1 256 7 7 (12544)
I0809 19:05:46.293761  6149 net.cpp:139] Memory required for data: 11139072
I0809 19:05:46.293892  6149 layer_factory.hpp:77] Creating layer res4.1.conv2/bn
I0809 19:05:46.293959  6149 net.cpp:86] Creating Layer res4.1.conv2/bn
I0809 19:05:46.293998  6149 net.cpp:408] res4.1.conv2/bn <- res4.1.conv2
I0809 19:05:46.294060  6149 net.cpp:382] res4.1.conv2/bn -> res4.1.conv2/bn
I0809 19:05:46.295650  6149 net.cpp:124] Setting up res4.1.conv2/bn
I0809 19:05:46.295795  6149 net.cpp:131] Top shape: 1 256 7 7 (12544)
I0809 19:05:46.295892  6149 net.cpp:139] Memory required for data: 11189248
I0809 19:05:46.295958  6149 layer_factory.hpp:77] Creating layer res4.1.conv2/scale
I0809 19:05:46.296020  6149 net.cpp:86] Creating Layer res4.1.conv2/scale
I0809 19:05:46.296058  6149 net.cpp:408] res4.1.conv2/scale <- res4.1.conv2/bn
I0809 19:05:46.296134  6149 net.cpp:369] res4.1.conv2/scale -> res4.1.conv2/bn (in-place)
I0809 19:05:46.296639  6149 layer_factory.hpp:77] Creating layer res4.1.conv2/scale
I0809 19:05:46.297595  6149 net.cpp:124] Setting up res4.1.conv2/scale
I0809 19:05:46.297830  6149 net.cpp:131] Top shape: 1 256 7 7 (12544)
I0809 19:05:46.297924  6149 net.cpp:139] Memory required for data: 11239424
I0809 19:05:46.297996  6149 layer_factory.hpp:77] Creating layer res4.1.skipConv
I0809 19:05:46.298053  6149 net.cpp:86] Creating Layer res4.1.skipConv
I0809 19:05:46.298089  6149 net.cpp:408] res4.1.skipConv <- res3.2.sum_res3.2.relu_0_split_1
I0809 19:05:46.298132  6149 net.cpp:382] res4.1.skipConv -> res4.1.skipConv
I0809 19:05:46.311046  6149 net.cpp:124] Setting up res4.1.skipConv
I0809 19:05:46.315659  6149 net.cpp:131] Top shape: 1 256 7 7 (12544)
I0809 19:05:46.315726  6149 net.cpp:139] Memory required for data: 11289600
I0809 19:05:46.315776  6149 layer_factory.hpp:77] Creating layer res4.1.skipConv/bn
I0809 19:05:46.315847  6149 net.cpp:86] Creating Layer res4.1.skipConv/bn
I0809 19:05:46.315886  6149 net.cpp:408] res4.1.skipConv/bn <- res4.1.skipConv
I0809 19:05:46.315928  6149 net.cpp:382] res4.1.skipConv/bn -> res4.1.skipConv/bn
I0809 19:05:46.317108  6149 net.cpp:124] Setting up res4.1.skipConv/bn
I0809 19:05:46.317239  6149 net.cpp:131] Top shape: 1 256 7 7 (12544)
I0809 19:05:46.317283  6149 net.cpp:139] Memory required for data: 11339776
I0809 19:05:46.317355  6149 layer_factory.hpp:77] Creating layer res4.1.skipConv/scale
I0809 19:05:46.317430  6149 net.cpp:86] Creating Layer res4.1.skipConv/scale
I0809 19:05:46.317466  6149 net.cpp:408] res4.1.skipConv/scale <- res4.1.skipConv/bn
I0809 19:05:46.317523  6149 net.cpp:369] res4.1.skipConv/scale -> res4.1.skipConv/bn (in-place)
I0809 19:05:46.317915  6149 layer_factory.hpp:77] Creating layer res4.1.skipConv/scale
I0809 19:05:46.318619  6149 net.cpp:124] Setting up res4.1.skipConv/scale
I0809 19:05:46.318722  6149 net.cpp:131] Top shape: 1 256 7 7 (12544)
I0809 19:05:46.318771  6149 net.cpp:139] Memory required for data: 11389952
I0809 19:05:46.318816  6149 layer_factory.hpp:77] Creating layer res4.1.sum
I0809 19:05:46.318858  6149 net.cpp:86] Creating Layer res4.1.sum
I0809 19:05:46.318892  6149 net.cpp:408] res4.1.sum <- res4.1.conv2/bn
I0809 19:05:46.318929  6149 net.cpp:408] res4.1.sum <- res4.1.skipConv/bn
I0809 19:05:46.318982  6149 net.cpp:382] res4.1.sum -> res4.1.sum
I0809 19:05:46.319200  6149 net.cpp:124] Setting up res4.1.sum
I0809 19:05:46.319247  6149 net.cpp:131] Top shape: 1 256 7 7 (12544)
I0809 19:05:46.319283  6149 net.cpp:139] Memory required for data: 11440128
I0809 19:05:46.319314  6149 layer_factory.hpp:77] Creating layer res4.1.relu
I0809 19:05:46.319351  6149 net.cpp:86] Creating Layer res4.1.relu
I0809 19:05:46.319479  6149 net.cpp:408] res4.1.relu <- res4.1.sum
I0809 19:05:46.319541  6149 net.cpp:369] res4.1.relu -> res4.1.sum (in-place)
I0809 19:05:46.325364  6149 net.cpp:124] Setting up res4.1.relu
I0809 19:05:46.325510  6149 net.cpp:131] Top shape: 1 256 7 7 (12544)
I0809 19:05:46.325569  6149 net.cpp:139] Memory required for data: 11490304
I0809 19:05:46.325608  6149 layer_factory.hpp:77] Creating layer res4.1.sum_res4.1.relu_0_split
I0809 19:05:46.325677  6149 net.cpp:86] Creating Layer res4.1.sum_res4.1.relu_0_split
I0809 19:05:46.325721  6149 net.cpp:408] res4.1.sum_res4.1.relu_0_split <- res4.1.sum
I0809 19:05:46.325834  6149 net.cpp:382] res4.1.sum_res4.1.relu_0_split -> res4.1.sum_res4.1.relu_0_split_0
I0809 19:05:46.325903  6149 net.cpp:382] res4.1.sum_res4.1.relu_0_split -> res4.1.sum_res4.1.relu_0_split_1
I0809 19:05:46.326225  6149 net.cpp:124] Setting up res4.1.sum_res4.1.relu_0_split
I0809 19:05:46.326270  6149 net.cpp:131] Top shape: 1 256 7 7 (12544)
I0809 19:05:46.326308  6149 net.cpp:131] Top shape: 1 256 7 7 (12544)
I0809 19:05:46.326340  6149 net.cpp:139] Memory required for data: 11590656
I0809 19:05:46.326367  6149 layer_factory.hpp:77] Creating layer res4.2.conv1
I0809 19:05:46.326457  6149 net.cpp:86] Creating Layer res4.2.conv1
I0809 19:05:46.326494  6149 net.cpp:408] res4.2.conv1 <- res4.1.sum_res4.1.relu_0_split_0
I0809 19:05:46.326542  6149 net.cpp:382] res4.2.conv1 -> res4.2.conv1
I0809 19:05:46.378324  6149 net.cpp:124] Setting up res4.2.conv1
I0809 19:05:46.378587  6149 net.cpp:131] Top shape: 1 256 7 7 (12544)
I0809 19:05:46.378674  6149 net.cpp:139] Memory required for data: 11640832
I0809 19:05:46.378792  6149 layer_factory.hpp:77] Creating layer res4.2.conv1/bn
I0809 19:05:46.378883  6149 net.cpp:86] Creating Layer res4.2.conv1/bn
I0809 19:05:46.378926  6149 net.cpp:408] res4.2.conv1/bn <- res4.2.conv1
I0809 19:05:46.378968  6149 net.cpp:382] res4.2.conv1/bn -> res4.2.conv1/bn
I0809 19:05:46.380288  6149 net.cpp:124] Setting up res4.2.conv1/bn
I0809 19:05:46.384465  6149 net.cpp:131] Top shape: 1 256 7 7 (12544)
I0809 19:05:46.384604  6149 net.cpp:139] Memory required for data: 11691008
I0809 19:05:46.384740  6149 layer_factory.hpp:77] Creating layer res4.2.conv1/scale
I0809 19:05:46.384804  6149 net.cpp:86] Creating Layer res4.2.conv1/scale
I0809 19:05:46.384845  6149 net.cpp:408] res4.2.conv1/scale <- res4.2.conv1/bn
I0809 19:05:46.384892  6149 net.cpp:369] res4.2.conv1/scale -> res4.2.conv1/bn (in-place)
I0809 19:05:46.385303  6149 layer_factory.hpp:77] Creating layer res4.2.conv1/scale
I0809 19:05:46.386102  6149 net.cpp:124] Setting up res4.2.conv1/scale
I0809 19:05:46.386169  6149 net.cpp:131] Top shape: 1 256 7 7 (12544)
I0809 19:05:46.386217  6149 net.cpp:139] Memory required for data: 11741184
I0809 19:05:46.386266  6149 layer_factory.hpp:77] Creating layer res4.2.conv1/relu
I0809 19:05:46.386317  6149 net.cpp:86] Creating Layer res4.2.conv1/relu
I0809 19:05:46.386402  6149 net.cpp:408] res4.2.conv1/relu <- res4.2.conv1/bn
I0809 19:05:46.386456  6149 net.cpp:369] res4.2.conv1/relu -> res4.2.conv1/bn (in-place)
I0809 19:05:46.390257  6149 net.cpp:124] Setting up res4.2.conv1/relu
I0809 19:05:46.390400  6149 net.cpp:131] Top shape: 1 256 7 7 (12544)
I0809 19:05:46.390455  6149 net.cpp:139] Memory required for data: 11791360
I0809 19:05:46.390486  6149 layer_factory.hpp:77] Creating layer res4.2.conv2
I0809 19:05:46.390561  6149 net.cpp:86] Creating Layer res4.2.conv2
I0809 19:05:46.390600  6149 net.cpp:408] res4.2.conv2 <- res4.2.conv1/bn
I0809 19:05:46.390645  6149 net.cpp:382] res4.2.conv2 -> res4.2.conv2
I0809 19:05:46.439658  6149 net.cpp:124] Setting up res4.2.conv2
I0809 19:05:46.439785  6149 net.cpp:131] Top shape: 1 256 7 7 (12544)
I0809 19:05:46.439846  6149 net.cpp:139] Memory required for data: 11841536
I0809 19:05:46.439903  6149 layer_factory.hpp:77] Creating layer res4.2.conv2/bn
I0809 19:05:46.439987  6149 net.cpp:86] Creating Layer res4.2.conv2/bn
I0809 19:05:46.440042  6149 net.cpp:408] res4.2.conv2/bn <- res4.2.conv2
I0809 19:05:46.440099  6149 net.cpp:382] res4.2.conv2/bn -> res4.2.conv2/bn
I0809 19:05:46.442103  6149 net.cpp:124] Setting up res4.2.conv2/bn
I0809 19:05:46.442262  6149 net.cpp:131] Top shape: 1 256 7 7 (12544)
I0809 19:05:46.442325  6149 net.cpp:139] Memory required for data: 11891712
I0809 19:05:46.442391  6149 layer_factory.hpp:77] Creating layer res4.2.conv2/scale
I0809 19:05:46.442456  6149 net.cpp:86] Creating Layer res4.2.conv2/scale
I0809 19:05:46.442503  6149 net.cpp:408] res4.2.conv2/scale <- res4.2.conv2/bn
I0809 19:05:46.442548  6149 net.cpp:369] res4.2.conv2/scale -> res4.2.conv2/bn (in-place)
I0809 19:05:46.442879  6149 layer_factory.hpp:77] Creating layer res4.2.conv2/scale
I0809 19:05:46.443713  6149 net.cpp:124] Setting up res4.2.conv2/scale
I0809 19:05:46.443804  6149 net.cpp:131] Top shape: 1 256 7 7 (12544)
I0809 19:05:46.443866  6149 net.cpp:139] Memory required for data: 11941888
I0809 19:05:46.443953  6149 layer_factory.hpp:77] Creating layer res4.2.sum
I0809 19:05:46.444010  6149 net.cpp:86] Creating Layer res4.2.sum
I0809 19:05:46.444047  6149 net.cpp:408] res4.2.sum <- res4.2.conv2/bn
I0809 19:05:46.444097  6149 net.cpp:408] res4.2.sum <- res4.1.sum_res4.1.relu_0_split_1
I0809 19:05:46.444141  6149 net.cpp:382] res4.2.sum -> res4.2.sum
I0809 19:05:46.444373  6149 net.cpp:124] Setting up res4.2.sum
I0809 19:05:46.444425  6149 net.cpp:131] Top shape: 1 256 7 7 (12544)
I0809 19:05:46.444463  6149 net.cpp:139] Memory required for data: 11992064
I0809 19:05:46.444492  6149 layer_factory.hpp:77] Creating layer res4.2.relu
I0809 19:05:46.444527  6149 net.cpp:86] Creating Layer res4.2.relu
I0809 19:05:46.444557  6149 net.cpp:408] res4.2.relu <- res4.2.sum
I0809 19:05:46.444604  6149 net.cpp:369] res4.2.relu -> res4.2.sum (in-place)
I0809 19:05:46.447019  6149 net.cpp:124] Setting up res4.2.relu
I0809 19:05:46.447100  6149 net.cpp:131] Top shape: 1 256 7 7 (12544)
I0809 19:05:46.447142  6149 net.cpp:139] Memory required for data: 12042240
I0809 19:05:46.447175  6149 layer_factory.hpp:77] Creating layer res4.2.sum_res4.2.relu_0_split
I0809 19:05:46.447229  6149 net.cpp:86] Creating Layer res4.2.sum_res4.2.relu_0_split
I0809 19:05:46.447263  6149 net.cpp:408] res4.2.sum_res4.2.relu_0_split <- res4.2.sum
I0809 19:05:46.447310  6149 net.cpp:382] res4.2.sum_res4.2.relu_0_split -> res4.2.sum_res4.2.relu_0_split_0
I0809 19:05:46.447417  6149 net.cpp:382] res4.2.sum_res4.2.relu_0_split -> res4.2.sum_res4.2.relu_0_split_1
I0809 19:05:46.447806  6149 net.cpp:124] Setting up res4.2.sum_res4.2.relu_0_split
I0809 19:05:46.447876  6149 net.cpp:131] Top shape: 1 256 7 7 (12544)
I0809 19:05:46.447929  6149 net.cpp:131] Top shape: 1 256 7 7 (12544)
I0809 19:05:46.447968  6149 net.cpp:139] Memory required for data: 12142592
I0809 19:05:46.448004  6149 layer_factory.hpp:77] Creating layer res5.1.conv1
I0809 19:05:46.448076  6149 net.cpp:86] Creating Layer res5.1.conv1
I0809 19:05:46.448122  6149 net.cpp:408] res5.1.conv1 <- res4.2.sum_res4.2.relu_0_split_0
I0809 19:05:46.448171  6149 net.cpp:382] res5.1.conv1 -> res5.1.conv1
I0809 19:05:46.499903  6149 net.cpp:124] Setting up res5.1.conv1
I0809 19:05:46.500047  6149 net.cpp:131] Top shape: 1 512 4 4 (8192)
I0809 19:05:46.500106  6149 net.cpp:139] Memory required for data: 12175360
I0809 19:05:46.500167  6149 layer_factory.hpp:77] Creating layer res5.1.conv1/bn
I0809 19:05:46.500252  6149 net.cpp:86] Creating Layer res5.1.conv1/bn
I0809 19:05:46.500313  6149 net.cpp:408] res5.1.conv1/bn <- res5.1.conv1
I0809 19:05:46.500371  6149 net.cpp:382] res5.1.conv1/bn -> res5.1.conv1/bn
I0809 19:05:46.501713  6149 net.cpp:124] Setting up res5.1.conv1/bn
I0809 19:05:46.501848  6149 net.cpp:131] Top shape: 1 512 4 4 (8192)
I0809 19:05:46.501896  6149 net.cpp:139] Memory required for data: 12208128
I0809 19:05:46.501943  6149 layer_factory.hpp:77] Creating layer res5.1.conv1/scale
I0809 19:05:46.501996  6149 net.cpp:86] Creating Layer res5.1.conv1/scale
I0809 19:05:46.502032  6149 net.cpp:408] res5.1.conv1/scale <- res5.1.conv1/bn
I0809 19:05:46.502080  6149 net.cpp:369] res5.1.conv1/scale -> res5.1.conv1/bn (in-place)
I0809 19:05:46.517272  6149 layer_factory.hpp:77] Creating layer res5.1.conv1/scale
I0809 19:05:46.517963  6149 net.cpp:124] Setting up res5.1.conv1/scale
I0809 19:05:46.518008  6149 net.cpp:131] Top shape: 1 512 4 4 (8192)
I0809 19:05:46.518049  6149 net.cpp:139] Memory required for data: 12240896
I0809 19:05:46.518102  6149 layer_factory.hpp:77] Creating layer res5.1.conv1/relu
I0809 19:05:46.518148  6149 net.cpp:86] Creating Layer res5.1.conv1/relu
I0809 19:05:46.518182  6149 net.cpp:408] res5.1.conv1/relu <- res5.1.conv1/bn
I0809 19:05:46.518218  6149 net.cpp:369] res5.1.conv1/relu -> res5.1.conv1/bn (in-place)
I0809 19:05:46.522553  6149 net.cpp:124] Setting up res5.1.conv1/relu
I0809 19:05:46.522631  6149 net.cpp:131] Top shape: 1 512 4 4 (8192)
I0809 19:05:46.522675  6149 net.cpp:139] Memory required for data: 12273664
I0809 19:05:46.522745  6149 layer_factory.hpp:77] Creating layer res5.1.conv2
I0809 19:05:46.522822  6149 net.cpp:86] Creating Layer res5.1.conv2
I0809 19:05:46.522863  6149 net.cpp:408] res5.1.conv2 <- res5.1.conv1/bn
I0809 19:05:46.522907  6149 net.cpp:382] res5.1.conv2 -> res5.1.conv2
I0809 19:05:46.604732  6149 net.cpp:124] Setting up res5.1.conv2
I0809 19:05:46.605213  6149 net.cpp:131] Top shape: 1 512 4 4 (8192)
I0809 19:05:46.605295  6149 net.cpp:139] Memory required for data: 12306432
I0809 19:05:46.605348  6149 layer_factory.hpp:77] Creating layer res5.1.conv2/bn
I0809 19:05:46.605423  6149 net.cpp:86] Creating Layer res5.1.conv2/bn
I0809 19:05:46.605464  6149 net.cpp:408] res5.1.conv2/bn <- res5.1.conv2
I0809 19:05:46.605510  6149 net.cpp:382] res5.1.conv2/bn -> res5.1.conv2/bn
I0809 19:05:46.607264  6149 net.cpp:124] Setting up res5.1.conv2/bn
I0809 19:05:46.607368  6149 net.cpp:131] Top shape: 1 512 4 4 (8192)
I0809 19:05:46.607427  6149 net.cpp:139] Memory required for data: 12339200
I0809 19:05:46.607501  6149 layer_factory.hpp:77] Creating layer res5.1.conv2/scale
I0809 19:05:46.607565  6149 net.cpp:86] Creating Layer res5.1.conv2/scale
I0809 19:05:46.607638  6149 net.cpp:408] res5.1.conv2/scale <- res5.1.conv2/bn
I0809 19:05:46.607695  6149 net.cpp:369] res5.1.conv2/scale -> res5.1.conv2/bn (in-place)
I0809 19:05:46.608052  6149 layer_factory.hpp:77] Creating layer res5.1.conv2/scale
I0809 19:05:46.608892  6149 net.cpp:124] Setting up res5.1.conv2/scale
I0809 19:05:46.608968  6149 net.cpp:131] Top shape: 1 512 4 4 (8192)
I0809 19:05:46.609016  6149 net.cpp:139] Memory required for data: 12371968
I0809 19:05:46.609082  6149 layer_factory.hpp:77] Creating layer res5.1.skipConv
I0809 19:05:46.609153  6149 net.cpp:86] Creating Layer res5.1.skipConv
I0809 19:05:46.609200  6149 net.cpp:408] res5.1.skipConv <- res4.2.sum_res4.2.relu_0_split_1
I0809 19:05:46.609253  6149 net.cpp:382] res5.1.skipConv -> res5.1.skipConv
I0809 19:05:46.628549  6149 net.cpp:124] Setting up res5.1.skipConv
I0809 19:05:46.629129  6149 net.cpp:131] Top shape: 1 512 4 4 (8192)
I0809 19:05:46.629220  6149 net.cpp:139] Memory required for data: 12404736
I0809 19:05:46.629281  6149 layer_factory.hpp:77] Creating layer res5.1.skipConv/bn
I0809 19:05:46.629359  6149 net.cpp:86] Creating Layer res5.1.skipConv/bn
I0809 19:05:46.629405  6149 net.cpp:408] res5.1.skipConv/bn <- res5.1.skipConv
I0809 19:05:46.629458  6149 net.cpp:382] res5.1.skipConv/bn -> res5.1.skipConv/bn
I0809 19:05:46.630961  6149 net.cpp:124] Setting up res5.1.skipConv/bn
I0809 19:05:46.631086  6149 net.cpp:131] Top shape: 1 512 4 4 (8192)
I0809 19:05:46.631139  6149 net.cpp:139] Memory required for data: 12437504
I0809 19:05:46.631202  6149 layer_factory.hpp:77] Creating layer res5.1.skipConv/scale
I0809 19:05:46.631263  6149 net.cpp:86] Creating Layer res5.1.skipConv/scale
I0809 19:05:46.631307  6149 net.cpp:408] res5.1.skipConv/scale <- res5.1.skipConv/bn
I0809 19:05:46.631376  6149 net.cpp:369] res5.1.skipConv/scale -> res5.1.skipConv/bn (in-place)
I0809 19:05:46.631676  6149 layer_factory.hpp:77] Creating layer res5.1.skipConv/scale
I0809 19:05:46.632414  6149 net.cpp:124] Setting up res5.1.skipConv/scale
I0809 19:05:46.632477  6149 net.cpp:131] Top shape: 1 512 4 4 (8192)
I0809 19:05:46.632647  6149 net.cpp:139] Memory required for data: 12470272
I0809 19:05:46.632716  6149 layer_factory.hpp:77] Creating layer res5.1.sum
I0809 19:05:46.632768  6149 net.cpp:86] Creating Layer res5.1.sum
I0809 19:05:46.632807  6149 net.cpp:408] res5.1.sum <- res5.1.conv2/bn
I0809 19:05:46.632850  6149 net.cpp:408] res5.1.sum <- res5.1.skipConv/bn
I0809 19:05:46.632897  6149 net.cpp:382] res5.1.sum -> res5.1.sum
I0809 19:05:46.633126  6149 net.cpp:124] Setting up res5.1.sum
I0809 19:05:46.633180  6149 net.cpp:131] Top shape: 1 512 4 4 (8192)
I0809 19:05:46.633219  6149 net.cpp:139] Memory required for data: 12503040
I0809 19:05:46.633250  6149 layer_factory.hpp:77] Creating layer res5.1.relu
I0809 19:05:46.633298  6149 net.cpp:86] Creating Layer res5.1.relu
I0809 19:05:46.633335  6149 net.cpp:408] res5.1.relu <- res5.1.sum
I0809 19:05:46.633373  6149 net.cpp:369] res5.1.relu -> res5.1.sum (in-place)
I0809 19:05:46.637413  6149 net.cpp:124] Setting up res5.1.relu
I0809 19:05:46.637495  6149 net.cpp:131] Top shape: 1 512 4 4 (8192)
I0809 19:05:46.637539  6149 net.cpp:139] Memory required for data: 12535808
I0809 19:05:46.637571  6149 layer_factory.hpp:77] Creating layer res5.1.sum_res5.1.relu_0_split
I0809 19:05:46.637624  6149 net.cpp:86] Creating Layer res5.1.sum_res5.1.relu_0_split
I0809 19:05:46.637657  6149 net.cpp:408] res5.1.sum_res5.1.relu_0_split <- res5.1.sum
I0809 19:05:46.637699  6149 net.cpp:382] res5.1.sum_res5.1.relu_0_split -> res5.1.sum_res5.1.relu_0_split_0
I0809 19:05:46.637745  6149 net.cpp:382] res5.1.sum_res5.1.relu_0_split -> res5.1.sum_res5.1.relu_0_split_1
I0809 19:05:46.638053  6149 net.cpp:124] Setting up res5.1.sum_res5.1.relu_0_split
I0809 19:05:46.638185  6149 net.cpp:131] Top shape: 1 512 4 4 (8192)
I0809 19:05:46.638236  6149 net.cpp:131] Top shape: 1 512 4 4 (8192)
I0809 19:05:46.638268  6149 net.cpp:139] Memory required for data: 12601344
I0809 19:05:46.638298  6149 layer_factory.hpp:77] Creating layer res5.2.conv1
I0809 19:05:46.638360  6149 net.cpp:86] Creating Layer res5.2.conv1
I0809 19:05:46.638396  6149 net.cpp:408] res5.2.conv1 <- res5.1.sum_res5.1.relu_0_split_0
I0809 19:05:46.638437  6149 net.cpp:382] res5.2.conv1 -> res5.2.conv1
I0809 19:05:46.720324  6149 net.cpp:124] Setting up res5.2.conv1
I0809 19:05:46.720456  6149 net.cpp:131] Top shape: 1 512 4 4 (8192)
I0809 19:05:46.720504  6149 net.cpp:139] Memory required for data: 12634112
I0809 19:05:46.720546  6149 layer_factory.hpp:77] Creating layer res5.2.conv1/bn
I0809 19:05:46.720604  6149 net.cpp:86] Creating Layer res5.2.conv1/bn
I0809 19:05:46.720639  6149 net.cpp:408] res5.2.conv1/bn <- res5.2.conv1
I0809 19:05:46.720676  6149 net.cpp:382] res5.2.conv1/bn -> res5.2.conv1/bn
I0809 19:05:46.721747  6149 net.cpp:124] Setting up res5.2.conv1/bn
I0809 19:05:46.721848  6149 net.cpp:131] Top shape: 1 512 4 4 (8192)
I0809 19:05:46.721889  6149 net.cpp:139] Memory required for data: 12666880
I0809 19:05:46.721932  6149 layer_factory.hpp:77] Creating layer res5.2.conv1/scale
I0809 19:05:46.721985  6149 net.cpp:86] Creating Layer res5.2.conv1/scale
I0809 19:05:46.722016  6149 net.cpp:408] res5.2.conv1/scale <- res5.2.conv1/bn
I0809 19:05:46.722052  6149 net.cpp:369] res5.2.conv1/scale -> res5.2.conv1/bn (in-place)
I0809 19:05:46.722236  6149 layer_factory.hpp:77] Creating layer res5.2.conv1/scale
I0809 19:05:46.722798  6149 net.cpp:124] Setting up res5.2.conv1/scale
I0809 19:05:46.722833  6149 net.cpp:131] Top shape: 1 512 4 4 (8192)
I0809 19:05:46.722867  6149 net.cpp:139] Memory required for data: 12699648
I0809 19:05:46.722913  6149 layer_factory.hpp:77] Creating layer res5.2.conv1/relu
I0809 19:05:46.722947  6149 net.cpp:86] Creating Layer res5.2.conv1/relu
I0809 19:05:46.722975  6149 net.cpp:408] res5.2.conv1/relu <- res5.2.conv1/bn
I0809 19:05:46.723007  6149 net.cpp:369] res5.2.conv1/relu -> res5.2.conv1/bn (in-place)
I0809 19:05:46.725029  6149 net.cpp:124] Setting up res5.2.conv1/relu
I0809 19:05:46.725087  6149 net.cpp:131] Top shape: 1 512 4 4 (8192)
I0809 19:05:46.725123  6149 net.cpp:139] Memory required for data: 12732416
I0809 19:05:46.725244  6149 layer_factory.hpp:77] Creating layer res5.2.conv2
I0809 19:05:46.725309  6149 net.cpp:86] Creating Layer res5.2.conv2
I0809 19:05:46.725347  6149 net.cpp:408] res5.2.conv2 <- res5.2.conv1/bn
I0809 19:05:46.725395  6149 net.cpp:382] res5.2.conv2 -> res5.2.conv2
I0809 19:05:46.806627  6149 net.cpp:124] Setting up res5.2.conv2
I0809 19:05:46.806720  6149 net.cpp:131] Top shape: 1 512 4 4 (8192)
I0809 19:05:46.806764  6149 net.cpp:139] Memory required for data: 12765184
I0809 19:05:46.806807  6149 layer_factory.hpp:77] Creating layer res5.2.conv2/bn
I0809 19:05:46.806862  6149 net.cpp:86] Creating Layer res5.2.conv2/bn
I0809 19:05:46.806895  6149 net.cpp:408] res5.2.conv2/bn <- res5.2.conv2
I0809 19:05:46.806933  6149 net.cpp:382] res5.2.conv2/bn -> res5.2.conv2/bn
I0809 19:05:46.808028  6149 net.cpp:124] Setting up res5.2.conv2/bn
I0809 19:05:46.808071  6149 net.cpp:131] Top shape: 1 512 4 4 (8192)
I0809 19:05:46.808105  6149 net.cpp:139] Memory required for data: 12797952
I0809 19:05:46.808156  6149 layer_factory.hpp:77] Creating layer res5.2.conv2/scale
I0809 19:05:46.808200  6149 net.cpp:86] Creating Layer res5.2.conv2/scale
I0809 19:05:46.808231  6149 net.cpp:408] res5.2.conv2/scale <- res5.2.conv2/bn
I0809 19:05:46.808266  6149 net.cpp:369] res5.2.conv2/scale -> res5.2.conv2/bn (in-place)
I0809 19:05:46.808431  6149 layer_factory.hpp:77] Creating layer res5.2.conv2/scale
I0809 19:05:46.808972  6149 net.cpp:124] Setting up res5.2.conv2/scale
I0809 19:05:46.809005  6149 net.cpp:131] Top shape: 1 512 4 4 (8192)
I0809 19:05:46.809037  6149 net.cpp:139] Memory required for data: 12830720
I0809 19:05:46.809074  6149 layer_factory.hpp:77] Creating layer res5.2.sum
I0809 19:05:46.809108  6149 net.cpp:86] Creating Layer res5.2.sum
I0809 19:05:46.809135  6149 net.cpp:408] res5.2.sum <- res5.2.conv2/bn
I0809 19:05:46.809165  6149 net.cpp:408] res5.2.sum <- res5.1.sum_res5.1.relu_0_split_1
I0809 19:05:46.809198  6149 net.cpp:382] res5.2.sum -> res5.2.sum
I0809 19:05:46.809305  6149 net.cpp:124] Setting up res5.2.sum
I0809 19:05:46.809335  6149 net.cpp:131] Top shape: 1 512 4 4 (8192)
I0809 19:05:46.809366  6149 net.cpp:139] Memory required for data: 12863488
I0809 19:05:46.809393  6149 layer_factory.hpp:77] Creating layer res5.2.relu
I0809 19:05:46.809425  6149 net.cpp:86] Creating Layer res5.2.relu
I0809 19:05:46.809451  6149 net.cpp:408] res5.2.relu <- res5.2.sum
I0809 19:05:46.809482  6149 net.cpp:369] res5.2.relu -> res5.2.sum (in-place)
I0809 19:05:46.812665  6149 net.cpp:124] Setting up res5.2.relu
I0809 19:05:46.812732  6149 net.cpp:131] Top shape: 1 512 4 4 (8192)
I0809 19:05:46.812770  6149 net.cpp:139] Memory required for data: 12896256
I0809 19:05:46.812799  6149 layer_factory.hpp:77] Creating layer pool2
I0809 19:05:46.812850  6149 net.cpp:86] Creating Layer pool2
I0809 19:05:46.812883  6149 net.cpp:408] pool2 <- res5.2.sum
I0809 19:05:46.812922  6149 net.cpp:382] pool2 -> pool2
I0809 19:05:46.815173  6149 net.cpp:124] Setting up pool2
I0809 19:05:46.815237  6149 net.cpp:131] Top shape: 1 512 1 1 (512)
I0809 19:05:46.815270  6149 net.cpp:139] Memory required for data: 12898304
I0809 19:05:46.815299  6149 layer_factory.hpp:77] Creating layer fc
I0809 19:05:46.815344  6149 net.cpp:86] Creating Layer fc
I0809 19:05:46.815373  6149 net.cpp:408] fc <- pool2
I0809 19:05:46.815412  6149 net.cpp:382] fc -> fc
I0809 19:05:46.815973  6149 net.cpp:124] Setting up fc
I0809 19:05:46.816010  6149 net.cpp:131] Top shape: 1 2 (2)
I0809 19:05:46.816040  6149 net.cpp:139] Memory required for data: 12898312
I0809 19:05:46.816079  6149 layer_factory.hpp:77] Creating layer prob
I0809 19:05:46.816120  6149 net.cpp:86] Creating Layer prob
I0809 19:05:46.816150  6149 net.cpp:408] prob <- fc
I0809 19:05:46.816184  6149 net.cpp:382] prob -> prob
I0809 19:05:46.819674  6149 net.cpp:124] Setting up prob
I0809 19:05:46.819737  6149 net.cpp:131] Top shape: 1 2 (2)
I0809 19:05:46.819772  6149 net.cpp:139] Memory required for data: 12898320
I0809 19:05:46.819802  6149 net.cpp:202] prob does not need backward computation.
I0809 19:05:46.819926  6149 net.cpp:202] fc does not need backward computation.
I0809 19:05:46.819967  6149 net.cpp:202] pool2 does not need backward computation.
I0809 19:05:46.820005  6149 net.cpp:202] res5.2.relu does not need backward computation.
…
