…
I0809 19:00:50.788738  5905 uart_configuration.cpp:127] current Speed is:0
I0809 19:00:51.188851  5905 uart_configuration.cpp:127] current Speed is:0
I0809 19:00:52.576653  5905 uart_configuration.cpp:127] current Speed is:0
I0809 19:00:52.780648  5905 uart_configuration.cpp:127] current Speed is:0
I0809 19:00:53.095933  6202 net.cpp:53] Initializing net from parameters: 
name: "Resnet18"
state {
  phase: TEST
  level: 0
}
layer {
  name: "data"
  type: "Input"
  top: "data"
  input_param {
    shape {
      dim: 1
      dim: 3
      dim: 112
      dim: 112
    }
  }
}
layer {
  name: "conv1"
  type: "Convolution"
  bottom: "data"
  top: "conv1"
  convolution_param {
    num_output: 64
    bias_term: false
    pad: 3
    kernel_size: 7
    stride: 2
    weight_filler {
      type: "msra"
    }
  }
}
layer {
  name: "conv1/bn"
  type: "BatchNorm"
  bottom: "conv1"
  top: "conv1/bn"
  batch_norm_param {
    moving_average_fraction: 0.9
    eps: 0.0001
  }
}
layer {
  name: "conv1/scale"
  type: "Scale"
  bottom: "conv1/bn"
  top: "conv1/bn"
  param {
    lr_mult: 1
    decay_mult: 0
  }
  param {
    lr_mult: 1
    decay_mult: 0
  }
  scale_param {
    bias_term: true
  }
}
layer {
  name: "conv1/relu"
  type: "ReLU"
  bottom: "conv1/bn"
  top: "conv1/bn"
}
layer {
  name: "pool1"
  type: "Pooling"
  bottom: "conv1/bn"
  top: "pool1"
  pooling_param {
    pool: MAX
    kernel_size: 3
    stride: 2
  }
}
layer {
  name: "res2.1.conv1"
  type: "Convolution"
  bottom: "pool1"
  top: "res2.1.conv1"
  convolution_param {
    num_output: 64
    bias_term: false
    pad: 1
    kernel_size: 3
    weight_filler {
      type: "msra"
    }
  }
}
layer {
  name: "res2.1.conv1/bn"
  type: "BatchNorm"
  bottom: "res2.1.conv1"
  top: "res2.1.conv1/bn"
  batch_norm_param {
    moving_average_fraction: 0.9
    eps: 0.0001
  }
}
layer {
  name: "res2.1.conv1/scale"
  type: "Scale"
  bottom: "res2.1.conv1/bn"
  top: "res2.1.conv1/bn"
  param {
    lr_mult: 1
    decay_mult: 0
  }
  param {
    lr_mult: 1
    decay_mult: 0
  }
  scale_param {
    bias_term: true
  }
}
layer {
  name: "res2.1.conv1/relu"
  type: "ReLU"
  bottom: "res2.1.conv1/bn"
  top: "res2.1.conv1/bn"
}
layer {
  name: "res2.1.conv2"
  type: "Convolution"
  bottom: "res2.1.conv1/bn"
  top: "res2.1.conv2"
  convolution_param {
    num_output: 64
    bias_term: false
    pad: 1
    kernel_size: 3
    weight_filler {
      type: "msra"
    }
  }
}
layer {
  name: "res2.1.conv2/bn"
  type: "BatchNorm"
  bottom: "res2.1.conv2"
  top: "res2.1.conv2/bn"
  batch_norm_param {
    moving_average_fraction: 0.9
    eps: 0.0001
  }
}
layer {
  name: "res2.1.conv2/scale"
  type: "Scale"
  bottom: "res2.1.conv2/bn"
  top: "res2.1.conv2/bn"
  param {
    lr_mult: 1
    decay_mult: 0
  }
  param {
    lr_mult: 1
    decay_mult: 0
  }
  scale_param {
    bias_term: true
  }
}
layer {
  name: "res2.1.sum"
  type: "Eltwise"
  bottom: "res2.1.conv2/bn"
  bottom: "pool1"
  top: "res2.1.sum"
  eltwise_param {
    operation: SUM
  }
}
layer {
  name: "res2.1.relu"
  type: "ReLU"
  bottom: "res2.1.sum"
  top: "res2.1.sum"
}
layer {
  name: "res2.2.conv1"
  type: "Convolution"
  bottom: "res2.1.sum"
  top: "res2.2.conv1"
  convolution_param {
    num_output: 64
    bias_term: false
    pad: 1
    kernel_size: 3
    weight_filler {
      type: "msra"
    }
  }
}
layer {
  name: "res2.2.conv1/bn"
  type: "BatchNorm"
  bottom: "res2.2.conv1"
  top: "res2.2.conv1/bn"
  batch_norm_param {
    moving_average_fraction: 0.9
    eps: 0.0001
  }
}
layer {
  name: "res2.2.conv1/scale"
  type: "Scale"
  bottom: "res2.2.conv1/bn"
  top: "res2.2.conv1/bn"
  param {
    lr_mult: 1
    decay_mult: 0
  }
  param {
    lr_mult: 1
    decay_mult: 0
  }
  scale_param {
    bias_term: true
  }
}
layer {
  name: "res2.2.conv1/relu"
  type: "ReLU"
  bottom: "res2.2.conv1/bn"
  top: "res2.2.conv1/bn"
}
layer {
  name: "res2.2.conv2"
  type: "Convolution"
  bottom: "res2.2.conv1/bn"
  top: "res2.2.conv2"
  convolution_param {
    num_output: 64
    bias_term: false
    pad: 1
    kernel_size: 3
    weight_filler {
      type: "msra"
    }
  }
}
layer {
  name: "res2.2.conv2/bn"
  type: "BatchNorm"
  bottom: "res2.2.conv2"
  top: "res2.2.conv2/bn"
  batch_norm_param {
    moving_average_fraction: 0.9
    eps: 0.0001
  }
}
layer {
  name: "res2.2.conv2/scale"
  type: "Scale"
  bottom: "res2.2.conv2/bn"
  top: "res2.2.conv2/bn"
  param {
    lr_mult: 1
    decay_mult: 0
  }
  param {
    lr_mult: 1
    decay_mult: 0
  }
  scale_param {
    bias_term: true
  }
}
layer {
  name: "res2.2.sum"
  type: "Eltwise"
  bottom: "res2.2.conv2/bn"
  bottom: "res2.1.sum"
  top: "res2.2.sum"
  eltwise_param {
    operation: SUM
  }
}
layer {
  name: "res2.2.relu"
  type: "ReLU"
  bottom: "res2.2.sum"
  top: "res2.2.sum"
}
layer {
  name: "res3.1.conv1"
  type: "Convolution"
  bottom: "res2.2.sum"
  top: "res3.1.conv1"
  convolution_param {
    num_output: 128
    bias_term: false
    pad: 1
    kernel_size: 3
    stride: 2
    weight_filler {
      type: "msra"
    }
  }
}
layer {
  name: "res3.1.conv1/bn"
  type: "BatchNorm"
  bottom: "res3.1.conv1"
  top: "res3.1.conv1/bn"
  batch_norm_param {
    moving_average_fraction: 0.9
    eps: 0.0001
  }
}
layer {
  name: "res3.1.conv1/scale"
  type: "Scale"
  bottom: "res3.1.conv1/bn"
  top: "res3.1.conv1/bn"
  param {
    lr_mult: 1
    decay_mult: 0
  }
  param {
    lr_mult: 1
    decay_mult: 0
  }
  scale_param {
    bias_term: true
  }
}
layer {
  name: "res3.1.conv1/relu"
  type: "ReLU"
  bottom: "res3.1.conv1/bn"
  top: "res3.1.conv1/bn"
}
layer {
  name: "res3.1.conv2"
  type: "Convolution"
  bottom: "res3.1.conv1/bn"
  top: "res3.1.conv2"
  convolution_param {
    num_output: 128
    bias_term: false
    pad: 1
    kernel_size: 3
    weight_filler {
      type: "msra"
    }
  }
}
layer {
  name: "res3.1.conv2/bn"
  type: "BatchNorm"
  bottom: "res3.1.conv2"
  top: "res3.1.conv2/bn"
  batch_norm_param {
    moving_average_fraction: 0.9
    eps: 0.0001
  }
}
layer {
  name: "res3.1.conv2/scale"
  type: "Scale"
  bottom: "res3.1.conv2/bn"
  top: "res3.1.conv2/bn"
  param {
    lr_mult: 1
    decay_mult: 0
  }
  param {
    lr_mult: 1
    decay_mult: 0
  }
  scale_param {
    bias_term: true
  }
}
layer {
  name: "res3.1.skipConv"
  type: "Convolution"
  bottom: "res2.2.sum"
  top: "res3.1.skipConv"
  convolution_param {
    num_output: 128
    bias_term: false
    kernel_size: 1
    stride: 2
    weight_filler {
      type: "msra"
    }
  }
}
layer {
  name: "res3.1.skipConv/bn"
  type: "BatchNorm"
  bottom: "res3.1.skipConv"
  top: "res3.1.skipConv/bn"
  batch_norm_param {
    moving_average_fraction: 0.9
    eps: 0.0001
  }
}
layer {
  name: "res3.1.skipConv/scale"
  type: "Scale"
  bottom: "res3.1.skipConv/bn"
  top: "res3.1.skipConv/bn"
  param {
    lr_mult: 1
    decay_mult: 0
  }
  param {
    lr_mult: 1
    decay_mult: 0
  }
  scale_param {
    bias_term: true
  }
}
layer {
  name: "res3.1.sum"
  type: "Eltwise"
  bottom: "res3.1.conv2/bn"
  bottom: "res3.1.skipConv/bn"
  top: "res3.1.sum"
  eltwise_param {
    operation: SUM
  }
}
layer {
  name: "res3.1.relu"
  type: "ReLU"
  bottom: "res3.1.sum"
  top: "res3.1.sum"
}
layer {
  name: "res3.2.conv1"
  type: "Convolution"
  bottom: "res3.1.sum"
  top: "res3.2.conv1"
  convolution_param {
    num_output: 128
    bias_term: false
    pad: 1
    kernel_size: 3
    weight_filler {
      type: "msra"
    }
  }
}
layer {
  name: "res3.2.conv1/bn"
  type: "BatchNorm"
  bottom: "res3.2.conv1"
  top: "res3.2.conv1/bn"
  batch_norm_param {
    moving_average_fraction: 0.9
    eps: 0.0001
  }
}
layer {
  name: "res3.2.conv1/scale"
  type: "Scale"
  bottom: "res3.2.conv1/bn"
  top: "res3.2.conv1/bn"
  param {
    lr_mult: 1
    decay_mult: 0
  }
  param {
    lr_mult: 1
    decay_mult: 0
  }
  scale_param {
    bias_term: true
  }
}
layer {
  name: "res3.2.conv1/relu"
  type: "ReLU"
  bottom: "res3.2.conv1/bn"
  top: "res3.2.conv1/bn"
}
layer {
  name: "res3.2.conv2"
  type: "Convolution"
  bottom: "res3.2.conv1/bn"
  top: "res3.2.conv2"
  convolution_param {
    num_output: 128
    bias_term: false
    pad: 1
    kernel_size: 3
    weight_filler {
      type: "msra"
    }
  }
}
layer {
  name: "res3.2.conv2/bn"
  type: "BatchNorm"
  bottom: "res3.2.conv2"
  top: "res3.2.conv2/bn"
  batch_norm_param {
    moving_average_fraction: 0.9
    eps: 0.0001
  }
}
layer {
  name: "res3.2.conv2/scale"
  type: "Scale"
  bottom: "res3.2.conv2/bn"
  top: "res3.2.conv2/bn"
  param {
    lr_mult: 1
    decay_mult: 0
  }
  param {
    lr_mult: 1
    decay_mult: 0
  }
  scale_param {
    bias_term: true
  }
}
layer {
  name: "res3.2.sum"
  type: "Eltwise"
  bottom: "res3.2.conv2/bn"
  bottom: "res3.1.sum"
  top: "res3.2.sum"
  eltwise_param {
    operation: SUM
  }
}
layer {
  name: "res3.2.relu"
  type: "ReLU"
  bottom: "res3.2.sum"
  top: "res3.2.sum"
}
layer {
  name: "res4.1.conv1"
  type: "Convolution"
  bottom: "res3.2.sum"
  top: "res4.1.conv1"
  convolution_param {
    num_output: 256
    bias_term: false
    pad: 1
    kernel_size: 3
    stride: 2
    weight_filler {
      type: "msra"
    }
  }
}
layer {
  name: "res4.1.conv1/bn"
  type: "BatchNorm"
  bottom: "res4.1.conv1"
  top: "res4.1.conv1/bn"
  batch_norm_param {
    moving_average_fraction: 0.9
    eps: 0.0001
  }
}
layer {
  name: "res4.1.conv1/scale"
  type: "Scale"
  bottom: "res4.1.conv1/bn"
  top: "res4.1.conv1/bn"
  param {
    lr_mult: 1
    decay_mult: 0
  }
  param {
    lr_mult: 1
    decay_mult: 0
  }
  scale_param {
    bias_term: true
  }
}
layer {
  name: "res4.1.conv1/relu"
  type: "ReLU"
  bottom: "res4.1.conv1/bn"
  top: "res4.1.conv1/bn"
}
layer {
  name: "res4.1.conv2"
  type: "Convolution"
  bottom: "res4.1.conv1/bn"
  top: "res4.1.conv2"
  convolution_param {
    num_output: 256
    bias_term: false
    pad: 1
    kernel_size: 3
    weight_filler {
      type: "msra"
    }
  }
}
layer {
  name: "res4.1.conv2/bn"
  type: "BatchNorm"
  bottom: "res4.1.conv2"
  top: "res4.1.conv2/bn"
  batch_norm_param {
    moving_average_fraction: 0.9
    eps: 0.0001
  }
}
layer {
  name: "res4.1.conv2/scale"
  type: "Scale"
  bottom: "res4.1.conv2/bn"
  top: "res4.1.conv2/bn"
  param {
    lr_mult: 1
    decay_mult: 0
  }
  param {
    lr_mult: 1
    decay_mult: 0
  }
  scale_param {
    bias_term: true
  }
}
layer {
  name: "res4.1.skipConv"
  type: "Convolution"
  bottom: "res3.2.sum"
  top: "res4.1.skipConv"
  convolution_param {
    num_output: 256
    bias_term: false
    kernel_size: 1
    stride: 2
    weight_filler {
      type: "msra"
    }
  }
}
layer {
  name: "res4.1.skipConv/bn"
  type: "BatchNorm"
  bottom: "res4.1.skipConv"
  top: "res4.1.skipConv/bn"
  batch_norm_param {
    moving_average_fraction: 0.9
    eps: 0.0001
  }
}
layer {
  name: "res4.1.skipConv/scale"
  type: "Scale"
  bottom: "res4.1.skipConv/bn"
  top: "res4.1.skipConv/bn"
  param {
    lr_mult: 1
    decay_mult: 0
  }
  param {
    lr_mult: 1
    decay_mult: 0
  }
  scale_param {
    bias_term: true
  }
}
layer {
  name: "res4.1.sum"
  type: "Eltwise"
  bottom: "res4.1.conv2/bn"
  bottom: "res4.1.skipConv/bn"
  top: "res4.1.sum"
  eltwise_param {
    operation: SUM
  }
}
layer {
  name: "res4.1.relu"
  type: "ReLU"
  bottom: "res4.1.sum"
  top: "res4.1.sum"
}
layer {
  name: "res4.2.conv1"
  type: "Convolution"
  bottom: "res4.1.sum"
  top: "res4.2.conv1"
  convolution_param {
    num_output: 256
    bias_term: false
    pad: 1
    kernel_size: 3
    weight_filler {
      type: "msra"
    }
  }
}
layer {
  name: "res4.2.conv1/bn"
  type: "BatchNorm"
  bottom: "res4.2.conv1"
  top: "res4.2.conv1/bn"
  batch_norm_param {
    moving_average_fraction: 0.9
    eps: 0.0001
  }
}
layer {
  name: "res4.2.conv1/scale"
  type: "Scale"
  bottom: "res4.2.conv1/bn"
  top: "res4.2.conv1/bn"
  param {
    lr_mult: 1
    decay_mult: 0
  }
  param {
    lr_mult: 1
    decay_mult: 0
  }
  scale_param {
    bias_term: true
  }
}
layer {
  name: "res4.2.conv1/relu"
  type: "ReLU"
  bottom: "res4.2.conv1/bn"
  top: "res4.2.conv1/bn"
}
layer {
  name: "res4.2.conv2"
  type: "Convolution"
  bottom: "res4.2.conv1/bn"
  top: "res4.2.conv2"
  convolution_param {
    num_output: 256
    bias_term: false
    pad: 1
    kernel_size: 3
    weight_filler {
      type: "msra"
    }
  }
}
layer {
  name: "res4.2.conv2/bn"
  type: "BatchNorm"
  bottom: "res4.2.conv2"
  top: "res4.2.conv2/bn"
  batch_norm_param {
    moving_average_fraction: 0.9
    eps: 0.0001
  }
}
layer {
  name: "res4.2.conv2/scale"
  type: "Scale"
  bottom: "res4.2.conv2/bn"
  top: "res4.2.conv2/bn"
  param {
    lr_mult: 1
    decay_mult: 0
  }
  param {
    lr_mult: 1
    decay_mult: 0
  }
  scale_param {
    bias_term: true
  }
}
layer {
  name: "res4.2.sum"
  type: "Eltwise"
  bottom: "res4.2.conv2/bn"
  bottom: "res4.1.sum"
  top: "res4.2.sum"
  eltwise_param {
    operation: SUM
  }
}
layer {
  name: "res4.2.relu"
  type: "ReLU"
  bottom: "res4.2.sum"
  top: "res4.2.sum"
}
layer {
  name: "res5.1.conv1"
  type: "Convolution"
  bottom: "res4.2.sum"
  top: "res5.1.conv1"
  convolution_param {
    num_output: 512
    bias_term: false
    pad: 1
    kernel_size: 3
    stride: 2
    weight_filler {
      type: "msra"
    }
  }
}
layer {
  name: "res5.1.conv1/bn"
  type: "BatchNorm"
  bottom: "res5.1.conv1"
  top: "res5.1.conv1/bn"
  batch_norm_param {
    moving_average_fraction: 0.9
    eps: 0.0001
  }
}
layer {
  name: "res5.1.conv1/scale"
  type: "Scale"
  bottom: "res5.1.conv1/bn"
  top: "res5.1.conv1/bn"
  param {
    lr_mult: 1
    decay_mult: 0
  }
  param {
    lr_mult: 1
    decay_mult: 0
  }
  scale_param {
    bias_term: true
  }
}
layer {
  name: "res5.1.conv1/relu"
  type: "ReLU"
  bottom: "res5.1.conv1/bn"
  top: "res5.1.conv1/bn"
}
layer {
  name: "res5.1.conv2"
  type: "Convolution"
  bottom: "res5.1.conv1/bn"
  top: "res5.1.conv2"
  convolution_param {
    num_output: 512
    bias_term: false
    pad: 1
    kernel_size: 3
    weight_filler {
      type: "msra"
    }
  }
}
layer {
  name: "res5.1.conv2/bn"
  type: "BatchNorm"
  bottom: "res5.1.conv2"
  top: "res5.1.conv2/bn"
  batch_norm_param {
    moving_average_fraction: 0.9
    eps: 0.0001
  }
}
layer {
  name: "res5.1.conv2/scale"
  type: "Scale"
  bottom: "res5.1.conv2/bn"
  top: "res5.1.conv2/bn"
  param {
    lr_mult: 1
    decay_mult: 0
  }
  param {
    lr_mult: 1
    decay_mult: 0
  }
  scale_param {
    bias_term: true
  }
}
layer {
  name: "res5.1.skipConv"
  type: "Convolution"
  bottom: "res4.2.sum"
  top: "res5.1.skipConv"
  convolution_param {
    num_output: 512
    bias_term: false
    kernel_size: 1
    stride: 2
    weight_filler {
      type: "msra"
    }
  }
}
layer {
  name: "res5.1.skipConv/bn"
  type: "BatchNorm"
  bottom: "res5.1.skipConv"
  top: "res5.1.skipConv/bn"
  batch_norm_param {
    moving_average_fraction: 0.9
    eps: 0.0001
  }
}
layer {
  name: "res5.1.skipConv/scale"
  type: "Scale"
  bottom: "res5.1.skipConv/bn"
  top: "res5.1.skipConv/bn"
  param {
    lr_mult: 1
    decay_mult: 0
  }
  param {
    lr_mult: 1
    decay_mult: 0
  }
  scale_param {
    bias_term: true
  }
}
layer {
  name: "res5.1.sum"
  type: "Eltwise"
  bottom: "res5.1.conv2/bn"
  bottom: "res5.1.skipConv/bn"
  top: "res5.1.sum"
  eltwise_param {
    operation: SUM
  }
}
layer {
  name: "res5.1.relu"
  type: "ReLU"
  bottom: "res5.1.sum"
  top: "res5.1.sum"
}
layer {
  name: "res5.2.conv1"
  type: "Convolution"
  bottom: "res5.1.sum"
  top: "res5.2.conv1"
  convolution_param {
    num_output: 512
    bias_term: false
    pad: 1
    kernel_size: 3
    weight_filler {
      type: "msra"
    }
  }
}
layer {
  name: "res5.2.conv1/bn"
  type: "BatchNorm"
  bottom: "res5.2.conv1"
  top: "res5.2.conv1/bn"
  batch_norm_param {
    moving_average_fraction: 0.9
    eps: 0.0001
  }
}
layer {
  name: "res5.2.conv1/scale"
  type: "Scale"
  bottom: "res5.2.conv1/bn"
  top: "res5.2.conv1/bn"
  param {
    lr_mult: 1
    decay_mult: 0
  }
  param {
    lr_mult: 1
    decay_mult: 0
  }
  scale_param {
    bias_term: true
  }
}
layer {
  name: "res5.2.conv1/relu"
  type: "ReLU"
  bottom: "res5.2.conv1/bn"
  top: "res5.2.conv1/bn"
}
layer {
  name: "res5.2.conv2"
  type: "Convolution"
  bottom: "res5.2.conv1/bn"
  top: "res5.2.conv2"
  convolution_param {
    num_output: 512
    bias_term: false
    pad: 1
    kernel_size: 3
    weight_filler {
      type: "msra"
    }
  }
}
layer {
  name: "res5.2.conv2/bn"
  type: "BatchNorm"
  bottom: "res5.2.conv2"
  top: "res5.2.conv2/bn"
  batch_norm_param {
    moving_average_fraction: 0.9
    eps: 0.0001
  }
}
layer {
  name: "res5.2.conv2/scale"
  type: "Scale"
  bottom: "res5.2.conv2/bn"
  top: "res5.2.conv2/bn"
  param {
    lr_mult: 1
    decay_mult: 0
  }
  param {
    lr_mult: 1
    decay_mult: 0
  }
  scale_param {
    bias_term: true
  }
}
layer {
  name: "res5.2.sum"
  type: "Eltwise"
  bottom: "res5.2.conv2/bn"
  bottom: "res5.1.sum"
  top: "res5.2.sum"
  eltwise_param {
    operation: SUM
  }
}
layer {
  name: "res5.2.relu"
  type: "ReLU"
  bottom: "res5.2.sum"
  top: "res5.2.sum"
}
layer {
  name: "pool2"
  type: "Pooling"
  bottom: "res5.2.sum"
  top: "pool2"
  pooling_param {
    pool: AVE
    kernel_size: 4
  }
}
layer {
  name: "fc"
  type: "InnerProduct"
  bottom: "pool2"
  top: "fc"
  inner_product_param {
    num_output: 2
    weight_filler {
      type: "msra"
    }
    bias_filler {
      type: "constant"
      value: 0
    }
  }
}
layer {
  name: "prob"
  type: "Softmax"
  bottom: "fc"
  top: "prob"
}
I0809 19:00:53.111084  6202 layer_factory.hpp:77] Creating layer data
I0809 19:00:53.111810  6202 net.cpp:86] Creating Layer data
I0809 19:00:53.112947  6202 net.cpp:382] data -> data
I0809 19:00:53.174813  5905 uart_configuration.cpp:127] current Speed is:0
I0809 19:00:53.245474  6202 net.cpp:124] Setting up data
I0809 19:00:53.245648  6202 net.cpp:131] Top shape: 1 3 112 112 (37632)
I0809 19:00:53.245740  6202 net.cpp:139] Memory required for data: 150528
I0809 19:00:53.245815  6202 layer_factory.hpp:77] Creating layer conv1
I0809 19:00:53.245966  6202 net.cpp:86] Creating Layer conv1
I0809 19:00:53.246044  6202 net.cpp:408] conv1 <- data
I0809 19:00:53.246099  6202 net.cpp:382] conv1 -> conv1
I0809 19:00:53.768687  5905 uart_configuration.cpp:127] current Speed is:0
I0809 19:00:54.764928  5905 uart_configuration.cpp:127] current Speed is:0
I0809 19:00:55.360679  5905 uart_configuration.cpp:127] current Speed is:0
I0809 19:00:56.748656  5905 uart_configuration.cpp:127] current Speed is:0
I0809 19:00:57.144637  5905 uart_configuration.cpp:127] current Speed is:0
I0809 19:00:57.540649  5905 uart_configuration.cpp:127] current Speed is:0
I0809 19:00:57.744853  5905 uart_configuration.cpp:127] current Speed is:0
I0809 19:00:57.948632  5905 uart_configuration.cpp:127] current Speed is:0
I0809 19:00:58.536650  5905 uart_configuration.cpp:127] current Speed is:20.48
I0809 19:00:58.740732  5905 uart_configuration.cpp:127] current Speed is:0
I0809 19:00:59.131572  5905 uart_configuration.cpp:127] current Speed is:0
I0809 19:00:59.336740  5905 uart_configuration.cpp:127] current Speed is:0
I0809 19:00:59.540705  5905 uart_configuration.cpp:127] current Speed is:0
I0809 19:00:59.794049  6202 net.cpp:124] Setting up conv1
I0809 19:00:59.796715  6202 net.cpp:131] Top shape: 1 64 56 56 (200704)
I0809 19:00:59.796803  6202 net.cpp:139] Memory required for data: 953344
I0809 19:00:59.796898  6202 layer_factory.hpp:77] Creating layer conv1/bn
I0809 19:00:59.796963  6202 net.cpp:86] Creating Layer conv1/bn
I0809 19:00:59.797008  6202 net.cpp:408] conv1/bn <- conv1
I0809 19:00:59.797056  6202 net.cpp:382] conv1/bn -> conv1/bn
I0809 19:00:59.799127  6202 net.cpp:124] Setting up conv1/bn
I0809 19:00:59.799212  6202 net.cpp:131] Top shape: 1 64 56 56 (200704)
I0809 19:00:59.799262  6202 net.cpp:139] Memory required for data: 1756160
I0809 19:00:59.799332  6202 layer_factory.hpp:77] Creating layer conv1/scale
I0809 19:00:59.799386  6202 net.cpp:86] Creating Layer conv1/scale
I0809 19:00:59.799422  6202 net.cpp:408] conv1/scale <- conv1/bn
I0809 19:00:59.799463  6202 net.cpp:369] conv1/scale -> conv1/bn (in-place)
I0809 19:00:59.799729  6202 layer_factory.hpp:77] Creating layer conv1/scale
I0809 19:00:59.800375  6202 net.cpp:124] Setting up conv1/scale
I0809 19:00:59.800460  6202 net.cpp:131] Top shape: 1 64 56 56 (200704)
I0809 19:00:59.800514  6202 net.cpp:139] Memory required for data: 2558976
I0809 19:00:59.800632  6202 layer_factory.hpp:77] Creating layer conv1/relu
I0809 19:00:59.800766  6202 net.cpp:86] Creating Layer conv1/relu
I0809 19:00:59.800817  6202 net.cpp:408] conv1/relu <- conv1/bn
I0809 19:00:59.800865  6202 net.cpp:369] conv1/relu -> conv1/bn (in-place)
I0809 19:00:59.803652  6202 net.cpp:124] Setting up conv1/relu
I0809 19:00:59.803726  6202 net.cpp:131] Top shape: 1 64 56 56 (200704)
I0809 19:00:59.803769  6202 net.cpp:139] Memory required for data: 3361792
I0809 19:00:59.803803  6202 layer_factory.hpp:77] Creating layer pool1
I0809 19:00:59.803848  6202 net.cpp:86] Creating Layer pool1
I0809 19:00:59.803877  6202 net.cpp:408] pool1 <- conv1/bn
I0809 19:00:59.803920  6202 net.cpp:382] pool1 -> pool1
I0809 19:00:59.804170  6202 net.cpp:124] Setting up pool1
I0809 19:00:59.804213  6202 net.cpp:131] Top shape: 1 64 28 28 (50176)
I0809 19:00:59.804246  6202 net.cpp:139] Memory required for data: 3562496
I0809 19:00:59.804275  6202 layer_factory.hpp:77] Creating layer pool1_pool1_0_split
I0809 19:00:59.804311  6202 net.cpp:86] Creating Layer pool1_pool1_0_split
I0809 19:00:59.804340  6202 net.cpp:408] pool1_pool1_0_split <- pool1
I0809 19:00:59.804378  6202 net.cpp:382] pool1_pool1_0_split -> pool1_pool1_0_split_0
I0809 19:00:59.804422  6202 net.cpp:382] pool1_pool1_0_split -> pool1_pool1_0_split_1
I0809 19:00:59.804654  6202 net.cpp:124] Setting up pool1_pool1_0_split
I0809 19:00:59.804706  6202 net.cpp:131] Top shape: 1 64 28 28 (50176)
I0809 19:00:59.804742  6202 net.cpp:131] Top shape: 1 64 28 28 (50176)
I0809 19:00:59.804772  6202 net.cpp:139] Memory required for data: 3963904
I0809 19:00:59.804800  6202 layer_factory.hpp:77] Creating layer res2.1.conv1
I0809 19:00:59.804847  6202 net.cpp:86] Creating Layer res2.1.conv1
I0809 19:00:59.804877  6202 net.cpp:408] res2.1.conv1 <- pool1_pool1_0_split_0
I0809 19:00:59.804927  6202 net.cpp:382] res2.1.conv1 -> res2.1.conv1
I0809 19:00:59.818871  6202 net.cpp:124] Setting up res2.1.conv1
I0809 19:00:59.818951  6202 net.cpp:131] Top shape: 1 64 28 28 (50176)
I0809 19:00:59.819092  6202 net.cpp:139] Memory required for data: 4164608
I0809 19:00:59.819149  6202 layer_factory.hpp:77] Creating layer res2.1.conv1/bn
I0809 19:00:59.819216  6202 net.cpp:86] Creating Layer res2.1.conv1/bn
I0809 19:00:59.819252  6202 net.cpp:408] res2.1.conv1/bn <- res2.1.conv1
I0809 19:00:59.819293  6202 net.cpp:382] res2.1.conv1/bn -> res2.1.conv1/bn
I0809 19:00:59.821583  6202 net.cpp:124] Setting up res2.1.conv1/bn
I0809 19:00:59.821687  6202 net.cpp:131] Top shape: 1 64 28 28 (50176)
I0809 19:00:59.821732  6202 net.cpp:139] Memory required for data: 4365312
I0809 19:00:59.821807  6202 layer_factory.hpp:77] Creating layer res2.1.conv1/scale
I0809 19:00:59.821857  6202 net.cpp:86] Creating Layer res2.1.conv1/scale
I0809 19:00:59.821888  6202 net.cpp:408] res2.1.conv1/scale <- res2.1.conv1/bn
I0809 19:00:59.821928  6202 net.cpp:369] res2.1.conv1/scale -> res2.1.conv1/bn (in-place)
I0809 19:00:59.822137  6202 layer_factory.hpp:77] Creating layer res2.1.conv1/scale
I0809 19:00:59.822624  6202 net.cpp:124] Setting up res2.1.conv1/scale
I0809 19:00:59.822664  6202 net.cpp:131] Top shape: 1 64 28 28 (50176)
I0809 19:00:59.822697  6202 net.cpp:139] Memory required for data: 4566016
I0809 19:00:59.822736  6202 layer_factory.hpp:77] Creating layer res2.1.conv1/relu
I0809 19:00:59.822773  6202 net.cpp:86] Creating Layer res2.1.conv1/relu
I0809 19:00:59.822803  6202 net.cpp:408] res2.1.conv1/relu <- res2.1.conv1/bn
I0809 19:00:59.822835  6202 net.cpp:369] res2.1.conv1/relu -> res2.1.conv1/bn (in-place)
I0809 19:00:59.824929  6202 net.cpp:124] Setting up res2.1.conv1/relu
I0809 19:00:59.825078  6202 net.cpp:131] Top shape: 1 64 28 28 (50176)
I0809 19:00:59.825122  6202 net.cpp:139] Memory required for data: 4766720
I0809 19:00:59.825151  6202 layer_factory.hpp:77] Creating layer res2.1.conv2
I0809 19:00:59.825213  6202 net.cpp:86] Creating Layer res2.1.conv2
I0809 19:00:59.825245  6202 net.cpp:408] res2.1.conv2 <- res2.1.conv1/bn
I0809 19:00:59.825286  6202 net.cpp:382] res2.1.conv2 -> res2.1.conv2
I0809 19:00:59.842873  6202 net.cpp:124] Setting up res2.1.conv2
I0809 19:00:59.842988  6202 net.cpp:131] Top shape: 1 64 28 28 (50176)
I0809 19:00:59.843040  6202 net.cpp:139] Memory required for data: 4967424
I0809 19:00:59.843089  6202 layer_factory.hpp:77] Creating layer res2.1.conv2/bn
I0809 19:00:59.843144  6202 net.cpp:86] Creating Layer res2.1.conv2/bn
I0809 19:00:59.843183  6202 net.cpp:408] res2.1.conv2/bn <- res2.1.conv2
I0809 19:00:59.843222  6202 net.cpp:382] res2.1.conv2/bn -> res2.1.conv2/bn
I0809 19:00:59.844344  6202 net.cpp:124] Setting up res2.1.conv2/bn
I0809 19:00:59.844411  6202 net.cpp:131] Top shape: 1 64 28 28 (50176)
I0809 19:00:59.844456  6202 net.cpp:139] Memory required for data: 5168128
I0809 19:00:59.844529  6202 layer_factory.hpp:77] Creating layer res2.1.conv2/scale
I0809 19:00:59.844664  6202 net.cpp:86] Creating Layer res2.1.conv2/scale
I0809 19:00:59.844717  6202 net.cpp:408] res2.1.conv2/scale <- res2.1.conv2/bn
I0809 19:00:59.844775  6202 net.cpp:369] res2.1.conv2/scale -> res2.1.conv2/bn (in-place)
I0809 19:00:59.845053  6202 layer_factory.hpp:77] Creating layer res2.1.conv2/scale
I0809 19:00:59.845676  6202 net.cpp:124] Setting up res2.1.conv2/scale
I0809 19:00:59.845732  6202 net.cpp:131] Top shape: 1 64 28 28 (50176)
I0809 19:00:59.845777  6202 net.cpp:139] Memory required for data: 5368832
I0809 19:00:59.845832  6202 layer_factory.hpp:77] Creating layer res2.1.sum
I0809 19:00:59.845881  6202 net.cpp:86] Creating Layer res2.1.sum
I0809 19:00:59.845914  6202 net.cpp:408] res2.1.sum <- res2.1.conv2/bn
I0809 19:00:59.845950  6202 net.cpp:408] res2.1.sum <- pool1_pool1_0_split_1
I0809 19:00:59.845988  6202 net.cpp:382] res2.1.sum -> res2.1.sum
I0809 19:00:59.846130  6202 net.cpp:124] Setting up res2.1.sum
I0809 19:00:59.846170  6202 net.cpp:131] Top shape: 1 64 28 28 (50176)
I0809 19:00:59.846204  6202 net.cpp:139] Memory required for data: 5569536
I0809 19:00:59.846235  6202 layer_factory.hpp:77] Creating layer res2.1.relu
I0809 19:00:59.846365  6202 net.cpp:86] Creating Layer res2.1.relu
I0809 19:00:59.846441  6202 net.cpp:408] res2.1.relu <- res2.1.sum
I0809 19:00:59.846490  6202 net.cpp:369] res2.1.relu -> res2.1.sum (in-place)
I0809 19:00:59.850508  6202 net.cpp:124] Setting up res2.1.relu
I0809 19:00:59.850710  6202 net.cpp:131] Top shape: 1 64 28 28 (50176)
I0809 19:00:59.850767  6202 net.cpp:139] Memory required for data: 5770240
I0809 19:00:59.850801  6202 layer_factory.hpp:77] Creating layer res2.1.sum_res2.1.relu_0_split
I0809 19:00:59.850870  6202 net.cpp:86] Creating Layer res2.1.sum_res2.1.relu_0_split
I0809 19:00:59.850908  6202 net.cpp:408] res2.1.sum_res2.1.relu_0_split <- res2.1.sum
I0809 19:00:59.850960  6202 net.cpp:382] res2.1.sum_res2.1.relu_0_split -> res2.1.sum_res2.1.relu_0_split_0
I0809 19:00:59.851012  6202 net.cpp:382] res2.1.sum_res2.1.relu_0_split -> res2.1.sum_res2.1.relu_0_split_1
I0809 19:00:59.851311  6202 net.cpp:124] Setting up res2.1.sum_res2.1.relu_0_split
I0809 19:00:59.851359  6202 net.cpp:131] Top shape: 1 64 28 28 (50176)
I0809 19:00:59.851398  6202 net.cpp:131] Top shape: 1 64 28 28 (50176)
I0809 19:00:59.851428  6202 net.cpp:139] Memory required for data: 6171648
I0809 19:00:59.851455  6202 layer_factory.hpp:77] Creating layer res2.2.conv1
I0809 19:00:59.851511  6202 net.cpp:86] Creating Layer res2.2.conv1
I0809 19:00:59.851544  6202 net.cpp:408] res2.2.conv1 <- res2.1.sum_res2.1.relu_0_split_0
I0809 19:00:59.851588  6202 net.cpp:382] res2.2.conv1 -> res2.2.conv1
I0809 19:00:59.865342  6202 net.cpp:124] Setting up res2.2.conv1
I0809 19:00:59.865432  6202 net.cpp:131] Top shape: 1 64 28 28 (50176)
I0809 19:00:59.865475  6202 net.cpp:139] Memory required for data: 6372352
I0809 19:00:59.865520  6202 layer_factory.hpp:77] Creating layer res2.2.conv1/bn
I0809 19:00:59.865574  6202 net.cpp:86] Creating Layer res2.2.conv1/bn
I0809 19:00:59.865608  6202 net.cpp:408] res2.2.conv1/bn <- res2.2.conv1
I0809 19:00:59.865645  6202 net.cpp:382] res2.2.conv1/bn -> res2.2.conv1/bn
I0809 19:00:59.866616  6202 net.cpp:124] Setting up res2.2.conv1/bn
I0809 19:00:59.866663  6202 net.cpp:131] Top shape: 1 64 28 28 (50176)
I0809 19:00:59.866698  6202 net.cpp:139] Memory required for data: 6573056
I0809 19:00:59.866752  6202 layer_factory.hpp:77] Creating layer res2.2.conv1/scale
I0809 19:00:59.866793  6202 net.cpp:86] Creating Layer res2.2.conv1/scale
I0809 19:00:59.866822  6202 net.cpp:408] res2.2.conv1/scale <- res2.2.conv1/bn
I0809 19:00:59.866860  6202 net.cpp:369] res2.2.conv1/scale -> res2.2.conv1/bn (in-place)
I0809 19:00:59.867036  6202 layer_factory.hpp:77] Creating layer res2.2.conv1/scale
I0809 19:00:59.867511  6202 net.cpp:124] Setting up res2.2.conv1/scale
I0809 19:00:59.867547  6202 net.cpp:131] Top shape: 1 64 28 28 (50176)
I0809 19:00:59.867580  6202 net.cpp:139] Memory required for data: 6773760
I0809 19:00:59.867619  6202 layer_factory.hpp:77] Creating layer res2.2.conv1/relu
I0809 19:00:59.867663  6202 net.cpp:86] Creating Layer res2.2.conv1/relu
I0809 19:00:59.867696  6202 net.cpp:408] res2.2.conv1/relu <- res2.2.conv1/bn
I0809 19:00:59.867730  6202 net.cpp:369] res2.2.conv1/relu -> res2.2.conv1/bn (in-place)
I0809 19:00:59.871037  6202 net.cpp:124] Setting up res2.2.conv1/relu
I0809 19:00:59.871147  6202 net.cpp:131] Top shape: 1 64 28 28 (50176)
I0809 19:00:59.871196  6202 net.cpp:139] Memory required for data: 6974464
I0809 19:00:59.871228  6202 layer_factory.hpp:77] Creating layer res2.2.conv2
I0809 19:00:59.871299  6202 net.cpp:86] Creating Layer res2.2.conv2
I0809 19:00:59.871338  6202 net.cpp:408] res2.2.conv2 <- res2.2.conv1/bn
I0809 19:00:59.871382  6202 net.cpp:382] res2.2.conv2 -> res2.2.conv2
I0809 19:00:59.886070  6202 net.cpp:124] Setting up res2.2.conv2
I0809 19:00:59.886337  6202 net.cpp:131] Top shape: 1 64 28 28 (50176)
I0809 19:00:59.886430  6202 net.cpp:139] Memory required for data: 7175168
I0809 19:00:59.886534  6202 layer_factory.hpp:77] Creating layer res2.2.conv2/bn
I0809 19:00:59.886620  6202 net.cpp:86] Creating Layer res2.2.conv2/bn
I0809 19:00:59.886667  6202 net.cpp:408] res2.2.conv2/bn <- res2.2.conv2
I0809 19:00:59.886976  6202 net.cpp:382] res2.2.conv2/bn -> res2.2.conv2/bn
I0809 19:00:59.888283  6202 net.cpp:124] Setting up res2.2.conv2/bn
I0809 19:00:59.888339  6202 net.cpp:131] Top shape: 1 64 28 28 (50176)
I0809 19:00:59.888396  6202 net.cpp:139] Memory required for data: 7375872
I0809 19:00:59.888453  6202 layer_factory.hpp:77] Creating layer res2.2.conv2/scale
I0809 19:00:59.888517  6202 net.cpp:86] Creating Layer res2.2.conv2/scale
I0809 19:00:59.888784  6202 net.cpp:408] res2.2.conv2/scale <- res2.2.conv2/bn
I0809 19:00:59.888882  6202 net.cpp:369] res2.2.conv2/scale -> res2.2.conv2/bn (in-place)
I0809 19:00:59.889289  6202 layer_factory.hpp:77] Creating layer res2.2.conv2/scale
I0809 19:00:59.890254  6202 net.cpp:124] Setting up res2.2.conv2/scale
I0809 19:00:59.890353  6202 net.cpp:131] Top shape: 1 64 28 28 (50176)
I0809 19:00:59.890408  6202 net.cpp:139] Memory required for data: 7576576
I0809 19:00:59.890477  6202 layer_factory.hpp:77] Creating layer res2.2.sum
I0809 19:00:59.890588  6202 net.cpp:86] Creating Layer res2.2.sum
I0809 19:00:59.890628  6202 net.cpp:408] res2.2.sum <- res2.2.conv2/bn
I0809 19:00:59.890668  6202 net.cpp:408] res2.2.sum <- res2.1.sum_res2.1.relu_0_split_1
I0809 19:00:59.890707  6202 net.cpp:382] res2.2.sum -> res2.2.sum
I0809 19:00:59.890882  6202 net.cpp:124] Setting up res2.2.sum
I0809 19:00:59.890930  6202 net.cpp:131] Top shape: 1 64 28 28 (50176)
I0809 19:00:59.890969  6202 net.cpp:139] Memory required for data: 7777280
I0809 19:00:59.890995  6202 layer_factory.hpp:77] Creating layer res2.2.relu
I0809 19:00:59.891031  6202 net.cpp:86] Creating Layer res2.2.relu
I0809 19:00:59.891062  6202 net.cpp:408] res2.2.relu <- res2.2.sum
I0809 19:00:59.891099  6202 net.cpp:369] res2.2.relu -> res2.2.sum (in-place)
I0809 19:00:59.897337  6202 net.cpp:124] Setting up res2.2.relu
I0809 19:00:59.897440  6202 net.cpp:131] Top shape: 1 64 28 28 (50176)
I0809 19:00:59.897497  6202 net.cpp:139] Memory required for data: 7977984
I0809 19:00:59.897536  6202 layer_factory.hpp:77] Creating layer res2.2.sum_res2.2.relu_0_split
I0809 19:00:59.897600  6202 net.cpp:86] Creating Layer res2.2.sum_res2.2.relu_0_split
I0809 19:00:59.897644  6202 net.cpp:408] res2.2.sum_res2.2.relu_0_split <- res2.2.sum
I0809 19:00:59.897697  6202 net.cpp:382] res2.2.sum_res2.2.relu_0_split -> res2.2.sum_res2.2.relu_0_split_0
I0809 19:00:59.897760  6202 net.cpp:382] res2.2.sum_res2.2.relu_0_split -> res2.2.sum_res2.2.relu_0_split_1
I0809 19:00:59.898082  6202 net.cpp:124] Setting up res2.2.sum_res2.2.relu_0_split
I0809 19:00:59.898144  6202 net.cpp:131] Top shape: 1 64 28 28 (50176)
I0809 19:00:59.898190  6202 net.cpp:131] Top shape: 1 64 28 28 (50176)
I0809 19:00:59.898227  6202 net.cpp:139] Memory required for data: 8379392
I0809 19:00:59.898260  6202 layer_factory.hpp:77] Creating layer res3.1.conv1
I0809 19:00:59.898324  6202 net.cpp:86] Creating Layer res3.1.conv1
I0809 19:00:59.898367  6202 net.cpp:408] res3.1.conv1 <- res2.2.sum_res2.2.relu_0_split_0
I0809 19:00:59.898417  6202 net.cpp:382] res3.1.conv1 -> res3.1.conv1
I0809 19:00:59.914760  6202 net.cpp:124] Setting up res3.1.conv1
I0809 19:00:59.914844  6202 net.cpp:131] Top shape: 1 128 14 14 (25088)
I0809 19:00:59.914886  6202 net.cpp:139] Memory required for data: 8479744
I0809 19:00:59.914927  6202 layer_factory.hpp:77] Creating layer res3.1.conv1/bn
I0809 19:00:59.914980  6202 net.cpp:86] Creating Layer res3.1.conv1/bn
I0809 19:00:59.915014  6202 net.cpp:408] res3.1.conv1/bn <- res3.1.conv1
I0809 19:00:59.915051  6202 net.cpp:382] res3.1.conv1/bn -> res3.1.conv1/bn
I0809 19:00:59.915964  6202 net.cpp:124] Setting up res3.1.conv1/bn
I0809 19:00:59.916003  6202 net.cpp:131] Top shape: 1 128 14 14 (25088)
I0809 19:00:59.916035  6202 net.cpp:139] Memory required for data: 8580096
I0809 19:00:59.916095  6202 layer_factory.hpp:77] Creating layer res3.1.conv1/scale
I0809 19:00:59.916146  6202 net.cpp:86] Creating Layer res3.1.conv1/scale
I0809 19:00:59.916177  6202 net.cpp:408] res3.1.conv1/scale <- res3.1.conv1/bn
I0809 19:00:59.916211  6202 net.cpp:369] res3.1.conv1/scale -> res3.1.conv1/bn (in-place)
I0809 19:00:59.916713  6202 layer_factory.hpp:77] Creating layer res3.1.conv1/scale
I0809 19:00:59.917217  6202 net.cpp:124] Setting up res3.1.conv1/scale
I0809 19:00:59.917255  6202 net.cpp:131] Top shape: 1 128 14 14 (25088)
I0809 19:00:59.917290  6202 net.cpp:139] Memory required for data: 8680448
I0809 19:00:59.917340  6202 layer_factory.hpp:77] Creating layer res3.1.conv1/relu
I0809 19:00:59.917379  6202 net.cpp:86] Creating Layer res3.1.conv1/relu
I0809 19:00:59.917409  6202 net.cpp:408] res3.1.conv1/relu <- res3.1.conv1/bn
I0809 19:00:59.917445  6202 net.cpp:369] res3.1.conv1/relu -> res3.1.conv1/bn (in-place)
I0809 19:00:59.920712  6202 net.cpp:124] Setting up res3.1.conv1/relu
I0809 19:00:59.920800  6202 net.cpp:131] Top shape: 1 128 14 14 (25088)
I0809 19:00:59.920847  6202 net.cpp:139] Memory required for data: 8780800
I0809 19:00:59.920881  6202 layer_factory.hpp:77] Creating layer res3.1.conv2
I0809 19:00:59.920948  6202 net.cpp:86] Creating Layer res3.1.conv2
I0809 19:00:59.920985  6202 net.cpp:408] res3.1.conv2 <- res3.1.conv1/bn
I0809 19:00:59.921038  6202 net.cpp:382] res3.1.conv2 -> res3.1.conv2
I0809 19:00:59.946419  6202 net.cpp:124] Setting up res3.1.conv2
I0809 19:00:59.946537  6202 net.cpp:131] Top shape: 1 128 14 14 (25088)
I0809 19:00:59.946583  6202 net.cpp:139] Memory required for data: 8881152
I0809 19:00:59.946633  6202 layer_factory.hpp:77] Creating layer res3.1.conv2/bn
I0809 19:00:59.946707  6202 net.cpp:86] Creating Layer res3.1.conv2/bn
I0809 19:00:59.946746  6202 net.cpp:408] res3.1.conv2/bn <- res3.1.conv2
I0809 19:00:59.946786  6202 net.cpp:382] res3.1.conv2/bn -> res3.1.conv2/bn
I0809 19:00:59.948082  6202 net.cpp:124] Setting up res3.1.conv2/bn
I0809 19:00:59.948176  6202 net.cpp:131] Top shape: 1 128 14 14 (25088)
I0809 19:00:59.948247  6202 net.cpp:139] Memory required for data: 8981504
I0809 19:00:59.948346  6202 layer_factory.hpp:77] Creating layer res3.1.conv2/scale
I0809 19:00:59.948416  6202 net.cpp:86] Creating Layer res3.1.conv2/scale
I0809 19:00:59.948460  6202 net.cpp:408] res3.1.conv2/scale <- res3.1.conv2/bn
I0809 19:00:59.948516  6202 net.cpp:369] res3.1.conv2/scale -> res3.1.conv2/bn (in-place)
I0809 19:00:59.948877  6202 layer_factory.hpp:77] Creating layer res3.1.conv2/scale
I0809 19:00:59.949551  6202 net.cpp:124] Setting up res3.1.conv2/scale
I0809 19:00:59.949620  6202 net.cpp:131] Top shape: 1 128 14 14 (25088)
I0809 19:00:59.949662  6202 net.cpp:139] Memory required for data: 9081856
I0809 19:00:59.949714  6202 layer_factory.hpp:77] Creating layer res3.1.skipConv
I0809 19:00:59.949769  6202 net.cpp:86] Creating Layer res3.1.skipConv
I0809 19:00:59.949805  6202 net.cpp:408] res3.1.skipConv <- res2.2.sum_res2.2.relu_0_split_1
I0809 19:00:59.949848  6202 net.cpp:382] res3.1.skipConv -> res3.1.skipConv
I0809 19:00:59.977772  6202 net.cpp:124] Setting up res3.1.skipConv
I0809 19:00:59.977888  6202 net.cpp:131] Top shape: 1 128 14 14 (25088)
I0809 19:00:59.977934  6202 net.cpp:139] Memory required for data: 9182208
I0809 19:00:59.977977  6202 layer_factory.hpp:77] Creating layer res3.1.skipConv/bn
I0809 19:00:59.978039  6202 net.cpp:86] Creating Layer res3.1.skipConv/bn
I0809 19:00:59.978075  6202 net.cpp:408] res3.1.skipConv/bn <- res3.1.skipConv
I0809 19:00:59.978114  6202 net.cpp:382] res3.1.skipConv/bn -> res3.1.skipConv/bn
I0809 19:00:59.979347  6202 net.cpp:124] Setting up res3.1.skipConv/bn
I0809 19:00:59.979455  6202 net.cpp:131] Top shape: 1 128 14 14 (25088)
I0809 19:00:59.979512  6202 net.cpp:139] Memory required for data: 9282560
I0809 19:00:59.979578  6202 layer_factory.hpp:77] Creating layer res3.1.skipConv/scale
I0809 19:00:59.979642  6202 net.cpp:86] Creating Layer res3.1.skipConv/scale
I0809 19:00:59.979678  6202 net.cpp:408] res3.1.skipConv/scale <- res3.1.skipConv/bn
I0809 19:00:59.979717  6202 net.cpp:369] res3.1.skipConv/scale -> res3.1.skipConv/bn (in-place)
I0809 19:00:59.980015  6202 layer_factory.hpp:77] Creating layer res3.1.skipConv/scale
I0809 19:00:59.980762  6202 net.cpp:124] Setting up res3.1.skipConv/scale
I0809 19:00:59.980924  6202 net.cpp:131] Top shape: 1 128 14 14 (25088)
I0809 19:00:59.980983  6202 net.cpp:139] Memory required for data: 9382912
I0809 19:00:59.981034  6202 layer_factory.hpp:77] Creating layer res3.1.sum
I0809 19:00:59.981088  6202 net.cpp:86] Creating Layer res3.1.sum
I0809 19:00:59.981125  6202 net.cpp:408] res3.1.sum <- res3.1.conv2/bn
I0809 19:00:59.981163  6202 net.cpp:408] res3.1.sum <- res3.1.skipConv/bn
I0809 19:00:59.981201  6202 net.cpp:382] res3.1.sum -> res3.1.sum
I0809 19:00:59.981395  6202 net.cpp:124] Setting up res3.1.sum
I0809 19:00:59.981443  6202 net.cpp:131] Top shape: 1 128 14 14 (25088)
I0809 19:00:59.981482  6202 net.cpp:139] Memory required for data: 9483264
I0809 19:00:59.981514  6202 layer_factory.hpp:77] Creating layer res3.1.relu
I0809 19:00:59.981554  6202 net.cpp:86] Creating Layer res3.1.relu
I0809 19:00:59.981591  6202 net.cpp:408] res3.1.relu <- res3.1.sum
I0809 19:00:59.981644  6202 net.cpp:369] res3.1.relu -> res3.1.sum (in-place)
I0809 19:00:59.985965  6202 net.cpp:124] Setting up res3.1.relu
I0809 19:00:59.986248  6202 net.cpp:131] Top shape: 1 128 14 14 (25088)
I0809 19:00:59.986307  6202 net.cpp:139] Memory required for data: 9583616
I0809 19:00:59.986343  6202 layer_factory.hpp:77] Creating layer res3.1.sum_res3.1.relu_0_split
I0809 19:00:59.986409  6202 net.cpp:86] Creating Layer res3.1.sum_res3.1.relu_0_split
I0809 19:00:59.986449  6202 net.cpp:408] res3.1.sum_res3.1.relu_0_split <- res3.1.sum
I0809 19:00:59.986493  6202 net.cpp:382] res3.1.sum_res3.1.relu_0_split -> res3.1.sum_res3.1.relu_0_split_0
I0809 19:00:59.986543  6202 net.cpp:382] res3.1.sum_res3.1.relu_0_split -> res3.1.sum_res3.1.relu_0_split_1
I0809 19:00:59.986836  6202 net.cpp:124] Setting up res3.1.sum_res3.1.relu_0_split
I0809 19:00:59.986882  6202 net.cpp:131] Top shape: 1 128 14 14 (25088)
I0809 19:00:59.986919  6202 net.cpp:131] Top shape: 1 128 14 14 (25088)
I0809 19:00:59.986949  6202 net.cpp:139] Memory required for data: 9784320
I0809 19:00:59.986976  6202 layer_factory.hpp:77] Creating layer res3.2.conv1
I0809 19:00:59.987020  6202 net.cpp:86] Creating Layer res3.2.conv1
I0809 19:00:59.987051  6202 net.cpp:408] res3.2.conv1 <- res3.1.sum_res3.1.relu_0_split_0
I0809 19:00:59.987089  6202 net.cpp:382] res3.2.conv1 -> res3.2.conv1
I0809 19:01:00.007850  6202 net.cpp:124] Setting up res3.2.conv1
I0809 19:01:00.008028  6202 net.cpp:131] Top shape: 1 128 14 14 (25088)
I0809 19:01:00.008077  6202 net.cpp:139] Memory required for data: 9884672
I0809 19:01:00.008121  6202 layer_factory.hpp:77] Creating layer res3.2.conv1/bn
I0809 19:01:00.008178  6202 net.cpp:86] Creating Layer res3.2.conv1/bn
I0809 19:01:00.008213  6202 net.cpp:408] res3.2.conv1/bn <- res3.2.conv1
I0809 19:01:00.008251  6202 net.cpp:382] res3.2.conv1/bn -> res3.2.conv1/bn
I0809 19:01:00.009316  6202 net.cpp:124] Setting up res3.2.conv1/bn
I0809 19:01:00.009367  6202 net.cpp:131] Top shape: 1 128 14 14 (25088)
I0809 19:01:00.009404  6202 net.cpp:139] Memory required for data: 9985024
I0809 19:01:00.009449  6202 layer_factory.hpp:77] Creating layer res3.2.conv1/scale
I0809 19:01:00.009490  6202 net.cpp:86] Creating Layer res3.2.conv1/scale
I0809 19:01:00.009518  6202 net.cpp:408] res3.2.conv1/scale <- res3.2.conv1/bn
I0809 19:01:00.009564  6202 net.cpp:369] res3.2.conv1/scale -> res3.2.conv1/bn (in-place)
I0809 19:01:00.009760  6202 layer_factory.hpp:77] Creating layer res3.2.conv1/scale
I0809 19:01:00.010247  6202 net.cpp:124] Setting up res3.2.conv1/scale
I0809 19:01:00.010282  6202 net.cpp:131] Top shape: 1 128 14 14 (25088)
I0809 19:01:00.010315  6202 net.cpp:139] Memory required for data: 10085376
I0809 19:01:00.010361  6202 layer_factory.hpp:77] Creating layer res3.2.conv1/relu
I0809 19:01:00.010397  6202 net.cpp:86] Creating Layer res3.2.conv1/relu
I0809 19:01:00.010426  6202 net.cpp:408] res3.2.conv1/relu <- res3.2.conv1/bn
I0809 19:01:00.010459  6202 net.cpp:369] res3.2.conv1/relu -> res3.2.conv1/bn (in-place)
I0809 19:01:00.013607  6202 net.cpp:124] Setting up res3.2.conv1/relu
I0809 19:01:00.013761  6202 net.cpp:131] Top shape: 1 128 14 14 (25088)
I0809 19:01:00.013814  6202 net.cpp:139] Memory required for data: 10185728
I0809 19:01:00.013851  6202 layer_factory.hpp:77] Creating layer res3.2.conv2
I0809 19:01:00.013922  6202 net.cpp:86] Creating Layer res3.2.conv2
I0809 19:01:00.013959  6202 net.cpp:408] res3.2.conv2 <- res3.2.conv1/bn
I0809 19:01:00.014003  6202 net.cpp:382] res3.2.conv2 -> res3.2.conv2
I0809 19:01:00.034626  6202 net.cpp:124] Setting up res3.2.conv2
I0809 19:01:00.034997  6202 net.cpp:131] Top shape: 1 128 14 14 (25088)
I0809 19:01:00.035102  6202 net.cpp:139] Memory required for data: 10286080
I0809 19:01:00.035190  6202 layer_factory.hpp:77] Creating layer res3.2.conv2/bn
I0809 19:01:00.035310  6202 net.cpp:86] Creating Layer res3.2.conv2/bn
I0809 19:01:00.035364  6202 net.cpp:408] res3.2.conv2/bn <- res3.2.conv2
I0809 19:01:00.035411  6202 net.cpp:382] res3.2.conv2/bn -> res3.2.conv2/bn
I0809 19:01:00.036674  6202 net.cpp:124] Setting up res3.2.conv2/bn
I0809 19:01:00.036746  6202 net.cpp:131] Top shape: 1 128 14 14 (25088)
I0809 19:01:00.036787  6202 net.cpp:139] Memory required for data: 10386432
I0809 19:01:00.036866  6202 layer_factory.hpp:77] Creating layer res3.2.conv2/scale
I0809 19:01:00.036926  6202 net.cpp:86] Creating Layer res3.2.conv2/scale
I0809 19:01:00.036964  6202 net.cpp:408] res3.2.conv2/scale <- res3.2.conv2/bn
I0809 19:01:00.037004  6202 net.cpp:369] res3.2.conv2/scale -> res3.2.conv2/bn (in-place)
I0809 19:01:00.037251  6202 layer_factory.hpp:77] Creating layer res3.2.conv2/scale
I0809 19:01:00.037995  6202 net.cpp:124] Setting up res3.2.conv2/scale
I0809 19:01:00.038077  6202 net.cpp:131] Top shape: 1 128 14 14 (25088)
I0809 19:01:00.038122  6202 net.cpp:139] Memory required for data: 10486784
I0809 19:01:00.038174  6202 layer_factory.hpp:77] Creating layer res3.2.sum
I0809 19:01:00.038223  6202 net.cpp:86] Creating Layer res3.2.sum
I0809 19:01:00.038262  6202 net.cpp:408] res3.2.sum <- res3.2.conv2/bn
I0809 19:01:00.038300  6202 net.cpp:408] res3.2.sum <- res3.1.sum_res3.1.relu_0_split_1
I0809 19:01:00.038341  6202 net.cpp:382] res3.2.sum -> res3.2.sum
I0809 19:01:00.038532  6202 net.cpp:124] Setting up res3.2.sum
I0809 19:01:00.038579  6202 net.cpp:131] Top shape: 1 128 14 14 (25088)
I0809 19:01:00.038619  6202 net.cpp:139] Memory required for data: 10587136
I0809 19:01:00.038646  6202 layer_factory.hpp:77] Creating layer res3.2.relu
I0809 19:01:00.038771  6202 net.cpp:86] Creating Layer res3.2.relu
I0809 19:01:00.038812  6202 net.cpp:408] res3.2.relu <- res3.2.sum
I0809 19:01:00.038854  6202 net.cpp:369] res3.2.relu -> res3.2.sum (in-place)
I0809 19:01:00.042505  6202 net.cpp:124] Setting up res3.2.relu
I0809 19:01:00.043905  6202 net.cpp:131] Top shape: 1 128 14 14 (25088)
I0809 19:01:00.044009  6202 net.cpp:139] Memory required for data: 10687488
I0809 19:01:00.044056  6202 layer_factory.hpp:77] Creating layer res3.2.sum_res3.2.relu_0_split
I0809 19:01:00.044145  6202 net.cpp:86] Creating Layer res3.2.sum_res3.2.relu_0_split
I0809 19:01:00.044214  6202 net.cpp:408] res3.2.sum_res3.2.relu_0_split <- res3.2.sum
I0809 19:01:00.044267  6202 net.cpp:382] res3.2.sum_res3.2.relu_0_split -> res3.2.sum_res3.2.relu_0_split_0
I0809 19:01:00.044317  6202 net.cpp:382] res3.2.sum_res3.2.relu_0_split -> res3.2.sum_res3.2.relu_0_split_1
I0809 19:01:00.044919  6202 net.cpp:124] Setting up res3.2.sum_res3.2.relu_0_split
I0809 19:01:00.044997  6202 net.cpp:131] Top shape: 1 128 14 14 (25088)
I0809 19:01:00.045044  6202 net.cpp:131] Top shape: 1 128 14 14 (25088)
I0809 19:01:00.045080  6202 net.cpp:139] Memory required for data: 10888192
I0809 19:01:00.045112  6202 layer_factory.hpp:77] Creating layer res4.1.conv1
I0809 19:01:00.045172  6202 net.cpp:86] Creating Layer res4.1.conv1
I0809 19:01:00.045218  6202 net.cpp:408] res4.1.conv1 <- res3.2.sum_res3.2.relu_0_split_0
I0809 19:01:00.045284  6202 net.cpp:382] res4.1.conv1 -> res4.1.conv1
I0809 19:01:00.070046  6202 net.cpp:124] Setting up res4.1.conv1
I0809 19:01:00.070191  6202 net.cpp:131] Top shape: 1 256 7 7 (12544)
I0809 19:01:00.072613  6202 net.cpp:139] Memory required for data: 10938368
I0809 19:01:00.072705  6202 layer_factory.hpp:77] Creating layer res4.1.conv1/bn
I0809 19:01:00.072773  6202 net.cpp:86] Creating Layer res4.1.conv1/bn
I0809 19:01:00.072873  6202 net.cpp:408] res4.1.conv1/bn <- res4.1.conv1
I0809 19:01:00.072926  6202 net.cpp:382] res4.1.conv1/bn -> res4.1.conv1/bn
I0809 19:01:00.074082  6202 net.cpp:124] Setting up res4.1.conv1/bn
I0809 19:01:00.074213  6202 net.cpp:131] Top shape: 1 256 7 7 (12544)
I0809 19:01:00.074259  6202 net.cpp:139] Memory required for data: 10988544
I0809 19:01:00.074313  6202 layer_factory.hpp:77] Creating layer res4.1.conv1/scale
I0809 19:01:00.074379  6202 net.cpp:86] Creating Layer res4.1.conv1/scale
I0809 19:01:00.074419  6202 net.cpp:408] res4.1.conv1/scale <- res4.1.conv1/bn
I0809 19:01:00.074458  6202 net.cpp:369] res4.1.conv1/scale -> res4.1.conv1/bn (in-place)
I0809 19:01:00.074702  6202 layer_factory.hpp:77] Creating layer res4.1.conv1/scale
I0809 19:01:00.075237  6202 net.cpp:124] Setting up res4.1.conv1/scale
I0809 19:01:00.075278  6202 net.cpp:131] Top shape: 1 256 7 7 (12544)
I0809 19:01:00.075314  6202 net.cpp:139] Memory required for data: 11038720
I0809 19:01:00.075393  6202 layer_factory.hpp:77] Creating layer res4.1.conv1/relu
I0809 19:01:00.075433  6202 net.cpp:86] Creating Layer res4.1.conv1/relu
I0809 19:01:00.075462  6202 net.cpp:408] res4.1.conv1/relu <- res4.1.conv1/bn
I0809 19:01:00.075495  6202 net.cpp:369] res4.1.conv1/relu -> res4.1.conv1/bn (in-place)
I0809 19:01:00.077657  6202 net.cpp:124] Setting up res4.1.conv1/relu
I0809 19:01:00.078321  6202 net.cpp:131] Top shape: 1 256 7 7 (12544)
I0809 19:01:00.078459  6202 net.cpp:139] Memory required for data: 11088896
I0809 19:01:00.078503  6202 layer_factory.hpp:77] Creating layer res4.1.conv2
I0809 19:01:00.078581  6202 net.cpp:86] Creating Layer res4.1.conv2
I0809 19:01:00.078627  6202 net.cpp:408] res4.1.conv2 <- res4.1.conv1/bn
I0809 19:01:00.078678  6202 net.cpp:382] res4.1.conv2 -> res4.1.conv2
I0809 19:01:00.124699  5905 uart_configuration.cpp:127] current Speed is:0
I0809 19:01:00.129812  6202 net.cpp:124] Setting up res4.1.conv2
I0809 19:01:00.131114  6202 net.cpp:131] Top shape: 1 256 7 7 (12544)
I0809 19:01:00.131239  6202 net.cpp:139] Memory required for data: 11139072
I0809 19:01:00.131297  6202 layer_factory.hpp:77] Creating layer res4.1.conv2/bn
I0809 19:01:00.131371  6202 net.cpp:86] Creating Layer res4.1.conv2/bn
I0809 19:01:00.131412  6202 net.cpp:408] res4.1.conv2/bn <- res4.1.conv2
I0809 19:01:00.131455  6202 net.cpp:382] res4.1.conv2/bn -> res4.1.conv2/bn
I0809 19:01:00.132905  6202 net.cpp:124] Setting up res4.1.conv2/bn
I0809 19:01:00.132989  6202 net.cpp:131] Top shape: 1 256 7 7 (12544)
I0809 19:01:00.133038  6202 net.cpp:139] Memory required for data: 11189248
I0809 19:01:00.133093  6202 layer_factory.hpp:77] Creating layer res4.1.conv2/scale
I0809 19:01:00.133147  6202 net.cpp:86] Creating Layer res4.1.conv2/scale
I0809 19:01:00.133185  6202 net.cpp:408] res4.1.conv2/scale <- res4.1.conv2/bn
I0809 19:01:00.135831  6202 net.cpp:369] res4.1.conv2/scale -> res4.1.conv2/bn (in-place)
I0809 19:01:00.136546  6202 layer_factory.hpp:77] Creating layer res4.1.conv2/scale
I0809 19:01:00.137383  6202 net.cpp:124] Setting up res4.1.conv2/scale
I0809 19:01:00.137452  6202 net.cpp:131] Top shape: 1 256 7 7 (12544)
I0809 19:01:00.137501  6202 net.cpp:139] Memory required for data: 11239424
I0809 19:01:00.137567  6202 layer_factory.hpp:77] Creating layer res4.1.skipConv
I0809 19:01:00.137622  6202 net.cpp:86] Creating Layer res4.1.skipConv
I0809 19:01:00.137661  6202 net.cpp:408] res4.1.skipConv <- res3.2.sum_res3.2.relu_0_split_1
I0809 19:01:00.137706  6202 net.cpp:382] res4.1.skipConv -> res4.1.skipConv
I0809 19:01:00.149338  6202 net.cpp:124] Setting up res4.1.skipConv
I0809 19:01:00.149472  6202 net.cpp:131] Top shape: 1 256 7 7 (12544)
I0809 19:01:00.149528  6202 net.cpp:139] Memory required for data: 11289600
I0809 19:01:00.149580  6202 layer_factory.hpp:77] Creating layer res4.1.skipConv/bn
I0809 19:01:00.149782  6202 net.cpp:86] Creating Layer res4.1.skipConv/bn
I0809 19:01:00.149847  6202 net.cpp:408] res4.1.skipConv/bn <- res4.1.skipConv
I0809 19:01:00.149929  6202 net.cpp:382] res4.1.skipConv/bn -> res4.1.skipConv/bn
I0809 19:01:00.151268  6202 net.cpp:124] Setting up res4.1.skipConv/bn
I0809 19:01:00.151402  6202 net.cpp:131] Top shape: 1 256 7 7 (12544)
I0809 19:01:00.151460  6202 net.cpp:139] Memory required for data: 11339776
I0809 19:01:00.151548  6202 layer_factory.hpp:77] Creating layer res4.1.skipConv/scale
I0809 19:01:00.151628  6202 net.cpp:86] Creating Layer res4.1.skipConv/scale
I0809 19:01:00.151670  6202 net.cpp:408] res4.1.skipConv/scale <- res4.1.skipConv/bn
I0809 19:01:00.151732  6202 net.cpp:369] res4.1.skipConv/scale -> res4.1.skipConv/bn (in-place)
I0809 19:01:00.152060  6202 layer_factory.hpp:77] Creating layer res4.1.skipConv/scale
I0809 19:01:00.152937  6202 net.cpp:124] Setting up res4.1.skipConv/scale
I0809 19:01:00.153043  6202 net.cpp:131] Top shape: 1 256 7 7 (12544)
I0809 19:01:00.153098  6202 net.cpp:139] Memory required for data: 11389952
I0809 19:01:00.153159  6202 layer_factory.hpp:77] Creating layer res4.1.sum
I0809 19:01:00.153218  6202 net.cpp:86] Creating Layer res4.1.sum
I0809 19:01:00.153264  6202 net.cpp:408] res4.1.sum <- res4.1.conv2/bn
I0809 19:01:00.153313  6202 net.cpp:408] res4.1.sum <- res4.1.skipConv/bn
I0809 19:01:00.153393  6202 net.cpp:382] res4.1.sum -> res4.1.sum
I0809 19:01:00.153674  6202 net.cpp:124] Setting up res4.1.sum
I0809 19:01:00.153751  6202 net.cpp:131] Top shape: 1 256 7 7 (12544)
I0809 19:01:00.153806  6202 net.cpp:139] Memory required for data: 11440128
I0809 19:01:00.153844  6202 layer_factory.hpp:77] Creating layer res4.1.relu
I0809 19:01:00.153893  6202 net.cpp:86] Creating Layer res4.1.relu
I0809 19:01:00.153934  6202 net.cpp:408] res4.1.relu <- res4.1.sum
I0809 19:01:00.153975  6202 net.cpp:369] res4.1.relu -> res4.1.sum (in-place)
I0809 19:01:00.159250  6202 net.cpp:124] Setting up res4.1.relu
I0809 19:01:00.159382  6202 net.cpp:131] Top shape: 1 256 7 7 (12544)
I0809 19:01:00.159436  6202 net.cpp:139] Memory required for data: 11490304
I0809 19:01:00.159471  6202 layer_factory.hpp:77] Creating layer res4.1.sum_res4.1.relu_0_split
I0809 19:01:00.159538  6202 net.cpp:86] Creating Layer res4.1.sum_res4.1.relu_0_split
I0809 19:01:00.159577  6202 net.cpp:408] res4.1.sum_res4.1.relu_0_split <- res4.1.sum
I0809 19:01:00.159624  6202 net.cpp:382] res4.1.sum_res4.1.relu_0_split -> res4.1.sum_res4.1.relu_0_split_0
I0809 19:01:00.159672  6202 net.cpp:382] res4.1.sum_res4.1.relu_0_split -> res4.1.sum_res4.1.relu_0_split_1
I0809 19:01:00.159973  6202 net.cpp:124] Setting up res4.1.sum_res4.1.relu_0_split
I0809 19:01:00.160027  6202 net.cpp:131] Top shape: 1 256 7 7 (12544)
I0809 19:01:00.160070  6202 net.cpp:131] Top shape: 1 256 7 7 (12544)
I0809 19:01:00.160110  6202 net.cpp:139] Memory required for data: 11590656
I0809 19:01:00.160187  6202 layer_factory.hpp:77] Creating layer res4.2.conv1
I0809 19:01:00.160274  6202 net.cpp:86] Creating Layer res4.2.conv1
I0809 19:01:00.160317  6202 net.cpp:408] res4.2.conv1 <- res4.1.sum_res4.1.relu_0_split_0
I0809 19:01:00.160375  6202 net.cpp:382] res4.2.conv1 -> res4.2.conv1
I0809 19:01:00.209372  6202 net.cpp:124] Setting up res4.2.conv1
I0809 19:01:00.209551  6202 net.cpp:131] Top shape: 1 256 7 7 (12544)
I0809 19:01:00.209622  6202 net.cpp:139] Memory required for data: 11640832
I0809 19:01:00.209686  6202 layer_factory.hpp:77] Creating layer res4.2.conv1/bn
I0809 19:01:00.209774  6202 net.cpp:86] Creating Layer res4.2.conv1/bn
I0809 19:01:00.209810  6202 net.cpp:408] res4.2.conv1/bn <- res4.2.conv1
I0809 19:01:00.209848  6202 net.cpp:382] res4.2.conv1/bn -> res4.2.conv1/bn
I0809 19:01:00.210973  6202 net.cpp:124] Setting up res4.2.conv1/bn
I0809 19:01:00.211051  6202 net.cpp:131] Top shape: 1 256 7 7 (12544)
I0809 19:01:00.211088  6202 net.cpp:139] Memory required for data: 11691008
I0809 19:01:00.211170  6202 layer_factory.hpp:77] Creating layer res4.2.conv1/scale
I0809 19:01:00.211217  6202 net.cpp:86] Creating Layer res4.2.conv1/scale
I0809 19:01:00.211338  6202 net.cpp:408] res4.2.conv1/scale <- res4.2.conv1/bn
I0809 19:01:00.211410  6202 net.cpp:369] res4.2.conv1/scale -> res4.2.conv1/bn (in-place)
I0809 19:01:00.211642  6202 layer_factory.hpp:77] Creating layer res4.2.conv1/scale
I0809 19:01:00.212203  6202 net.cpp:124] Setting up res4.2.conv1/scale
I0809 19:01:00.212265  6202 net.cpp:131] Top shape: 1 256 7 7 (12544)
I0809 19:01:00.212304  6202 net.cpp:139] Memory required for data: 11741184
I0809 19:01:00.212345  6202 layer_factory.hpp:77] Creating layer res4.2.conv1/relu
I0809 19:01:00.212404  6202 net.cpp:86] Creating Layer res4.2.conv1/relu
I0809 19:01:00.212436  6202 net.cpp:408] res4.2.conv1/relu <- res4.2.conv1/bn
I0809 19:01:00.212471  6202 net.cpp:369] res4.2.conv1/relu -> res4.2.conv1/bn (in-place)
I0809 19:01:00.216075  6202 net.cpp:124] Setting up res4.2.conv1/relu
I0809 19:01:00.216241  6202 net.cpp:131] Top shape: 1 256 7 7 (12544)
I0809 19:01:00.216302  6202 net.cpp:139] Memory required for data: 11791360
I0809 19:01:00.216341  6202 layer_factory.hpp:77] Creating layer res4.2.conv2
I0809 19:01:00.216430  6202 net.cpp:86] Creating Layer res4.2.conv2
I0809 19:01:00.216480  6202 net.cpp:408] res4.2.conv2 <- res4.2.conv1/bn
I0809 19:01:00.216528  6202 net.cpp:382] res4.2.conv2 -> res4.2.conv2
I0809 19:01:00.267331  6202 net.cpp:124] Setting up res4.2.conv2
I0809 19:01:00.267459  6202 net.cpp:131] Top shape: 1 256 7 7 (12544)
I0809 19:01:00.267513  6202 net.cpp:139] Memory required for data: 11841536
I0809 19:01:00.267565  6202 layer_factory.hpp:77] Creating layer res4.2.conv2/bn
I0809 19:01:00.267624  6202 net.cpp:86] Creating Layer res4.2.conv2/bn
I0809 19:01:00.267663  6202 net.cpp:408] res4.2.conv2/bn <- res4.2.conv2
I0809 19:01:00.267701  6202 net.cpp:382] res4.2.conv2/bn -> res4.2.conv2/bn
I0809 19:01:00.268940  6202 net.cpp:124] Setting up res4.2.conv2/bn
I0809 19:01:00.269032  6202 net.cpp:131] Top shape: 1 256 7 7 (12544)
I0809 19:01:00.269074  6202 net.cpp:139] Memory required for data: 11891712
I0809 19:01:00.269122  6202 layer_factory.hpp:77] Creating layer res4.2.conv2/scale
I0809 19:01:00.269174  6202 net.cpp:86] Creating Layer res4.2.conv2/scale
I0809 19:01:00.269207  6202 net.cpp:408] res4.2.conv2/scale <- res4.2.conv2/bn
I0809 19:01:00.269244  6202 net.cpp:369] res4.2.conv2/scale -> res4.2.conv2/bn (in-place)
I0809 19:01:00.269474  6202 layer_factory.hpp:77] Creating layer res4.2.conv2/scale
I0809 19:01:00.270026  6202 net.cpp:124] Setting up res4.2.conv2/scale
I0809 19:01:00.270071  6202 net.cpp:131] Top shape: 1 256 7 7 (12544)
I0809 19:01:00.270107  6202 net.cpp:139] Memory required for data: 11941888
I0809 19:01:00.270155  6202 layer_factory.hpp:77] Creating layer res4.2.sum
I0809 19:01:00.270195  6202 net.cpp:86] Creating Layer res4.2.sum
I0809 19:01:00.270225  6202 net.cpp:408] res4.2.sum <- res4.2.conv2/bn
I0809 19:01:00.270256  6202 net.cpp:408] res4.2.sum <- res4.1.sum_res4.1.relu_0_split_1
I0809 19:01:00.270289  6202 net.cpp:382] res4.2.sum -> res4.2.sum
I0809 19:01:00.270416  6202 net.cpp:124] Setting up res4.2.sum
I0809 19:01:00.270447  6202 net.cpp:131] Top shape: 1 256 7 7 (12544)
I0809 19:01:00.270478  6202 net.cpp:139] Memory required for data: 11992064
I0809 19:01:00.270504  6202 layer_factory.hpp:77] Creating layer res4.2.relu
I0809 19:01:00.270537  6202 net.cpp:86] Creating Layer res4.2.relu
I0809 19:01:00.270565  6202 net.cpp:408] res4.2.relu <- res4.2.sum
I0809 19:01:00.270596  6202 net.cpp:369] res4.2.relu -> res4.2.sum (in-place)
I0809 19:01:00.272716  6202 net.cpp:124] Setting up res4.2.relu
I0809 19:01:00.272780  6202 net.cpp:131] Top shape: 1 256 7 7 (12544)
I0809 19:01:00.272819  6202 net.cpp:139] Memory required for data: 12042240
I0809 19:01:00.272847  6202 layer_factory.hpp:77] Creating layer res4.2.sum_res4.2.relu_0_split
I0809 19:01:00.272895  6202 net.cpp:86] Creating Layer res4.2.sum_res4.2.relu_0_split
I0809 19:01:00.272927  6202 net.cpp:408] res4.2.sum_res4.2.relu_0_split <- res4.2.sum
I0809 19:01:00.272967  6202 net.cpp:382] res4.2.sum_res4.2.relu_0_split -> res4.2.sum_res4.2.relu_0_split_0
I0809 19:01:00.273102  6202 net.cpp:382] res4.2.sum_res4.2.relu_0_split -> res4.2.sum_res4.2.relu_0_split_1
I0809 19:01:00.273386  6202 net.cpp:124] Setting up res4.2.sum_res4.2.relu_0_split
I0809 19:01:00.273434  6202 net.cpp:131] Top shape: 1 256 7 7 (12544)
I0809 19:01:00.273473  6202 net.cpp:131] Top shape: 1 256 7 7 (12544)
I0809 19:01:00.273504  6202 net.cpp:139] Memory required for data: 12142592
I0809 19:01:00.273535  6202 layer_factory.hpp:77] Creating layer res5.1.conv1
I0809 19:01:00.273587  6202 net.cpp:86] Creating Layer res5.1.conv1
I0809 19:01:00.273622  6202 net.cpp:408] res5.1.conv1 <- res4.2.sum_res4.2.relu_0_split_0
I0809 19:01:00.273661  6202 net.cpp:382] res5.1.conv1 -> res5.1.conv1
I0809 19:01:00.322317  6202 net.cpp:124] Setting up res5.1.conv1
I0809 19:01:00.322465  6202 net.cpp:131] Top shape: 1 512 4 4 (8192)
I0809 19:01:00.322521  6202 net.cpp:139] Memory required for data: 12175360
I0809 19:01:00.322569  6202 layer_factory.hpp:77] Creating layer res5.1.conv1/bn
I0809 19:01:00.322630  6202 net.cpp:86] Creating Layer res5.1.conv1/bn
I0809 19:01:00.322669  6202 net.cpp:408] res5.1.conv1/bn <- res5.1.conv1
I0809 19:01:00.322710  6202 net.cpp:382] res5.1.conv1/bn -> res5.1.conv1/bn
I0809 19:01:00.324033  6202 net.cpp:124] Setting up res5.1.conv1/bn
I0809 19:01:00.324108  6202 net.cpp:131] Top shape: 1 512 4 4 (8192)
I0809 19:01:00.324190  6202 net.cpp:139] Memory required for data: 12208128
I0809 19:01:00.324338  6202 layer_factory.hpp:77] Creating layer res5.1.conv1/scale
I0809 19:01:00.324472  6202 net.cpp:86] Creating Layer res5.1.conv1/scale
I0809 19:01:00.324560  6202 net.cpp:408] res5.1.conv1/scale <- res5.1.conv1/bn
I0809 19:01:00.324672  6202 net.cpp:369] res5.1.conv1/scale -> res5.1.conv1/bn (in-place)
I0809 19:01:00.324968  6202 layer_factory.hpp:77] Creating layer res5.1.conv1/scale
I0809 19:01:00.325590  6202 net.cpp:124] Setting up res5.1.conv1/scale
I0809 19:01:00.325639  6202 net.cpp:131] Top shape: 1 512 4 4 (8192)
I0809 19:01:00.325680  6202 net.cpp:139] Memory required for data: 12240896
I0809 19:01:00.325734  6202 layer_factory.hpp:77] Creating layer res5.1.conv1/relu
I0809 19:01:00.325783  6202 net.cpp:86] Creating Layer res5.1.conv1/relu
I0809 19:01:00.325817  6202 net.cpp:408] res5.1.conv1/relu <- res5.1.conv1/bn
I0809 19:01:00.325855  6202 net.cpp:369] res5.1.conv1/relu -> res5.1.conv1/bn (in-place)
I0809 19:01:00.330838  6202 net.cpp:124] Setting up res5.1.conv1/relu
I0809 19:01:00.330926  6202 net.cpp:131] Top shape: 1 512 4 4 (8192)
I0809 19:01:00.330977  6202 net.cpp:139] Memory required for data: 12273664
I0809 19:01:00.331012  6202 layer_factory.hpp:77] Creating layer res5.1.conv2
I0809 19:01:00.331107  6202 net.cpp:86] Creating Layer res5.1.conv2
I0809 19:01:00.331152  6202 net.cpp:408] res5.1.conv2 <- res5.1.conv1/bn
I0809 19:01:00.331200  6202 net.cpp:382] res5.1.conv2 -> res5.1.conv2
I0809 19:01:00.411906  6202 net.cpp:124] Setting up res5.1.conv2
I0809 19:01:00.411990  6202 net.cpp:131] Top shape: 1 512 4 4 (8192)
I0809 19:01:00.412034  6202 net.cpp:139] Memory required for data: 12306432
I0809 19:01:00.412077  6202 layer_factory.hpp:77] Creating layer res5.1.conv2/bn
I0809 19:01:00.412128  6202 net.cpp:86] Creating Layer res5.1.conv2/bn
I0809 19:01:00.412163  6202 net.cpp:408] res5.1.conv2/bn <- res5.1.conv2
I0809 19:01:00.412201  6202 net.cpp:382] res5.1.conv2/bn -> res5.1.conv2/bn
I0809 19:01:00.413317  6202 net.cpp:124] Setting up res5.1.conv2/bn
I0809 19:01:00.413367  6202 net.cpp:131] Top shape: 1 512 4 4 (8192)
I0809 19:01:00.413401  6202 net.cpp:139] Memory required for data: 12339200
I0809 19:01:00.413444  6202 layer_factory.hpp:77] Creating layer res5.1.conv2/scale
I0809 19:01:00.413487  6202 net.cpp:86] Creating Layer res5.1.conv2/scale
I0809 19:01:00.413517  6202 net.cpp:408] res5.1.conv2/scale <- res5.1.conv2/bn
I0809 19:01:00.413552  6202 net.cpp:369] res5.1.conv2/scale -> res5.1.conv2/bn (in-place)
I0809 19:01:00.413720  6202 layer_factory.hpp:77] Creating layer res5.1.conv2/scale
I0809 19:01:00.414420  6202 net.cpp:124] Setting up res5.1.conv2/scale
I0809 19:01:00.414470  6202 net.cpp:131] Top shape: 1 512 4 4 (8192)
I0809 19:01:00.414507  6202 net.cpp:139] Memory required for data: 12371968
I0809 19:01:00.414558  6202 layer_factory.hpp:77] Creating layer res5.1.skipConv
I0809 19:01:00.414608  6202 net.cpp:86] Creating Layer res5.1.skipConv
I0809 19:01:00.414640  6202 net.cpp:408] res5.1.skipConv <- res4.2.sum_res4.2.relu_0_split_1
I0809 19:01:00.414678  6202 net.cpp:382] res5.1.skipConv -> res5.1.skipConv
I0809 19:01:00.429435  6202 net.cpp:124] Setting up res5.1.skipConv
I0809 19:01:00.429775  6202 net.cpp:131] Top shape: 1 512 4 4 (8192)
I0809 19:01:00.429843  6202 net.cpp:139] Memory required for data: 12404736
I0809 19:01:00.429898  6202 layer_factory.hpp:77] Creating layer res5.1.skipConv/bn
I0809 19:01:00.429971  6202 net.cpp:86] Creating Layer res5.1.skipConv/bn
I0809 19:01:00.430018  6202 net.cpp:408] res5.1.skipConv/bn <- res5.1.skipConv
I0809 19:01:00.430069  6202 net.cpp:382] res5.1.skipConv/bn -> res5.1.skipConv/bn
I0809 19:01:00.431471  6202 net.cpp:124] Setting up res5.1.skipConv/bn
I0809 19:01:00.431555  6202 net.cpp:131] Top shape: 1 512 4 4 (8192)
I0809 19:01:00.431605  6202 net.cpp:139] Memory required for data: 12437504
I0809 19:01:00.431664  6202 layer_factory.hpp:77] Creating layer res5.1.skipConv/scale
I0809 19:01:00.431720  6202 net.cpp:86] Creating Layer res5.1.skipConv/scale
I0809 19:01:00.431758  6202 net.cpp:408] res5.1.skipConv/scale <- res5.1.skipConv/bn
I0809 19:01:00.431838  6202 net.cpp:369] res5.1.skipConv/scale -> res5.1.skipConv/bn (in-place)
I0809 19:01:00.432154  6202 layer_factory.hpp:77] Creating layer res5.1.skipConv/scale
I0809 19:01:00.433044  6202 net.cpp:124] Setting up res5.1.skipConv/scale
I0809 19:01:00.433115  6202 net.cpp:131] Top shape: 1 512 4 4 (8192)
I0809 19:01:00.433158  6202 net.cpp:139] Memory required for data: 12470272
I0809 19:01:00.433210  6202 layer_factory.hpp:77] Creating layer res5.1.sum
I0809 19:01:00.433262  6202 net.cpp:86] Creating Layer res5.1.sum
I0809 19:01:00.433303  6202 net.cpp:408] res5.1.sum <- res5.1.conv2/bn
I0809 19:01:00.433343  6202 net.cpp:408] res5.1.sum <- res5.1.skipConv/bn
I0809 19:01:00.433384  6202 net.cpp:382] res5.1.sum -> res5.1.sum
I0809 19:01:00.433588  6202 net.cpp:124] Setting up res5.1.sum
I0809 19:01:00.433646  6202 net.cpp:131] Top shape: 1 512 4 4 (8192)
I0809 19:01:00.433688  6202 net.cpp:139] Memory required for data: 12503040
I0809 19:01:00.433722  6202 layer_factory.hpp:77] Creating layer res5.1.relu
I0809 19:01:00.433768  6202 net.cpp:86] Creating Layer res5.1.relu
I0809 19:01:00.433802  6202 net.cpp:408] res5.1.relu <- res5.1.sum
I0809 19:01:00.433845  6202 net.cpp:369] res5.1.relu -> res5.1.sum (in-place)
I0809 19:01:00.438365  6202 net.cpp:124] Setting up res5.1.relu
I0809 19:01:00.438571  6202 net.cpp:131] Top shape: 1 512 4 4 (8192)
I0809 19:01:00.438663  6202 net.cpp:139] Memory required for data: 12535808
I0809 19:01:00.438707  6202 layer_factory.hpp:77] Creating layer res5.1.sum_res5.1.relu_0_split
I0809 19:01:00.438812  6202 net.cpp:86] Creating Layer res5.1.sum_res5.1.relu_0_split
I0809 19:01:00.438884  6202 net.cpp:408] res5.1.sum_res5.1.relu_0_split <- res5.1.sum
I0809 19:01:00.438952  6202 net.cpp:382] res5.1.sum_res5.1.relu_0_split -> res5.1.sum_res5.1.relu_0_split_0
I0809 19:01:00.439007  6202 net.cpp:382] res5.1.sum_res5.1.relu_0_split -> res5.1.sum_res5.1.relu_0_split_1
I0809 19:01:00.439399  6202 net.cpp:124] Setting up res5.1.sum_res5.1.relu_0_split
I0809 19:01:00.439465  6202 net.cpp:131] Top shape: 1 512 4 4 (8192)
I0809 19:01:00.439513  6202 net.cpp:131] Top shape: 1 512 4 4 (8192)
I0809 19:01:00.439549  6202 net.cpp:139] Memory required for data: 12601344
I0809 19:01:00.439579  6202 layer_factory.hpp:77] Creating layer res5.2.conv1
I0809 19:01:00.439642  6202 net.cpp:86] Creating Layer res5.2.conv1
I0809 19:01:00.439682  6202 net.cpp:408] res5.2.conv1 <- res5.1.sum_res5.1.relu_0_split_0
I0809 19:01:00.439728  6202 net.cpp:382] res5.2.conv1 -> res5.2.conv1
I0809 19:01:00.521719  6202 net.cpp:124] Setting up res5.2.conv1
I0809 19:01:00.523023  6202 net.cpp:131] Top shape: 1 512 4 4 (8192)
I0809 19:01:00.523090  6202 net.cpp:139] Memory required for data: 12634112
I0809 19:01:00.523144  6202 layer_factory.hpp:77] Creating layer res5.2.conv1/bn
I0809 19:01:00.522284  5905 uart_configuration.cpp:127] current Speed is:0
I0809 19:01:00.523247  6202 net.cpp:86] Creating Layer res5.2.conv1/bn
I0809 19:01:00.523313  6202 net.cpp:408] res5.2.conv1/bn <- res5.2.conv1
I0809 19:01:00.523356  6202 net.cpp:382] res5.2.conv1/bn -> res5.2.conv1/bn
I0809 19:01:00.524749  6202 net.cpp:124] Setting up res5.2.conv1/bn
I0809 19:01:00.524817  6202 net.cpp:131] Top shape: 1 512 4 4 (8192)
I0809 19:01:00.524857  6202 net.cpp:139] Memory required for data: 12666880
I0809 19:01:00.524907  6202 layer_factory.hpp:77] Creating layer res5.2.conv1/scale
I0809 19:01:00.524968  6202 net.cpp:86] Creating Layer res5.2.conv1/scale
I0809 19:01:00.525002  6202 net.cpp:408] res5.2.conv1/scale <- res5.2.conv1/bn
I0809 19:01:00.525038  6202 net.cpp:369] res5.2.conv1/scale -> res5.2.conv1/bn (in-place)
I0809 19:01:00.525231  6202 layer_factory.hpp:77] Creating layer res5.2.conv1/scale
I0809 19:01:00.525993  6202 net.cpp:124] Setting up res5.2.conv1/scale
I0809 19:01:00.526075  6202 net.cpp:131] Top shape: 1 512 4 4 (8192)
I0809 19:01:00.526115  6202 net.cpp:139] Memory required for data: 12699648
I0809 19:01:00.526245  6202 layer_factory.hpp:77] Creating layer res5.2.conv1/relu
I0809 19:01:00.526288  6202 net.cpp:86] Creating Layer res5.2.conv1/relu
I0809 19:01:00.526317  6202 net.cpp:408] res5.2.conv1/relu <- res5.2.conv1/bn
I0809 19:01:00.526352  6202 net.cpp:369] res5.2.conv1/relu -> res5.2.conv1/bn (in-place)
I0809 19:01:00.528970  6202 net.cpp:124] Setting up res5.2.conv1/relu
I0809 19:01:00.529116  6202 net.cpp:131] Top shape: 1 512 4 4 (8192)
I0809 19:01:00.529177  6202 net.cpp:139] Memory required for data: 12732416
I0809 19:01:00.529212  6202 layer_factory.hpp:77] Creating layer res5.2.conv2
I0809 19:01:00.529273  6202 net.cpp:86] Creating Layer res5.2.conv2
I0809 19:01:00.529317  6202 net.cpp:408] res5.2.conv2 <- res5.2.conv1/bn
I0809 19:01:00.529384  6202 net.cpp:382] res5.2.conv2 -> res5.2.conv2
I0809 19:01:00.616128  6202 net.cpp:124] Setting up res5.2.conv2
I0809 19:01:00.616255  6202 net.cpp:131] Top shape: 1 512 4 4 (8192)
I0809 19:01:00.616303  6202 net.cpp:139] Memory required for data: 12765184
I0809 19:01:00.616348  6202 layer_factory.hpp:77] Creating layer res5.2.conv2/bn
I0809 19:01:00.616405  6202 net.cpp:86] Creating Layer res5.2.conv2/bn
I0809 19:01:00.616439  6202 net.cpp:408] res5.2.conv2/bn <- res5.2.conv2
I0809 19:01:00.616479  6202 net.cpp:382] res5.2.conv2/bn -> res5.2.conv2/bn
I0809 19:01:00.617694  6202 net.cpp:124] Setting up res5.2.conv2/bn
I0809 19:01:00.617748  6202 net.cpp:131] Top shape: 1 512 4 4 (8192)
I0809 19:01:00.617784  6202 net.cpp:139] Memory required for data: 12797952
I0809 19:01:00.617835  6202 layer_factory.hpp:77] Creating layer res5.2.conv2/scale
I0809 19:01:00.617882  6202 net.cpp:86] Creating Layer res5.2.conv2/scale
I0809 19:01:00.617913  6202 net.cpp:408] res5.2.conv2/scale <- res5.2.conv2/bn
I0809 19:01:00.617949  6202 net.cpp:369] res5.2.conv2/scale -> res5.2.conv2/bn (in-place)
I0809 19:01:00.618122  6202 layer_factory.hpp:77] Creating layer res5.2.conv2/scale
I0809 19:01:00.618690  6202 net.cpp:124] Setting up res5.2.conv2/scale
I0809 19:01:00.618726  6202 net.cpp:131] Top shape: 1 512 4 4 (8192)
I0809 19:01:00.618759  6202 net.cpp:139] Memory required for data: 12830720
I0809 19:01:00.618798  6202 layer_factory.hpp:77] Creating layer res5.2.sum
I0809 19:01:00.618832  6202 net.cpp:86] Creating Layer res5.2.sum
I0809 19:01:00.618860  6202 net.cpp:408] res5.2.sum <- res5.2.conv2/bn
I0809 19:01:00.618891  6202 net.cpp:408] res5.2.sum <- res5.1.sum_res5.1.relu_0_split_1
I0809 19:01:00.618922  6202 net.cpp:382] res5.2.sum -> res5.2.sum
I0809 19:01:00.619033  6202 net.cpp:124] Setting up res5.2.sum
I0809 19:01:00.619063  6202 net.cpp:131] Top shape: 1 512 4 4 (8192)
I0809 19:01:00.619094  6202 net.cpp:139] Memory required for data: 12863488
I0809 19:01:00.619356  6202 layer_factory.hpp:77] Creating layer res5.2.relu
I0809 19:01:00.619407  6202 net.cpp:86] Creating Layer res5.2.relu
I0809 19:01:00.619437  6202 net.cpp:408] res5.2.relu <- res5.2.sum
I0809 19:01:00.619473  6202 net.cpp:369] res5.2.relu -> res5.2.sum (in-place)
I0809 19:01:00.622817  6202 net.cpp:124] Setting up res5.2.relu
I0809 19:01:00.622901  6202 net.cpp:131] Top shape: 1 512 4 4 (8192)
I0809 19:01:00.622943  6202 net.cpp:139] Memory required for data: 12896256
I0809 19:01:00.622973  6202 layer_factory.hpp:77] Creating layer pool2
I0809 19:01:00.623023  6202 net.cpp:86] Creating Layer pool2
I0809 19:01:00.623056  6202 net.cpp:408] pool2 <- res5.2.sum
I0809 19:01:00.623095  6202 net.cpp:382] pool2 -> pool2
I0809 19:01:00.625360  6202 net.cpp:124] Setting up pool2
I0809 19:01:00.625427  6202 net.cpp:131] Top shape: 1 512 1 1 (512)
I0809 19:01:00.625461  6202 net.cpp:139] Memory required for data: 12898304
I0809 19:01:00.625490  6202 layer_factory.hpp:77] Creating layer fc
I0809 19:01:00.625533  6202 net.cpp:86] Creating Layer fc
I0809 19:01:00.625564  6202 net.cpp:408] fc <- pool2
I0809 19:01:00.625603  6202 net.cpp:382] fc -> fc
I0809 19:01:00.626178  6202 net.cpp:124] Setting up fc
I0809 19:01:00.626215  6202 net.cpp:131] Top shape: 1 2 (2)
I0809 19:01:00.626245  6202 net.cpp:139] Memory required for data: 12898312
I0809 19:01:00.626284  6202 layer_factory.hpp:77] Creating layer prob
I0809 19:01:00.626317  6202 net.cpp:86] Creating Layer prob
I0809 19:01:00.626345  6202 net.cpp:408] prob <- fc
I0809 19:01:00.626377  6202 net.cpp:382] prob -> prob
I0809 19:01:00.630223  6202 net.cpp:124] Setting up prob
I0809 19:01:00.630311  6202 net.cpp:131] Top shape: 1 2 (2)
I0809 19:01:00.630352  6202 net.cpp:139] Memory required for data: 12898320
I0809 19:01:00.630385  6202 net.cpp:202] prob does not need backward computation.
I0809 19:01:00.630429  6202 net.cpp:202] fc does not need backward computation.
I0809 19:01:00.630460  6202 net.cpp:202] pool2 does not need backward computation.
I0809 19:01:00.630487  6202 net.cpp:202] res5.2.relu does not need backward computation.
…
