…
I0809 18:56:59.624120  5278 VideoImg.cpp:128] Classify_thread create success!
I0809 18:56:59.625306  6192 VideoImg.cpp:138] ---------- Loading model sysfile ----------
I0809 18:57:00.186635  5629 uart_configuration.cpp:127] current Speed is:0
I0809 18:57:01.970654  5629 uart_configuration.cpp:127] current Speed is:0
I0809 18:57:02.635522  6192 net.cpp:53] Initializing net from parameters: 
name: "Resnet18"
state {
  phase: TEST
  level: 0
}
layer {
  name: "data"
  type: "Input"
  top: "data"
  input_param {
    shape {
      dim: 1
      dim: 3
      dim: 112
      dim: 112
    }
  }
}
layer {
  name: "conv1"
  type: "Convolution"
  bottom: "data"
  top: "conv1"
  convolution_param {
    num_output: 64
    bias_term: false
    pad: 3
    kernel_size: 7
    stride: 2
    weight_filler {
      type: "msra"
    }
  }
}
layer {
  name: "conv1/bn"
  type: "BatchNorm"
  bottom: "conv1"
  top: "conv1/bn"
  batch_norm_param {
    moving_average_fraction: 0.9
    eps: 0.0001
  }
}
layer {
  name: "conv1/scale"
  type: "Scale"
  bottom: "conv1/bn"
  top: "conv1/bn"
  param {
    lr_mult: 1
    decay_mult: 0
  }
  param {
    lr_mult: 1
    decay_mult: 0
  }
  scale_param {
    bias_term: true
  }
}
layer {
  name: "conv1/relu"
  type: "ReLU"
  bottom: "conv1/bn"
  top: "conv1/bn"
}
layer {
  name: "pool1"
  type: "Pooling"
  bottom: "conv1/bn"
  top: "pool1"
  pooling_param {
    pool: MAX
    kernel_size: 3
    stride: 2
  }
}
layer {
  name: "res2.1.conv1"
  type: "Convolution"
  bottom: "pool1"
  top: "res2.1.conv1"
  convolution_param {
    num_output: 64
    bias_term: false
    pad: 1
    kernel_size: 3
    weight_filler {
      type: "msra"
    }
  }
}
layer {
  name: "res2.1.conv1/bn"
  type: "BatchNorm"
  bottom: "res2.1.conv1"
  top: "res2.1.conv1/bn"
  batch_norm_param {
    moving_average_fraction: 0.9
    eps: 0.0001
  }
}
layer {
  name: "res2.1.conv1/scale"
  type: "Scale"
  bottom: "res2.1.conv1/bn"
  top: "res2.1.conv1/bn"
  param {
    lr_mult: 1
    decay_mult: 0
  }
  param {
    lr_mult: 1
    decay_mult: 0
  }
  scale_param {
    bias_term: true
  }
}
layer {
  name: "res2.1.conv1/relu"
  type: "ReLU"
  bottom: "res2.1.conv1/bn"
  top: "res2.1.conv1/bn"
}
layer {
  name: "res2.1.conv2"
  type: "Convolution"
  bottom: "res2.1.conv1/bn"
  top: "res2.1.conv2"
  convolution_param {
    num_output: 64
    bias_term: false
    pad: 1
    kernel_size: 3
    weight_filler {
      type: "msra"
    }
  }
}
layer {
  name: "res2.1.conv2/bn"
  type: "BatchNorm"
  bottom: "res2.1.conv2"
  top: "res2.1.conv2/bn"
  batch_norm_param {
    moving_average_fraction: 0.9
    eps: 0.0001
  }
}
layer {
  name: "res2.1.conv2/scale"
  type: "Scale"
  bottom: "res2.1.conv2/bn"
  top: "res2.1.conv2/bn"
  param {
    lr_mult: 1
    decay_mult: 0
  }
  param {
    lr_mult: 1
    decay_mult: 0
  }
  scale_param {
    bias_term: true
  }
}
layer {
  name: "res2.1.sum"
  type: "Eltwise"
  bottom: "res2.1.conv2/bn"
  bottom: "pool1"
  top: "res2.1.sum"
  eltwise_param {
    operation: SUM
  }
}
layer {
  name: "res2.1.relu"
  type: "ReLU"
  bottom: "res2.1.sum"
  top: "res2.1.sum"
}
layer {
  name: "res2.2.conv1"
  type: "Convolution"
  bottom: "res2.1.sum"
  top: "res2.2.conv1"
  convolution_param {
    num_output: 64
    bias_term: false
    pad: 1
    kernel_size: 3
    weight_filler {
      type: "msra"
    }
  }
}
layer {
  name: "res2.2.conv1/bn"
  type: "BatchNorm"
  bottom: "res2.2.conv1"
  top: "res2.2.conv1/bn"
  batch_norm_param {
    moving_average_fraction: 0.9
    eps: 0.0001
  }
}
layer {
  name: "res2.2.conv1/scale"
  type: "Scale"
  bottom: "res2.2.conv1/bn"
  top: "res2.2.conv1/bn"
  param {
    lr_mult: 1
    decay_mult: 0
  }
  param {
    lr_mult: 1
    decay_mult: 0
  }
  scale_param {
    bias_term: true
  }
}
layer {
  name: "res2.2.conv1/relu"
  type: "ReLU"
  bottom: "res2.2.conv1/bn"
  top: "res2.2.conv1/bn"
}
layer {
  name: "res2.2.conv2"
  type: "Convolution"
  bottom: "res2.2.conv1/bn"
  top: "res2.2.conv2"
  convolution_param {
    num_output: 64
    bias_term: false
    pad: 1
    kernel_size: 3
    weight_filler {
      type: "msra"
    }
  }
}
layer {
  name: "res2.2.conv2/bn"
  type: "BatchNorm"
  bottom: "res2.2.conv2"
  top: "res2.2.conv2/bn"
  batch_norm_param {
    moving_average_fraction: 0.9
    eps: 0.0001
  }
}
layer {
  name: "res2.2.conv2/scale"
  type: "Scale"
  bottom: "res2.2.conv2/bn"
  top: "res2.2.conv2/bn"
  param {
    lr_mult: 1
    decay_mult: 0
  }
  param {
    lr_mult: 1
    decay_mult: 0
  }
  scale_param {
    bias_term: true
  }
}
layer {
  name: "res2.2.sum"
  type: "Eltwise"
  bottom: "res2.2.conv2/bn"
  bottom: "res2.1.sum"
  top: "res2.2.sum"
  eltwise_param {
    operation: SUM
  }
}
layer {
  name: "res2.2.relu"
  type: "ReLU"
  bottom: "res2.2.sum"
  top: "res2.2.sum"
}
layer {
  name: "res3.1.conv1"
  type: "Convolution"
  bottom: "res2.2.sum"
  top: "res3.1.conv1"
  convolution_param {
    num_output: 128
    bias_term: false
    pad: 1
    kernel_size: 3
    stride: 2
    weight_filler {
      type: "msra"
    }
  }
}
layer {
  name: "res3.1.conv1/bn"
  type: "BatchNorm"
  bottom: "res3.1.conv1"
  top: "res3.1.conv1/bn"
  batch_norm_param {
    moving_average_fraction: 0.9
    eps: 0.0001
  }
}
layer {
  name: "res3.1.conv1/scale"
  type: "Scale"
  bottom: "res3.1.conv1/bn"
  top: "res3.1.conv1/bn"
  param {
    lr_mult: 1
    decay_mult: 0
  }
  param {
    lr_mult: 1
    decay_mult: 0
  }
  scale_param {
    bias_term: true
  }
}
layer {
  name: "res3.1.conv1/relu"
  type: "ReLU"
  bottom: "res3.1.conv1/bn"
  top: "res3.1.conv1/bn"
}
layer {
  name: "res3.1.conv2"
  type: "Convolution"
  bottom: "res3.1.conv1/bn"
  top: "res3.1.conv2"
  convolution_param {
    num_output: 128
    bias_term: false
    pad: 1
    kernel_size: 3
    weight_filler {
      type: "msra"
    }
  }
}
layer {
  name: "res3.1.conv2/bn"
  type: "BatchNorm"
  bottom: "res3.1.conv2"
  top: "res3.1.conv2/bn"
  batch_norm_param {
    moving_average_fraction: 0.9
    eps: 0.0001
  }
}
layer {
  name: "res3.1.conv2/scale"
  type: "Scale"
  bottom: "res3.1.conv2/bn"
  top: "res3.1.conv2/bn"
  param {
    lr_mult: 1
    decay_mult: 0
  }
  param {
    lr_mult: 1
    decay_mult: 0
  }
  scale_param {
    bias_term: true
  }
}
layer {
  name: "res3.1.skipConv"
  type: "Convolution"
  bottom: "res2.2.sum"
  top: "res3.1.skipConv"
  convolution_param {
    num_output: 128
    bias_term: false
    kernel_size: 1
    stride: 2
    weight_filler {
      type: "msra"
    }
  }
}
layer {
  name: "res3.1.skipConv/bn"
  type: "BatchNorm"
  bottom: "res3.1.skipConv"
  top: "res3.1.skipConv/bn"
  batch_norm_param {
    moving_average_fraction: 0.9
    eps: 0.0001
  }
}
layer {
  name: "res3.1.skipConv/scale"
  type: "Scale"
  bottom: "res3.1.skipConv/bn"
  top: "res3.1.skipConv/bn"
  param {
    lr_mult: 1
    decay_mult: 0
  }
  param {
    lr_mult: 1
    decay_mult: 0
  }
  scale_param {
    bias_term: true
  }
}
layer {
  name: "res3.1.sum"
  type: "Eltwise"
  bottom: "res3.1.conv2/bn"
  bottom: "res3.1.skipConv/bn"
  top: "res3.1.sum"
  eltwise_param {
    operation: SUM
  }
}
layer {
  name: "res3.1.relu"
  type: "ReLU"
  bottom: "res3.1.sum"
  top: "res3.1.sum"
}
layer {
  name: "res3.2.conv1"
  type: "Convolution"
  bottom: "res3.1.sum"
  top: "res3.2.conv1"
  convolution_param {
    num_output: 128
    bias_term: false
    pad: 1
    kernel_size: 3
    weight_filler {
      type: "msra"
    }
  }
}
layer {
  name: "res3.2.conv1/bn"
  type: "BatchNorm"
  bottom: "res3.2.conv1"
  top: "res3.2.conv1/bn"
  batch_norm_param {
    moving_average_fraction: 0.9
    eps: 0.0001
  }
}
layer {
  name: "res3.2.conv1/scale"
  type: "Scale"
  bottom: "res3.2.conv1/bn"
  top: "res3.2.conv1/bn"
  param {
    lr_mult: 1
    decay_mult: 0
  }
  param {
    lr_mult: 1
    decay_mult: 0
  }
  scale_param {
    bias_term: true
  }
}
layer {
  name: "res3.2.conv1/relu"
  type: "ReLU"
  bottom: "res3.2.conv1/bn"
  top: "res3.2.conv1/bn"
}
layer {
  name: "res3.2.conv2"
  type: "Convolution"
  bottom: "res3.2.conv1/bn"
  top: "res3.2.conv2"
  convolution_param {
    num_output: 128
    bias_term: false
    pad: 1
    kernel_size: 3
    weight_filler {
      type: "msra"
    }
  }
}
layer {
  name: "res3.2.conv2/bn"
  type: "BatchNorm"
  bottom: "res3.2.conv2"
  top: "res3.2.conv2/bn"
  batch_norm_param {
    moving_average_fraction: 0.9
    eps: 0.0001
  }
}
layer {
  name: "res3.2.conv2/scale"
  type: "Scale"
  bottom: "res3.2.conv2/bn"
  top: "res3.2.conv2/bn"
  param {
    lr_mult: 1
    decay_mult: 0
  }
  param {
    lr_mult: 1
    decay_mult: 0
  }
  scale_param {
    bias_term: true
  }
}
layer {
  name: "res3.2.sum"
  type: "Eltwise"
  bottom: "res3.2.conv2/bn"
  bottom: "res3.1.sum"
  top: "res3.2.sum"
  eltwise_param {
    operation: SUM
  }
}
layer {
  name: "res3.2.relu"
  type: "ReLU"
  bottom: "res3.2.sum"
  top: "res3.2.sum"
}
layer {
  name: "res4.1.conv1"
  type: "Convolution"
  bottom: "res3.2.sum"
  top: "res4.1.conv1"
  convolution_param {
    num_output: 256
    bias_term: false
    pad: 1
    kernel_size: 3
    stride: 2
    weight_filler {
      type: "msra"
    }
  }
}
layer {
  name: "res4.1.conv1/bn"
  type: "BatchNorm"
  bottom: "res4.1.conv1"
  top: "res4.1.conv1/bn"
  batch_norm_param {
    moving_average_fraction: 0.9
    eps: 0.0001
  }
}
layer {
  name: "res4.1.conv1/scale"
  type: "Scale"
  bottom: "res4.1.conv1/bn"
  top: "res4.1.conv1/bn"
  param {
    lr_mult: 1
    decay_mult: 0
  }
  param {
    lr_mult: 1
    decay_mult: 0
  }
  scale_param {
    bias_term: true
  }
}
layer {
  name: "res4.1.conv1/relu"
  type: "ReLU"
  bottom: "res4.1.conv1/bn"
  top: "res4.1.conv1/bn"
}
layer {
  name: "res4.1.conv2"
  type: "Convolution"
  bottom: "res4.1.conv1/bn"
  top: "res4.1.conv2"
  convolution_param {
    num_output: 256
    bias_term: false
    pad: 1
    kernel_size: 3
    weight_filler {
      type: "msra"
    }
  }
}
layer {
  name: "res4.1.conv2/bn"
  type: "BatchNorm"
  bottom: "res4.1.conv2"
  top: "res4.1.conv2/bn"
  batch_norm_param {
    moving_average_fraction: 0.9
    eps: 0.0001
  }
}
layer {
  name: "res4.1.conv2/scale"
  type: "Scale"
  bottom: "res4.1.conv2/bn"
  top: "res4.1.conv2/bn"
  param {
    lr_mult: 1
    decay_mult: 0
  }
  param {
    lr_mult: 1
    decay_mult: 0
  }
  scale_param {
    bias_term: true
  }
}
layer {
  name: "res4.1.skipConv"
  type: "Convolution"
  bottom: "res3.2.sum"
  top: "res4.1.skipConv"
  convolution_param {
    num_output: 256
    bias_term: false
    kernel_size: 1
    stride: 2
    weight_filler {
      type: "msra"
    }
  }
}
layer {
  name: "res4.1.skipConv/bn"
  type: "BatchNorm"
  bottom: "res4.1.skipConv"
  top: "res4.1.skipConv/bn"
  batch_norm_param {
    moving_average_fraction: 0.9
    eps: 0.0001
  }
}
layer {
  name: "res4.1.skipConv/scale"
  type: "Scale"
  bottom: "res4.1.skipConv/bn"
  top: "res4.1.skipConv/bn"
  param {
    lr_mult: 1
    decay_mult: 0
  }
  param {
    lr_mult: 1
    decay_mult: 0
  }
  scale_param {
    bias_term: true
  }
}
layer {
  name: "res4.1.sum"
  type: "Eltwise"
  bottom: "res4.1.conv2/bn"
  bottom: "res4.1.skipConv/bn"
  top: "res4.1.sum"
  eltwise_param {
    operation: SUM
  }
}
layer {
  name: "res4.1.relu"
  type: "ReLU"
  bottom: "res4.1.sum"
  top: "res4.1.sum"
}
layer {
  name: "res4.2.conv1"
  type: "Convolution"
  bottom: "res4.1.sum"
  top: "res4.2.conv1"
  convolution_param {
    num_output: 256
    bias_term: false
    pad: 1
    kernel_size: 3
    weight_filler {
      type: "msra"
    }
  }
}
layer {
  name: "res4.2.conv1/bn"
  type: "BatchNorm"
  bottom: "res4.2.conv1"
  top: "res4.2.conv1/bn"
  batch_norm_param {
    moving_average_fraction: 0.9
    eps: 0.0001
  }
}
layer {
  name: "res4.2.conv1/scale"
  type: "Scale"
  bottom: "res4.2.conv1/bn"
  top: "res4.2.conv1/bn"
  param {
    lr_mult: 1
    decay_mult: 0
  }
  param {
    lr_mult: 1
    decay_mult: 0
  }
  scale_param {
    bias_term: true
  }
}
layer {
  name: "res4.2.conv1/relu"
  type: "ReLU"
  bottom: "res4.2.conv1/bn"
  top: "res4.2.conv1/bn"
}
layer {
  name: "res4.2.conv2"
  type: "Convolution"
  bottom: "res4.2.conv1/bn"
  top: "res4.2.conv2"
  convolution_param {
    num_output: 256
    bias_term: false
    pad: 1
    kernel_size: 3
    weight_filler {
      type: "msra"
    }
  }
}
layer {
  name: "res4.2.conv2/bn"
  type: "BatchNorm"
  bottom: "res4.2.conv2"
  top: "res4.2.conv2/bn"
  batch_norm_param {
    moving_average_fraction: 0.9
    eps: 0.0001
  }
}
layer {
  name: "res4.2.conv2/scale"
  type: "Scale"
  bottom: "res4.2.conv2/bn"
  top: "res4.2.conv2/bn"
  param {
    lr_mult: 1
    decay_mult: 0
  }
  param {
    lr_mult: 1
    decay_mult: 0
  }
  scale_param {
    bias_term: true
  }
}
layer {
  name: "res4.2.sum"
  type: "Eltwise"
  bottom: "res4.2.conv2/bn"
  bottom: "res4.1.sum"
  top: "res4.2.sum"
  eltwise_param {
    operation: SUM
  }
}
layer {
  name: "res4.2.relu"
  type: "ReLU"
  bottom: "res4.2.sum"
  top: "res4.2.sum"
}
layer {
  name: "res5.1.conv1"
  type: "Convolution"
  bottom: "res4.2.sum"
  top: "res5.1.conv1"
  convolution_param {
    num_output: 512
    bias_term: false
    pad: 1
    kernel_size: 3
    stride: 2
    weight_filler {
      type: "msra"
    }
  }
}
layer {
  name: "res5.1.conv1/bn"
  type: "BatchNorm"
  bottom: "res5.1.conv1"
  top: "res5.1.conv1/bn"
  batch_norm_param {
    moving_average_fraction: 0.9
    eps: 0.0001
  }
}
layer {
  name: "res5.1.conv1/scale"
  type: "Scale"
  bottom: "res5.1.conv1/bn"
  top: "res5.1.conv1/bn"
  param {
    lr_mult: 1
    decay_mult: 0
  }
  param {
    lr_mult: 1
    decay_mult: 0
  }
  scale_param {
    bias_term: true
  }
}
layer {
  name: "res5.1.conv1/relu"
  type: "ReLU"
  bottom: "res5.1.conv1/bn"
  top: "res5.1.conv1/bn"
}
layer {
  name: "res5.1.conv2"
  type: "Convolution"
  bottom: "res5.1.conv1/bn"
  top: "res5.1.conv2"
  convolution_param {
    num_output: 512
    bias_term: false
    pad: 1
    kernel_size: 3
    weight_filler {
      type: "msra"
    }
  }
}
layer {
  name: "res5.1.conv2/bn"
  type: "BatchNorm"
  bottom: "res5.1.conv2"
  top: "res5.1.conv2/bn"
  batch_norm_param {
    moving_average_fraction: 0.9
    eps: 0.0001
  }
}
layer {
  name: "res5.1.conv2/scale"
  type: "Scale"
  bottom: "res5.1.conv2/bn"
  top: "res5.1.conv2/bn"
  param {
    lr_mult: 1
    decay_mult: 0
  }
  param {
    lr_mult: 1
    decay_mult: 0
  }
  scale_param {
    bias_term: true
  }
}
layer {
  name: "res5.1.skipConv"
  type: "Convolution"
  bottom: "res4.2.sum"
  top: "res5.1.skipConv"
  convolution_param {
    num_output: 512
    bias_term: false
    kernel_size: 1
    stride: 2
    weight_filler {
      type: "msra"
    }
  }
}
layer {
  name: "res5.1.skipConv/bn"
  type: "BatchNorm"
  bottom: "res5.1.skipConv"
  top: "res5.1.skipConv/bn"
  batch_norm_param {
    moving_average_fraction: 0.9
    eps: 0.0001
  }
}
layer {
  name: "res5.1.skipConv/scale"
  type: "Scale"
  bottom: "res5.1.skipConv/bn"
  top: "res5.1.skipConv/bn"
  param {
    lr_mult: 1
    decay_mult: 0
  }
  param {
    lr_mult: 1
    decay_mult: 0
  }
  scale_param {
    bias_term: true
  }
}
layer {
  name: "res5.1.sum"
  type: "Eltwise"
  bottom: "res5.1.conv2/bn"
  bottom: "res5.1.skipConv/bn"
  top: "res5.1.sum"
  eltwise_param {
    operation: SUM
  }
}
layer {
  name: "res5.1.relu"
  type: "ReLU"
  bottom: "res5.1.sum"
  top: "res5.1.sum"
}
layer {
  name: "res5.2.conv1"
  type: "Convolution"
  bottom: "res5.1.sum"
  top: "res5.2.conv1"
  convolution_param {
    num_output: 512
    bias_term: false
    pad: 1
    kernel_size: 3
    weight_filler {
      type: "msra"
    }
  }
}
layer {
  name: "res5.2.conv1/bn"
  type: "BatchNorm"
  bottom: "res5.2.conv1"
  top: "res5.2.conv1/bn"
  batch_norm_param {
    moving_average_fraction: 0.9
    eps: 0.0001
  }
}
layer {
  name: "res5.2.conv1/scale"
  type: "Scale"
  bottom: "res5.2.conv1/bn"
  top: "res5.2.conv1/bn"
  param {
    lr_mult: 1
    decay_mult: 0
  }
  param {
    lr_mult: 1
    decay_mult: 0
  }
  scale_param {
    bias_term: true
  }
}
layer {
  name: "res5.2.conv1/relu"
  type: "ReLU"
  bottom: "res5.2.conv1/bn"
  top: "res5.2.conv1/bn"
}
layer {
  name: "res5.2.conv2"
  type: "Convolution"
  bottom: "res5.2.conv1/bn"
  top: "res5.2.conv2"
  convolution_param {
    num_output: 512
    bias_term: false
    pad: 1
    kernel_size: 3
    weight_filler {
      type: "msra"
    }
  }
}
layer {
  name: "res5.2.conv2/bn"
  type: "BatchNorm"
  bottom: "res5.2.conv2"
  top: "res5.2.conv2/bn"
  batch_norm_param {
    moving_average_fraction: 0.9
    eps: 0.0001
  }
}
layer {
  name: "res5.2.conv2/scale"
  type: "Scale"
  bottom: "res5.2.conv2/bn"
  top: "res5.2.conv2/bn"
  param {
    lr_mult: 1
    decay_mult: 0
  }
  param {
    lr_mult: 1
    decay_mult: 0
  }
  scale_param {
    bias_term: true
  }
}
layer {
  name: "res5.2.sum"
  type: "Eltwise"
  bottom: "res5.2.conv2/bn"
  bottom: "res5.1.sum"
  top: "res5.2.sum"
  eltwise_param {
    operation: SUM
  }
}
layer {
  name: "res5.2.relu"
  type: "ReLU"
  bottom: "res5.2.sum"
  top: "res5.2.sum"
}
layer {
  name: "pool2"
  type: "Pooling"
  bottom: "res5.2.sum"
  top: "pool2"
  pooling_param {
    pool: AVE
    kernel_size: 4
  }
}
layer {
  name: "fc"
  type: "InnerProduct"
  bottom: "pool2"
  top: "fc"
  inner_product_param {
    num_output: 2
    weight_filler {
      type: "msra"
    }
    bias_filler {
      type: "constant"
      value: 0
    }
  }
}
layer {
  name: "prob"
  type: "Softmax"
  bottom: "fc"
  top: "prob"
}
I0809 18:57:02.640970  6192 layer_factory.hpp:77] Creating layer data
I0809 18:57:02.642750  6192 net.cpp:86] Creating Layer data
I0809 18:57:02.642930  6192 net.cpp:382] data -> data
I0809 18:57:02.766639  5629 uart_configuration.cpp:127] current Speed is:0
I0809 18:57:02.797709  6192 net.cpp:124] Setting up data
I0809 18:57:02.797834  6192 net.cpp:131] Top shape: 1 3 112 112 (37632)
I0809 18:57:02.797894  6192 net.cpp:139] Memory required for data: 150528
I0809 18:57:02.797940  6192 layer_factory.hpp:77] Creating layer conv1
I0809 18:57:02.798095  6192 net.cpp:86] Creating Layer conv1
I0809 18:57:02.798151  6192 net.cpp:408] conv1 <- data
I0809 18:57:02.798274  6192 net.cpp:382] conv1 -> conv1
I0809 18:57:03.162663  5629 uart_configuration.cpp:127] current Speed is:0
I0809 18:57:03.370617  5629 uart_configuration.cpp:127] current Speed is:0
I0809 18:57:04.154678  5629 uart_configuration.cpp:127] current Speed is:0
I0809 18:57:04.550639  5629 uart_configuration.cpp:127] current Speed is:0
I0809 18:57:05.150647  5629 uart_configuration.cpp:127] current Speed is:0
I0809 18:57:05.354631  5629 uart_configuration.cpp:127] current Speed is:0
I0809 18:57:05.942674  5629 uart_configuration.cpp:127] current Speed is:0
I0809 18:57:07.530632  5629 uart_configuration.cpp:127] current Speed is:0
I0809 18:57:08.526726  5629 uart_configuration.cpp:127] current Speed is:0
I0809 18:57:09.318645  5629 uart_configuration.cpp:127] current Speed is:0
I0809 18:57:09.522683  5629 uart_configuration.cpp:127] current Speed is:0
I0809 18:57:09.812731  6192 net.cpp:124] Setting up conv1
I0809 18:57:09.813474  6192 net.cpp:131] Top shape: 1 64 56 56 (200704)
I0809 18:57:09.813597  6192 net.cpp:139] Memory required for data: 953344
I0809 18:57:09.813717  6192 layer_factory.hpp:77] Creating layer conv1/bn
I0809 18:57:09.813796  6192 net.cpp:86] Creating Layer conv1/bn
I0809 18:57:09.813860  6192 net.cpp:408] conv1/bn <- conv1
I0809 18:57:09.813927  6192 net.cpp:382] conv1/bn -> conv1/bn
I0809 18:57:09.816560  6192 net.cpp:124] Setting up conv1/bn
I0809 18:57:09.816741  6192 net.cpp:131] Top shape: 1 64 56 56 (200704)
I0809 18:57:09.816833  6192 net.cpp:139] Memory required for data: 1756160
I0809 18:57:09.816949  6192 layer_factory.hpp:77] Creating layer conv1/scale
I0809 18:57:09.817101  6192 net.cpp:86] Creating Layer conv1/scale
I0809 18:57:09.817148  6192 net.cpp:408] conv1/scale <- conv1/bn
I0809 18:57:09.817203  6192 net.cpp:369] conv1/scale -> conv1/bn (in-place)
I0809 18:57:09.817667  6192 layer_factory.hpp:77] Creating layer conv1/scale
I0809 18:57:09.818722  6192 net.cpp:124] Setting up conv1/scale
I0809 18:57:09.818905  6192 net.cpp:131] Top shape: 1 64 56 56 (200704)
I0809 18:57:09.818972  6192 net.cpp:139] Memory required for data: 2558976
I0809 18:57:09.819052  6192 layer_factory.hpp:77] Creating layer conv1/relu
I0809 18:57:09.819169  6192 net.cpp:86] Creating Layer conv1/relu
I0809 18:57:09.819211  6192 net.cpp:408] conv1/relu <- conv1/bn
I0809 18:57:09.819252  6192 net.cpp:369] conv1/relu -> conv1/bn (in-place)
I0809 18:57:09.822294  6192 net.cpp:124] Setting up conv1/relu
I0809 18:57:09.822417  6192 net.cpp:131] Top shape: 1 64 56 56 (200704)
I0809 18:57:09.822472  6192 net.cpp:139] Memory required for data: 3361792
I0809 18:57:09.822506  6192 layer_factory.hpp:77] Creating layer pool1
I0809 18:57:09.822613  6192 net.cpp:86] Creating Layer pool1
I0809 18:57:09.822660  6192 net.cpp:408] pool1 <- conv1/bn
I0809 18:57:09.822706  6192 net.cpp:382] pool1 -> pool1
I0809 18:57:09.822988  6192 net.cpp:124] Setting up pool1
I0809 18:57:09.823036  6192 net.cpp:131] Top shape: 1 64 28 28 (50176)
I0809 18:57:09.823074  6192 net.cpp:139] Memory required for data: 3562496
I0809 18:57:09.823105  6192 layer_factory.hpp:77] Creating layer pool1_pool1_0_split
I0809 18:57:09.823144  6192 net.cpp:86] Creating Layer pool1_pool1_0_split
I0809 18:57:09.823175  6192 net.cpp:408] pool1_pool1_0_split <- pool1
I0809 18:57:09.823215  6192 net.cpp:382] pool1_pool1_0_split -> pool1_pool1_0_split_0
I0809 18:57:09.823261  6192 net.cpp:382] pool1_pool1_0_split -> pool1_pool1_0_split_1
I0809 18:57:09.823432  6192 net.cpp:124] Setting up pool1_pool1_0_split
I0809 18:57:09.823475  6192 net.cpp:131] Top shape: 1 64 28 28 (50176)
I0809 18:57:09.823510  6192 net.cpp:131] Top shape: 1 64 28 28 (50176)
I0809 18:57:09.823544  6192 net.cpp:139] Memory required for data: 3963904
I0809 18:57:09.823572  6192 layer_factory.hpp:77] Creating layer res2.1.conv1
I0809 18:57:09.823621  6192 net.cpp:86] Creating Layer res2.1.conv1
I0809 18:57:09.823652  6192 net.cpp:408] res2.1.conv1 <- pool1_pool1_0_split_0
I0809 18:57:09.823704  6192 net.cpp:382] res2.1.conv1 -> res2.1.conv1
I0809 18:57:09.839972  6192 net.cpp:124] Setting up res2.1.conv1
I0809 18:57:09.840092  6192 net.cpp:131] Top shape: 1 64 28 28 (50176)
I0809 18:57:09.840162  6192 net.cpp:139] Memory required for data: 4164608
I0809 18:57:09.840225  6192 layer_factory.hpp:77] Creating layer res2.1.conv1/bn
I0809 18:57:09.840292  6192 net.cpp:86] Creating Layer res2.1.conv1/bn
I0809 18:57:09.840342  6192 net.cpp:408] res2.1.conv1/bn <- res2.1.conv1
I0809 18:57:09.840399  6192 net.cpp:382] res2.1.conv1/bn -> res2.1.conv1/bn
I0809 18:57:09.842730  6192 net.cpp:124] Setting up res2.1.conv1/bn
I0809 18:57:09.842837  6192 net.cpp:131] Top shape: 1 64 28 28 (50176)
I0809 18:57:09.842885  6192 net.cpp:139] Memory required for data: 4365312
I0809 18:57:09.843042  6192 layer_factory.hpp:77] Creating layer res2.1.conv1/scale
I0809 18:57:09.843099  6192 net.cpp:86] Creating Layer res2.1.conv1/scale
I0809 18:57:09.843140  6192 net.cpp:408] res2.1.conv1/scale <- res2.1.conv1/bn
I0809 18:57:09.843181  6192 net.cpp:369] res2.1.conv1/scale -> res2.1.conv1/bn (in-place)
I0809 18:57:09.843396  6192 layer_factory.hpp:77] Creating layer res2.1.conv1/scale
I0809 18:57:09.843894  6192 net.cpp:124] Setting up res2.1.conv1/scale
I0809 18:57:09.843942  6192 net.cpp:131] Top shape: 1 64 28 28 (50176)
I0809 18:57:09.843981  6192 net.cpp:139] Memory required for data: 4566016
I0809 18:57:09.844025  6192 layer_factory.hpp:77] Creating layer res2.1.conv1/relu
I0809 18:57:09.844106  6192 net.cpp:86] Creating Layer res2.1.conv1/relu
I0809 18:57:09.844143  6192 net.cpp:408] res2.1.conv1/relu <- res2.1.conv1/bn
I0809 18:57:09.844182  6192 net.cpp:369] res2.1.conv1/relu -> res2.1.conv1/bn (in-place)
I0809 18:57:09.845892  6192 net.cpp:124] Setting up res2.1.conv1/relu
I0809 18:57:09.846000  6192 net.cpp:131] Top shape: 1 64 28 28 (50176)
I0809 18:57:09.846072  6192 net.cpp:139] Memory required for data: 4766720
I0809 18:57:09.846107  6192 layer_factory.hpp:77] Creating layer res2.1.conv2
I0809 18:57:09.846158  6192 net.cpp:86] Creating Layer res2.1.conv2
I0809 18:57:09.846190  6192 net.cpp:408] res2.1.conv2 <- res2.1.conv1/bn
I0809 18:57:09.846235  6192 net.cpp:382] res2.1.conv2 -> res2.1.conv2
I0809 18:57:09.862210  6192 net.cpp:124] Setting up res2.1.conv2
I0809 18:57:09.864536  6192 net.cpp:131] Top shape: 1 64 28 28 (50176)
I0809 18:57:09.864750  6192 net.cpp:139] Memory required for data: 4967424
I0809 18:57:09.864812  6192 layer_factory.hpp:77] Creating layer res2.1.conv2/bn
I0809 18:57:09.864864  6192 net.cpp:86] Creating Layer res2.1.conv2/bn
I0809 18:57:09.864902  6192 net.cpp:408] res2.1.conv2/bn <- res2.1.conv2
I0809 18:57:09.864949  6192 net.cpp:382] res2.1.conv2/bn -> res2.1.conv2/bn
I0809 18:57:09.865994  6192 net.cpp:124] Setting up res2.1.conv2/bn
I0809 18:57:09.866061  6192 net.cpp:131] Top shape: 1 64 28 28 (50176)
I0809 18:57:09.866103  6192 net.cpp:139] Memory required for data: 5168128
I0809 18:57:09.866152  6192 layer_factory.hpp:77] Creating layer res2.1.conv2/scale
I0809 18:57:09.866194  6192 net.cpp:86] Creating Layer res2.1.conv2/scale
I0809 18:57:09.866228  6192 net.cpp:408] res2.1.conv2/scale <- res2.1.conv2/bn
I0809 18:57:09.866268  6192 net.cpp:369] res2.1.conv2/scale -> res2.1.conv2/bn (in-place)
I0809 18:57:09.866461  6192 layer_factory.hpp:77] Creating layer res2.1.conv2/scale
I0809 18:57:09.867192  6192 net.cpp:124] Setting up res2.1.conv2/scale
I0809 18:57:09.867290  6192 net.cpp:131] Top shape: 1 64 28 28 (50176)
I0809 18:57:09.867339  6192 net.cpp:139] Memory required for data: 5368832
I0809 18:57:09.867410  6192 layer_factory.hpp:77] Creating layer res2.1.sum
I0809 18:57:09.867468  6192 net.cpp:86] Creating Layer res2.1.sum
I0809 18:57:09.867507  6192 net.cpp:408] res2.1.sum <- res2.1.conv2/bn
I0809 18:57:09.867547  6192 net.cpp:408] res2.1.sum <- pool1_pool1_0_split_1
I0809 18:57:09.867594  6192 net.cpp:382] res2.1.sum -> res2.1.sum
I0809 18:57:09.867779  6192 net.cpp:124] Setting up res2.1.sum
I0809 18:57:09.867830  6192 net.cpp:131] Top shape: 1 64 28 28 (50176)
I0809 18:57:09.867873  6192 net.cpp:139] Memory required for data: 5569536
I0809 18:57:09.867905  6192 layer_factory.hpp:77] Creating layer res2.1.relu
I0809 18:57:09.867952  6192 net.cpp:86] Creating Layer res2.1.relu
I0809 18:57:09.867988  6192 net.cpp:408] res2.1.relu <- res2.1.sum
I0809 18:57:09.868029  6192 net.cpp:369] res2.1.relu -> res2.1.sum (in-place)
I0809 18:57:09.871301  6192 net.cpp:124] Setting up res2.1.relu
I0809 18:57:09.871446  6192 net.cpp:131] Top shape: 1 64 28 28 (50176)
I0809 18:57:09.871500  6192 net.cpp:139] Memory required for data: 5770240
I0809 18:57:09.871541  6192 layer_factory.hpp:77] Creating layer res2.1.sum_res2.1.relu_0_split
I0809 18:57:09.871603  6192 net.cpp:86] Creating Layer res2.1.sum_res2.1.relu_0_split
I0809 18:57:09.871873  6192 net.cpp:408] res2.1.sum_res2.1.relu_0_split <- res2.1.sum
I0809 18:57:09.872056  6192 net.cpp:382] res2.1.sum_res2.1.relu_0_split -> res2.1.sum_res2.1.relu_0_split_0
I0809 18:57:09.872146  6192 net.cpp:382] res2.1.sum_res2.1.relu_0_split -> res2.1.sum_res2.1.relu_0_split_1
I0809 18:57:09.872498  6192 net.cpp:124] Setting up res2.1.sum_res2.1.relu_0_split
I0809 18:57:09.872586  6192 net.cpp:131] Top shape: 1 64 28 28 (50176)
I0809 18:57:09.872730  6192 net.cpp:131] Top shape: 1 64 28 28 (50176)
I0809 18:57:09.872800  6192 net.cpp:139] Memory required for data: 6171648
I0809 18:57:09.872850  6192 layer_factory.hpp:77] Creating layer res2.2.conv1
I0809 18:57:09.872910  6192 net.cpp:86] Creating Layer res2.2.conv1
I0809 18:57:09.872954  6192 net.cpp:408] res2.2.conv1 <- res2.1.sum_res2.1.relu_0_split_0
I0809 18:57:09.873006  6192 net.cpp:382] res2.2.conv1 -> res2.2.conv1
I0809 18:57:09.884306  6192 net.cpp:124] Setting up res2.2.conv1
I0809 18:57:09.884481  6192 net.cpp:131] Top shape: 1 64 28 28 (50176)
I0809 18:57:09.884533  6192 net.cpp:139] Memory required for data: 6372352
I0809 18:57:09.884577  6192 layer_factory.hpp:77] Creating layer res2.2.conv1/bn
I0809 18:57:09.884620  6192 net.cpp:86] Creating Layer res2.2.conv1/bn
I0809 18:57:09.884673  6192 net.cpp:408] res2.2.conv1/bn <- res2.2.conv1
I0809 18:57:09.884716  6192 net.cpp:382] res2.2.conv1/bn -> res2.2.conv1/bn
I0809 18:57:09.885645  6192 net.cpp:124] Setting up res2.2.conv1/bn
I0809 18:57:09.885716  6192 net.cpp:131] Top shape: 1 64 28 28 (50176)
I0809 18:57:09.885754  6192 net.cpp:139] Memory required for data: 6573056
I0809 18:57:09.885797  6192 layer_factory.hpp:77] Creating layer res2.2.conv1/scale
I0809 18:57:09.885838  6192 net.cpp:86] Creating Layer res2.2.conv1/scale
I0809 18:57:09.885869  6192 net.cpp:408] res2.2.conv1/scale <- res2.2.conv1/bn
I0809 18:57:09.885902  6192 net.cpp:369] res2.2.conv1/scale -> res2.2.conv1/bn (in-place)
I0809 18:57:09.886080  6192 layer_factory.hpp:77] Creating layer res2.2.conv1/scale
I0809 18:57:09.886518  6192 net.cpp:124] Setting up res2.2.conv1/scale
I0809 18:57:09.886638  6192 net.cpp:131] Top shape: 1 64 28 28 (50176)
I0809 18:57:09.886687  6192 net.cpp:139] Memory required for data: 6773760
I0809 18:57:09.886725  6192 layer_factory.hpp:77] Creating layer res2.2.conv1/relu
I0809 18:57:09.886760  6192 net.cpp:86] Creating Layer res2.2.conv1/relu
I0809 18:57:09.886788  6192 net.cpp:408] res2.2.conv1/relu <- res2.2.conv1/bn
I0809 18:57:09.886822  6192 net.cpp:369] res2.2.conv1/relu -> res2.2.conv1/bn (in-place)
I0809 18:57:09.889603  6192 net.cpp:124] Setting up res2.2.conv1/relu
I0809 18:57:09.889672  6192 net.cpp:131] Top shape: 1 64 28 28 (50176)
I0809 18:57:09.889711  6192 net.cpp:139] Memory required for data: 6974464
I0809 18:57:09.889741  6192 layer_factory.hpp:77] Creating layer res2.2.conv2
I0809 18:57:09.889804  6192 net.cpp:86] Creating Layer res2.2.conv2
I0809 18:57:09.889840  6192 net.cpp:408] res2.2.conv2 <- res2.2.conv1/bn
I0809 18:57:09.889883  6192 net.cpp:382] res2.2.conv2 -> res2.2.conv2
I0809 18:57:09.901556  6192 net.cpp:124] Setting up res2.2.conv2
I0809 18:57:09.901692  6192 net.cpp:131] Top shape: 1 64 28 28 (50176)
I0809 18:57:09.901747  6192 net.cpp:139] Memory required for data: 7175168
I0809 18:57:09.901793  6192 layer_factory.hpp:77] Creating layer res2.2.conv2/bn
I0809 18:57:09.901859  6192 net.cpp:86] Creating Layer res2.2.conv2/bn
I0809 18:57:09.901899  6192 net.cpp:408] res2.2.conv2/bn <- res2.2.conv2
I0809 18:57:09.901942  6192 net.cpp:382] res2.2.conv2/bn -> res2.2.conv2/bn
I0809 18:57:09.903126  6192 net.cpp:124] Setting up res2.2.conv2/bn
I0809 18:57:09.903236  6192 net.cpp:131] Top shape: 1 64 28 28 (50176)
I0809 18:57:09.903286  6192 net.cpp:139] Memory required for data: 7375872
I0809 18:57:09.903338  6192 layer_factory.hpp:77] Creating layer res2.2.conv2/scale
I0809 18:57:09.903394  6192 net.cpp:86] Creating Layer res2.2.conv2/scale
I0809 18:57:09.903434  6192 net.cpp:408] res2.2.conv2/scale <- res2.2.conv2/bn
I0809 18:57:09.903476  6192 net.cpp:369] res2.2.conv2/scale -> res2.2.conv2/bn (in-place)
I0809 18:57:09.904032  6192 layer_factory.hpp:77] Creating layer res2.2.conv2/scale
I0809 18:57:09.904604  6192 net.cpp:124] Setting up res2.2.conv2/scale
I0809 18:57:09.904652  6192 net.cpp:131] Top shape: 1 64 28 28 (50176)
I0809 18:57:09.904692  6192 net.cpp:139] Memory required for data: 7576576
I0809 18:57:09.904752  6192 layer_factory.hpp:77] Creating layer res2.2.sum
I0809 18:57:09.904796  6192 net.cpp:86] Creating Layer res2.2.sum
I0809 18:57:09.904829  6192 net.cpp:408] res2.2.sum <- res2.2.conv2/bn
I0809 18:57:09.904865  6192 net.cpp:408] res2.2.sum <- res2.1.sum_res2.1.relu_0_split_1
I0809 18:57:09.904906  6192 net.cpp:382] res2.2.sum -> res2.2.sum
I0809 18:57:09.905035  6192 net.cpp:124] Setting up res2.2.sum
I0809 18:57:09.905074  6192 net.cpp:131] Top shape: 1 64 28 28 (50176)
I0809 18:57:09.905113  6192 net.cpp:139] Memory required for data: 7777280
I0809 18:57:09.905144  6192 layer_factory.hpp:77] Creating layer res2.2.relu
I0809 18:57:09.905184  6192 net.cpp:86] Creating Layer res2.2.relu
I0809 18:57:09.905216  6192 net.cpp:408] res2.2.relu <- res2.2.sum
I0809 18:57:09.905254  6192 net.cpp:369] res2.2.relu -> res2.2.sum (in-place)
I0809 18:57:09.911109  6192 net.cpp:124] Setting up res2.2.relu
I0809 18:57:09.911242  6192 net.cpp:131] Top shape: 1 64 28 28 (50176)
I0809 18:57:09.911298  6192 net.cpp:139] Memory required for data: 7977984
I0809 18:57:09.911334  6192 layer_factory.hpp:77] Creating layer res2.2.sum_res2.2.relu_0_split
I0809 18:57:09.911409  6192 net.cpp:86] Creating Layer res2.2.sum_res2.2.relu_0_split
I0809 18:57:09.911458  6192 net.cpp:408] res2.2.sum_res2.2.relu_0_split <- res2.2.sum
I0809 18:57:09.911509  6192 net.cpp:382] res2.2.sum_res2.2.relu_0_split -> res2.2.sum_res2.2.relu_0_split_0
I0809 18:57:09.911571  6192 net.cpp:382] res2.2.sum_res2.2.relu_0_split -> res2.2.sum_res2.2.relu_0_split_1
I0809 18:57:09.911895  6192 net.cpp:124] Setting up res2.2.sum_res2.2.relu_0_split
I0809 18:57:09.911986  6192 net.cpp:131] Top shape: 1 64 28 28 (50176)
I0809 18:57:09.912034  6192 net.cpp:131] Top shape: 1 64 28 28 (50176)
I0809 18:57:09.912070  6192 net.cpp:139] Memory required for data: 8379392
I0809 18:57:09.912101  6192 layer_factory.hpp:77] Creating layer res3.1.conv1
I0809 18:57:09.912151  6192 net.cpp:86] Creating Layer res3.1.conv1
I0809 18:57:09.912185  6192 net.cpp:408] res3.1.conv1 <- res2.2.sum_res2.2.relu_0_split_0
I0809 18:57:09.912227  6192 net.cpp:382] res3.1.conv1 -> res3.1.conv1
I0809 18:57:09.928004  6192 net.cpp:124] Setting up res3.1.conv1
I0809 18:57:09.928102  6192 net.cpp:131] Top shape: 1 128 14 14 (25088)
I0809 18:57:09.928154  6192 net.cpp:139] Memory required for data: 8479744
I0809 18:57:09.928205  6192 layer_factory.hpp:77] Creating layer res3.1.conv1/bn
I0809 18:57:09.928270  6192 net.cpp:86] Creating Layer res3.1.conv1/bn
I0809 18:57:09.928308  6192 net.cpp:408] res3.1.conv1/bn <- res3.1.conv1
I0809 18:57:09.928356  6192 net.cpp:382] res3.1.conv1/bn -> res3.1.conv1/bn
I0809 18:57:09.929606  6192 net.cpp:124] Setting up res3.1.conv1/bn
I0809 18:57:09.929698  6192 net.cpp:131] Top shape: 1 128 14 14 (25088)
I0809 18:57:09.929747  6192 net.cpp:139] Memory required for data: 8580096
I0809 18:57:09.929817  6192 layer_factory.hpp:77] Creating layer res3.1.conv1/scale
I0809 18:57:09.929885  6192 net.cpp:86] Creating Layer res3.1.conv1/scale
I0809 18:57:09.929920  6192 net.cpp:408] res3.1.conv1/scale <- res3.1.conv1/bn
I0809 18:57:09.929965  6192 net.cpp:369] res3.1.conv1/scale -> res3.1.conv1/bn (in-place)
I0809 18:57:09.930191  6192 layer_factory.hpp:77] Creating layer res3.1.conv1/scale
I0809 18:57:09.930742  6192 net.cpp:124] Setting up res3.1.conv1/scale
I0809 18:57:09.930791  6192 net.cpp:131] Top shape: 1 128 14 14 (25088)
I0809 18:57:09.930827  6192 net.cpp:139] Memory required for data: 8680448
I0809 18:57:09.930877  6192 layer_factory.hpp:77] Creating layer res3.1.conv1/relu
I0809 18:57:09.930917  6192 net.cpp:86] Creating Layer res3.1.conv1/relu
I0809 18:57:09.930944  6192 net.cpp:408] res3.1.conv1/relu <- res3.1.conv1/bn
I0809 18:57:09.931221  6192 net.cpp:369] res3.1.conv1/relu -> res3.1.conv1/bn (in-place)
I0809 18:57:09.934331  6192 net.cpp:124] Setting up res3.1.conv1/relu
I0809 18:57:09.934403  6192 net.cpp:131] Top shape: 1 128 14 14 (25088)
I0809 18:57:09.934449  6192 net.cpp:139] Memory required for data: 8780800
I0809 18:57:09.934484  6192 layer_factory.hpp:77] Creating layer res3.1.conv2
I0809 18:57:09.934602  6192 net.cpp:86] Creating Layer res3.1.conv2
I0809 18:57:09.934659  6192 net.cpp:408] res3.1.conv2 <- res3.1.conv1/bn
I0809 18:57:09.934715  6192 net.cpp:382] res3.1.conv2 -> res3.1.conv2
I0809 18:57:09.956835  6192 net.cpp:124] Setting up res3.1.conv2
I0809 18:57:09.956980  6192 net.cpp:131] Top shape: 1 128 14 14 (25088)
I0809 18:57:09.957034  6192 net.cpp:139] Memory required for data: 8881152
I0809 18:57:09.957080  6192 layer_factory.hpp:77] Creating layer res3.1.conv2/bn
I0809 18:57:09.957149  6192 net.cpp:86] Creating Layer res3.1.conv2/bn
I0809 18:57:09.957190  6192 net.cpp:408] res3.1.conv2/bn <- res3.1.conv2
I0809 18:57:09.957233  6192 net.cpp:382] res3.1.conv2/bn -> res3.1.conv2/bn
I0809 18:57:09.958356  6192 net.cpp:124] Setting up res3.1.conv2/bn
I0809 18:57:09.958426  6192 net.cpp:131] Top shape: 1 128 14 14 (25088)
I0809 18:57:09.958477  6192 net.cpp:139] Memory required for data: 8981504
I0809 18:57:09.958647  6192 layer_factory.hpp:77] Creating layer res3.1.conv2/scale
I0809 18:57:09.958760  6192 net.cpp:86] Creating Layer res3.1.conv2/scale
I0809 18:57:09.958811  6192 net.cpp:408] res3.1.conv2/scale <- res3.1.conv2/bn
I0809 18:57:09.958864  6192 net.cpp:369] res3.1.conv2/scale -> res3.1.conv2/bn (in-place)
I0809 18:57:09.959254  6192 layer_factory.hpp:77] Creating layer res3.1.conv2/scale
I0809 18:57:09.960057  6192 net.cpp:124] Setting up res3.1.conv2/scale
I0809 18:57:09.960136  6192 net.cpp:131] Top shape: 1 128 14 14 (25088)
I0809 18:57:09.960184  6192 net.cpp:139] Memory required for data: 9081856
I0809 18:57:09.960235  6192 layer_factory.hpp:77] Creating layer res3.1.skipConv
I0809 18:57:09.960289  6192 net.cpp:86] Creating Layer res3.1.skipConv
I0809 18:57:09.960321  6192 net.cpp:408] res3.1.skipConv <- res2.2.sum_res2.2.relu_0_split_1
I0809 18:57:09.960371  6192 net.cpp:382] res3.1.skipConv -> res3.1.skipConv
I0809 18:57:09.991041  6192 net.cpp:124] Setting up res3.1.skipConv
I0809 18:57:09.991220  6192 net.cpp:131] Top shape: 1 128 14 14 (25088)
I0809 18:57:09.991271  6192 net.cpp:139] Memory required for data: 9182208
I0809 18:57:09.991317  6192 layer_factory.hpp:77] Creating layer res3.1.skipConv/bn
I0809 18:57:09.991376  6192 net.cpp:86] Creating Layer res3.1.skipConv/bn
I0809 18:57:09.991415  6192 net.cpp:408] res3.1.skipConv/bn <- res3.1.skipConv
I0809 18:57:09.991462  6192 net.cpp:382] res3.1.skipConv/bn -> res3.1.skipConv/bn
I0809 18:57:09.992575  6192 net.cpp:124] Setting up res3.1.skipConv/bn
I0809 18:57:09.992645  6192 net.cpp:131] Top shape: 1 128 14 14 (25088)
I0809 18:57:09.992687  6192 net.cpp:139] Memory required for data: 9282560
I0809 18:57:09.992739  6192 layer_factory.hpp:77] Creating layer res3.1.skipConv/scale
I0809 18:57:09.992785  6192 net.cpp:86] Creating Layer res3.1.skipConv/scale
I0809 18:57:09.992817  6192 net.cpp:408] res3.1.skipConv/scale <- res3.1.skipConv/bn
I0809 18:57:09.992869  6192 net.cpp:369] res3.1.skipConv/scale -> res3.1.skipConv/bn (in-place)
I0809 18:57:09.993125  6192 layer_factory.hpp:77] Creating layer res3.1.skipConv/scale
I0809 18:57:09.993676  6192 net.cpp:124] Setting up res3.1.skipConv/scale
I0809 18:57:09.993721  6192 net.cpp:131] Top shape: 1 128 14 14 (25088)
I0809 18:57:09.993755  6192 net.cpp:139] Memory required for data: 9382912
I0809 18:57:09.993795  6192 layer_factory.hpp:77] Creating layer res3.1.sum
I0809 18:57:09.993832  6192 net.cpp:86] Creating Layer res3.1.sum
I0809 18:57:09.993861  6192 net.cpp:408] res3.1.sum <- res3.1.conv2/bn
I0809 18:57:09.993894  6192 net.cpp:408] res3.1.sum <- res3.1.skipConv/bn
I0809 18:57:09.993929  6192 net.cpp:382] res3.1.sum -> res3.1.sum
I0809 18:57:09.994055  6192 net.cpp:124] Setting up res3.1.sum
I0809 18:57:09.994216  6192 net.cpp:131] Top shape: 1 128 14 14 (25088)
I0809 18:57:09.994264  6192 net.cpp:139] Memory required for data: 9483264
I0809 18:57:09.994294  6192 layer_factory.hpp:77] Creating layer res3.1.relu
I0809 18:57:09.994330  6192 net.cpp:86] Creating Layer res3.1.relu
I0809 18:57:09.994360  6192 net.cpp:408] res3.1.relu <- res3.1.sum
I0809 18:57:09.994416  6192 net.cpp:369] res3.1.relu -> res3.1.sum (in-place)
I0809 18:57:09.997611  6192 net.cpp:124] Setting up res3.1.relu
I0809 18:57:09.997689  6192 net.cpp:131] Top shape: 1 128 14 14 (25088)
I0809 18:57:09.997731  6192 net.cpp:139] Memory required for data: 9583616
I0809 18:57:09.997764  6192 layer_factory.hpp:77] Creating layer res3.1.sum_res3.1.relu_0_split
I0809 18:57:09.997823  6192 net.cpp:86] Creating Layer res3.1.sum_res3.1.relu_0_split
I0809 18:57:09.997865  6192 net.cpp:408] res3.1.sum_res3.1.relu_0_split <- res3.1.sum
I0809 18:57:09.997910  6192 net.cpp:382] res3.1.sum_res3.1.relu_0_split -> res3.1.sum_res3.1.relu_0_split_0
I0809 18:57:09.997956  6192 net.cpp:382] res3.1.sum_res3.1.relu_0_split -> res3.1.sum_res3.1.relu_0_split_1
I0809 18:57:09.998178  6192 net.cpp:124] Setting up res3.1.sum_res3.1.relu_0_split
I0809 18:57:09.998219  6192 net.cpp:131] Top shape: 1 128 14 14 (25088)
I0809 18:57:09.998253  6192 net.cpp:131] Top shape: 1 128 14 14 (25088)
I0809 18:57:09.998286  6192 net.cpp:139] Memory required for data: 9784320
I0809 18:57:09.998313  6192 layer_factory.hpp:77] Creating layer res3.2.conv1
I0809 18:57:09.998361  6192 net.cpp:86] Creating Layer res3.2.conv1
I0809 18:57:09.998392  6192 net.cpp:408] res3.2.conv1 <- res3.1.sum_res3.1.relu_0_split_0
I0809 18:57:09.998430  6192 net.cpp:382] res3.2.conv1 -> res3.2.conv1
I0809 18:57:10.019421  6192 net.cpp:124] Setting up res3.2.conv1
I0809 18:57:10.019596  6192 net.cpp:131] Top shape: 1 128 14 14 (25088)
I0809 18:57:10.019654  6192 net.cpp:139] Memory required for data: 9884672
I0809 18:57:10.019706  6192 layer_factory.hpp:77] Creating layer res3.2.conv1/bn
I0809 18:57:10.019779  6192 net.cpp:86] Creating Layer res3.2.conv1/bn
I0809 18:57:10.019819  6192 net.cpp:408] res3.2.conv1/bn <- res3.2.conv1
I0809 18:57:10.019860  6192 net.cpp:382] res3.2.conv1/bn -> res3.2.conv1/bn
I0809 18:57:10.020990  6192 net.cpp:124] Setting up res3.2.conv1/bn
I0809 18:57:10.021037  6192 net.cpp:131] Top shape: 1 128 14 14 (25088)
I0809 18:57:10.021077  6192 net.cpp:139] Memory required for data: 9985024
I0809 18:57:10.021129  6192 layer_factory.hpp:77] Creating layer res3.2.conv1/scale
I0809 18:57:10.021191  6192 net.cpp:86] Creating Layer res3.2.conv1/scale
I0809 18:57:10.021260  6192 net.cpp:408] res3.2.conv1/scale <- res3.2.conv1/bn
I0809 18:57:10.021303  6192 net.cpp:369] res3.2.conv1/scale -> res3.2.conv1/bn (in-place)
I0809 18:57:10.021553  6192 layer_factory.hpp:77] Creating layer res3.2.conv1/scale
I0809 18:57:10.022060  6192 net.cpp:124] Setting up res3.2.conv1/scale
I0809 18:57:10.022099  6192 net.cpp:131] Top shape: 1 128 14 14 (25088)
I0809 18:57:10.022135  6192 net.cpp:139] Memory required for data: 10085376
I0809 18:57:10.022186  6192 layer_factory.hpp:77] Creating layer res3.2.conv1/relu
I0809 18:57:10.022224  6192 net.cpp:86] Creating Layer res3.2.conv1/relu
I0809 18:57:10.022253  6192 net.cpp:408] res3.2.conv1/relu <- res3.2.conv1/bn
I0809 18:57:10.022289  6192 net.cpp:369] res3.2.conv1/relu -> res3.2.conv1/bn (in-place)
I0809 18:57:10.025997  6192 net.cpp:124] Setting up res3.2.conv1/relu
I0809 18:57:10.026172  6192 net.cpp:131] Top shape: 1 128 14 14 (25088)
I0809 18:57:10.026230  6192 net.cpp:139] Memory required for data: 10185728
I0809 18:57:10.026265  6192 layer_factory.hpp:77] Creating layer res3.2.conv2
I0809 18:57:10.026345  6192 net.cpp:86] Creating Layer res3.2.conv2
I0809 18:57:10.026389  6192 net.cpp:408] res3.2.conv2 <- res3.2.conv1/bn
I0809 18:57:10.026440  6192 net.cpp:382] res3.2.conv2 -> res3.2.conv2
I0809 18:57:10.046442  6192 net.cpp:124] Setting up res3.2.conv2
I0809 18:57:10.046648  6192 net.cpp:131] Top shape: 1 128 14 14 (25088)
I0809 18:57:10.046713  6192 net.cpp:139] Memory required for data: 10286080
I0809 18:57:10.046854  6192 layer_factory.hpp:77] Creating layer res3.2.conv2/bn
I0809 18:57:10.046917  6192 net.cpp:86] Creating Layer res3.2.conv2/bn
I0809 18:57:10.046953  6192 net.cpp:408] res3.2.conv2/bn <- res3.2.conv2
I0809 18:57:10.047001  6192 net.cpp:382] res3.2.conv2/bn -> res3.2.conv2/bn
I0809 18:57:10.048058  6192 net.cpp:124] Setting up res3.2.conv2/bn
I0809 18:57:10.048106  6192 net.cpp:131] Top shape: 1 128 14 14 (25088)
I0809 18:57:10.048144  6192 net.cpp:139] Memory required for data: 10386432
I0809 18:57:10.048198  6192 layer_factory.hpp:77] Creating layer res3.2.conv2/scale
I0809 18:57:10.048240  6192 net.cpp:86] Creating Layer res3.2.conv2/scale
I0809 18:57:10.048271  6192 net.cpp:408] res3.2.conv2/scale <- res3.2.conv2/bn
I0809 18:57:10.048312  6192 net.cpp:369] res3.2.conv2/scale -> res3.2.conv2/bn (in-place)
I0809 18:57:10.048488  6192 layer_factory.hpp:77] Creating layer res3.2.conv2/scale
I0809 18:57:10.048979  6192 net.cpp:124] Setting up res3.2.conv2/scale
I0809 18:57:10.049016  6192 net.cpp:131] Top shape: 1 128 14 14 (25088)
I0809 18:57:10.049052  6192 net.cpp:139] Memory required for data: 10486784
I0809 18:57:10.049089  6192 layer_factory.hpp:77] Creating layer res3.2.sum
I0809 18:57:10.049126  6192 net.cpp:86] Creating Layer res3.2.sum
I0809 18:57:10.049156  6192 net.cpp:408] res3.2.sum <- res3.2.conv2/bn
I0809 18:57:10.049188  6192 net.cpp:408] res3.2.sum <- res3.1.sum_res3.1.relu_0_split_1
I0809 18:57:10.049223  6192 net.cpp:382] res3.2.sum -> res3.2.sum
I0809 18:57:10.049333  6192 net.cpp:124] Setting up res3.2.sum
I0809 18:57:10.049365  6192 net.cpp:131] Top shape: 1 128 14 14 (25088)
I0809 18:57:10.049399  6192 net.cpp:139] Memory required for data: 10587136
I0809 18:57:10.049428  6192 layer_factory.hpp:77] Creating layer res3.2.relu
I0809 18:57:10.049463  6192 net.cpp:86] Creating Layer res3.2.relu
I0809 18:57:10.049490  6192 net.cpp:408] res3.2.relu <- res3.2.sum
I0809 18:57:10.049525  6192 net.cpp:369] res3.2.relu -> res3.2.sum (in-place)
I0809 18:57:10.052616  6192 net.cpp:124] Setting up res3.2.relu
I0809 18:57:10.052731  6192 net.cpp:131] Top shape: 1 128 14 14 (25088)
I0809 18:57:10.052774  6192 net.cpp:139] Memory required for data: 10687488
I0809 18:57:10.052804  6192 layer_factory.hpp:77] Creating layer res3.2.sum_res3.2.relu_0_split
I0809 18:57:10.052855  6192 net.cpp:86] Creating Layer res3.2.sum_res3.2.relu_0_split
I0809 18:57:10.052889  6192 net.cpp:408] res3.2.sum_res3.2.relu_0_split <- res3.2.sum
I0809 18:57:10.052929  6192 net.cpp:382] res3.2.sum_res3.2.relu_0_split -> res3.2.sum_res3.2.relu_0_split_0
I0809 18:57:10.052976  6192 net.cpp:382] res3.2.sum_res3.2.relu_0_split -> res3.2.sum_res3.2.relu_0_split_1
I0809 18:57:10.053200  6192 net.cpp:124] Setting up res3.2.sum_res3.2.relu_0_split
I0809 18:57:10.053234  6192 net.cpp:131] Top shape: 1 128 14 14 (25088)
I0809 18:57:10.053268  6192 net.cpp:131] Top shape: 1 128 14 14 (25088)
I0809 18:57:10.053298  6192 net.cpp:139] Memory required for data: 10888192
I0809 18:57:10.053324  6192 layer_factory.hpp:77] Creating layer res4.1.conv1
I0809 18:57:10.053373  6192 net.cpp:86] Creating Layer res4.1.conv1
I0809 18:57:10.053405  6192 net.cpp:408] res4.1.conv1 <- res3.2.sum_res3.2.relu_0_split_0
I0809 18:57:10.053442  6192 net.cpp:382] res4.1.conv1 -> res4.1.conv1
I0809 18:57:10.078198  6192 net.cpp:124] Setting up res4.1.conv1
I0809 18:57:10.078300  6192 net.cpp:131] Top shape: 1 256 7 7 (12544)
I0809 18:57:10.078356  6192 net.cpp:139] Memory required for data: 10938368
I0809 18:57:10.078411  6192 layer_factory.hpp:77] Creating layer res4.1.conv1/bn
I0809 18:57:10.078485  6192 net.cpp:86] Creating Layer res4.1.conv1/bn
I0809 18:57:10.078534  6192 net.cpp:408] res4.1.conv1/bn <- res4.1.conv1
I0809 18:57:10.078634  6192 net.cpp:382] res4.1.conv1/bn -> res4.1.conv1/bn
I0809 18:57:10.080054  6192 net.cpp:124] Setting up res4.1.conv1/bn
I0809 18:57:10.080162  6192 net.cpp:131] Top shape: 1 256 7 7 (12544)
I0809 18:57:10.080226  6192 net.cpp:139] Memory required for data: 10988544
I0809 18:57:10.080423  6192 layer_factory.hpp:77] Creating layer res4.1.conv1/scale
I0809 18:57:10.080530  6192 net.cpp:86] Creating Layer res4.1.conv1/scale
I0809 18:57:10.080590  6192 net.cpp:408] res4.1.conv1/scale <- res4.1.conv1/bn
I0809 18:57:10.080651  6192 net.cpp:369] res4.1.conv1/scale -> res4.1.conv1/bn (in-place)
I0809 18:57:10.081012  6192 layer_factory.hpp:77] Creating layer res4.1.conv1/scale
I0809 18:57:10.081620  6192 net.cpp:124] Setting up res4.1.conv1/scale
I0809 18:57:10.081681  6192 net.cpp:131] Top shape: 1 256 7 7 (12544)
I0809 18:57:10.081727  6192 net.cpp:139] Memory required for data: 11038720
I0809 18:57:10.081812  6192 layer_factory.hpp:77] Creating layer res4.1.conv1/relu
I0809 18:57:10.081862  6192 net.cpp:86] Creating Layer res4.1.conv1/relu
I0809 18:57:10.081897  6192 net.cpp:408] res4.1.conv1/relu <- res4.1.conv1/bn
I0809 18:57:10.081943  6192 net.cpp:369] res4.1.conv1/relu -> res4.1.conv1/bn (in-place)
I0809 18:57:10.084133  6192 net.cpp:124] Setting up res4.1.conv1/relu
I0809 18:57:10.084218  6192 net.cpp:131] Top shape: 1 256 7 7 (12544)
I0809 18:57:10.084266  6192 net.cpp:139] Memory required for data: 11088896
I0809 18:57:10.084302  6192 layer_factory.hpp:77] Creating layer res4.1.conv2
I0809 18:57:10.084378  6192 net.cpp:86] Creating Layer res4.1.conv2
I0809 18:57:10.084420  6192 net.cpp:408] res4.1.conv2 <- res4.1.conv1/bn
I0809 18:57:10.084471  6192 net.cpp:382] res4.1.conv2 -> res4.1.conv2
I0809 18:57:10.110622  5629 uart_configuration.cpp:127] current Speed is:0
I0809 18:57:10.133268  6192 net.cpp:124] Setting up res4.1.conv2
I0809 18:57:10.133394  6192 net.cpp:131] Top shape: 1 256 7 7 (12544)
I0809 18:57:10.133442  6192 net.cpp:139] Memory required for data: 11139072
I0809 18:57:10.133487  6192 layer_factory.hpp:77] Creating layer res4.1.conv2/bn
I0809 18:57:10.133549  6192 net.cpp:86] Creating Layer res4.1.conv2/bn
I0809 18:57:10.133585  6192 net.cpp:408] res4.1.conv2/bn <- res4.1.conv2
I0809 18:57:10.133625  6192 net.cpp:382] res4.1.conv2/bn -> res4.1.conv2/bn
I0809 18:57:10.134793  6192 net.cpp:124] Setting up res4.1.conv2/bn
I0809 18:57:10.134845  6192 net.cpp:131] Top shape: 1 256 7 7 (12544)
I0809 18:57:10.134881  6192 net.cpp:139] Memory required for data: 11189248
I0809 18:57:10.134922  6192 layer_factory.hpp:77] Creating layer res4.1.conv2/scale
I0809 18:57:10.134977  6192 net.cpp:86] Creating Layer res4.1.conv2/scale
I0809 18:57:10.135010  6192 net.cpp:408] res4.1.conv2/scale <- res4.1.conv2/bn
I0809 18:57:10.135046  6192 net.cpp:369] res4.1.conv2/scale -> res4.1.conv2/bn (in-place)
I0809 18:57:10.135243  6192 layer_factory.hpp:77] Creating layer res4.1.conv2/scale
I0809 18:57:10.135752  6192 net.cpp:124] Setting up res4.1.conv2/scale
I0809 18:57:10.135785  6192 net.cpp:131] Top shape: 1 256 7 7 (12544)
I0809 18:57:10.135818  6192 net.cpp:139] Memory required for data: 11239424
I0809 18:57:10.135864  6192 layer_factory.hpp:77] Creating layer res4.1.skipConv
I0809 18:57:10.135910  6192 net.cpp:86] Creating Layer res4.1.skipConv
I0809 18:57:10.135941  6192 net.cpp:408] res4.1.skipConv <- res3.2.sum_res3.2.relu_0_split_1
I0809 18:57:10.135977  6192 net.cpp:382] res4.1.skipConv -> res4.1.skipConv
I0809 18:57:10.146301  6192 net.cpp:124] Setting up res4.1.skipConv
I0809 18:57:10.146433  6192 net.cpp:131] Top shape: 1 256 7 7 (12544)
I0809 18:57:10.146483  6192 net.cpp:139] Memory required for data: 11289600
I0809 18:57:10.146525  6192 layer_factory.hpp:77] Creating layer res4.1.skipConv/bn
I0809 18:57:10.146652  6192 net.cpp:86] Creating Layer res4.1.skipConv/bn
I0809 18:57:10.146698  6192 net.cpp:408] res4.1.skipConv/bn <- res4.1.skipConv
I0809 18:57:10.146744  6192 net.cpp:382] res4.1.skipConv/bn -> res4.1.skipConv/bn
I0809 18:57:10.147946  6192 net.cpp:124] Setting up res4.1.skipConv/bn
I0809 18:57:10.148043  6192 net.cpp:131] Top shape: 1 256 7 7 (12544)
I0809 18:57:10.148092  6192 net.cpp:139] Memory required for data: 11339776
I0809 18:57:10.148146  6192 layer_factory.hpp:77] Creating layer res4.1.skipConv/scale
I0809 18:57:10.148212  6192 net.cpp:86] Creating Layer res4.1.skipConv/scale
I0809 18:57:10.148331  6192 net.cpp:408] res4.1.skipConv/scale <- res4.1.skipConv/bn
I0809 18:57:10.148391  6192 net.cpp:369] res4.1.skipConv/scale -> res4.1.skipConv/bn (in-place)
I0809 18:57:10.148702  6192 layer_factory.hpp:77] Creating layer res4.1.skipConv/scale
I0809 18:57:10.149384  6192 net.cpp:124] Setting up res4.1.skipConv/scale
I0809 18:57:10.149446  6192 net.cpp:131] Top shape: 1 256 7 7 (12544)
I0809 18:57:10.149493  6192 net.cpp:139] Memory required for data: 11389952
I0809 18:57:10.149541  6192 layer_factory.hpp:77] Creating layer res4.1.sum
I0809 18:57:10.149598  6192 net.cpp:86] Creating Layer res4.1.sum
I0809 18:57:10.149636  6192 net.cpp:408] res4.1.sum <- res4.1.conv2/bn
I0809 18:57:10.149672  6192 net.cpp:408] res4.1.sum <- res4.1.skipConv/bn
I0809 18:57:10.149709  6192 net.cpp:382] res4.1.sum -> res4.1.sum
I0809 18:57:10.149878  6192 net.cpp:124] Setting up res4.1.sum
I0809 18:57:10.149922  6192 net.cpp:131] Top shape: 1 256 7 7 (12544)
I0809 18:57:10.149963  6192 net.cpp:139] Memory required for data: 11440128
I0809 18:57:10.149994  6192 layer_factory.hpp:77] Creating layer res4.1.relu
I0809 18:57:10.150039  6192 net.cpp:86] Creating Layer res4.1.relu
I0809 18:57:10.150076  6192 net.cpp:408] res4.1.relu <- res4.1.sum
I0809 18:57:10.150122  6192 net.cpp:369] res4.1.relu -> res4.1.sum (in-place)
I0809 18:57:10.155337  6192 net.cpp:124] Setting up res4.1.relu
I0809 18:57:10.155424  6192 net.cpp:131] Top shape: 1 256 7 7 (12544)
I0809 18:57:10.155468  6192 net.cpp:139] Memory required for data: 11490304
I0809 18:57:10.155500  6192 layer_factory.hpp:77] Creating layer res4.1.sum_res4.1.relu_0_split
I0809 18:57:10.155557  6192 net.cpp:86] Creating Layer res4.1.sum_res4.1.relu_0_split
I0809 18:57:10.155593  6192 net.cpp:408] res4.1.sum_res4.1.relu_0_split <- res4.1.sum
I0809 18:57:10.155637  6192 net.cpp:382] res4.1.sum_res4.1.relu_0_split -> res4.1.sum_res4.1.relu_0_split_0
I0809 18:57:10.155681  6192 net.cpp:382] res4.1.sum_res4.1.relu_0_split -> res4.1.sum_res4.1.relu_0_split_1
I0809 18:57:10.155920  6192 net.cpp:124] Setting up res4.1.sum_res4.1.relu_0_split
I0809 18:57:10.155957  6192 net.cpp:131] Top shape: 1 256 7 7 (12544)
I0809 18:57:10.155993  6192 net.cpp:131] Top shape: 1 256 7 7 (12544)
I0809 18:57:10.156026  6192 net.cpp:139] Memory required for data: 11590656
I0809 18:57:10.156054  6192 layer_factory.hpp:77] Creating layer res4.2.conv1
I0809 18:57:10.156102  6192 net.cpp:86] Creating Layer res4.2.conv1
I0809 18:57:10.156134  6192 net.cpp:408] res4.2.conv1 <- res4.1.sum_res4.1.relu_0_split_0
I0809 18:57:10.156173  6192 net.cpp:382] res4.2.conv1 -> res4.2.conv1
I0809 18:57:10.201527  6192 net.cpp:124] Setting up res4.2.conv1
I0809 18:57:10.201696  6192 net.cpp:131] Top shape: 1 256 7 7 (12544)
I0809 18:57:10.201741  6192 net.cpp:139] Memory required for data: 11640832
I0809 18:57:10.201786  6192 layer_factory.hpp:77] Creating layer res4.2.conv1/bn
I0809 18:57:10.201851  6192 net.cpp:86] Creating Layer res4.2.conv1/bn
I0809 18:57:10.201887  6192 net.cpp:408] res4.2.conv1/bn <- res4.2.conv1
I0809 18:57:10.201926  6192 net.cpp:382] res4.2.conv1/bn -> res4.2.conv1/bn
I0809 18:57:10.203089  6192 net.cpp:124] Setting up res4.2.conv1/bn
I0809 18:57:10.203142  6192 net.cpp:131] Top shape: 1 256 7 7 (12544)
I0809 18:57:10.203177  6192 net.cpp:139] Memory required for data: 11691008
I0809 18:57:10.203233  6192 layer_factory.hpp:77] Creating layer res4.2.conv1/scale
I0809 18:57:10.203277  6192 net.cpp:86] Creating Layer res4.2.conv1/scale
I0809 18:57:10.203307  6192 net.cpp:408] res4.2.conv1/scale <- res4.2.conv1/bn
I0809 18:57:10.203341  6192 net.cpp:369] res4.2.conv1/scale -> res4.2.conv1/bn (in-place)
I0809 18:57:10.203534  6192 layer_factory.hpp:77] Creating layer res4.2.conv1/scale
I0809 18:57:10.204043  6192 net.cpp:124] Setting up res4.2.conv1/scale
I0809 18:57:10.204078  6192 net.cpp:131] Top shape: 1 256 7 7 (12544)
I0809 18:57:10.204111  6192 net.cpp:139] Memory required for data: 11741184
I0809 18:57:10.204147  6192 layer_factory.hpp:77] Creating layer res4.2.conv1/relu
I0809 18:57:10.204269  6192 net.cpp:86] Creating Layer res4.2.conv1/relu
I0809 18:57:10.204305  6192 net.cpp:408] res4.2.conv1/relu <- res4.2.conv1/bn
I0809 18:57:10.204347  6192 net.cpp:369] res4.2.conv1/relu -> res4.2.conv1/bn (in-place)
I0809 18:57:10.207417  6192 net.cpp:124] Setting up res4.2.conv1/relu
I0809 18:57:10.207492  6192 net.cpp:131] Top shape: 1 256 7 7 (12544)
I0809 18:57:10.207535  6192 net.cpp:139] Memory required for data: 11791360
I0809 18:57:10.207564  6192 layer_factory.hpp:77] Creating layer res4.2.conv2
I0809 18:57:10.207624  6192 net.cpp:86] Creating Layer res4.2.conv2
I0809 18:57:10.207659  6192 net.cpp:408] res4.2.conv2 <- res4.2.conv1/bn
I0809 18:57:10.207707  6192 net.cpp:382] res4.2.conv2 -> res4.2.conv2
I0809 18:57:10.254668  6192 net.cpp:124] Setting up res4.2.conv2
I0809 18:57:10.254837  6192 net.cpp:131] Top shape: 1 256 7 7 (12544)
I0809 18:57:10.254884  6192 net.cpp:139] Memory required for data: 11841536
I0809 18:57:10.254928  6192 layer_factory.hpp:77] Creating layer res4.2.conv2/bn
I0809 18:57:10.254988  6192 net.cpp:86] Creating Layer res4.2.conv2/bn
I0809 18:57:10.255024  6192 net.cpp:408] res4.2.conv2/bn <- res4.2.conv2
I0809 18:57:10.255064  6192 net.cpp:382] res4.2.conv2/bn -> res4.2.conv2/bn
I0809 18:57:10.256124  6192 net.cpp:124] Setting up res4.2.conv2/bn
I0809 18:57:10.256167  6192 net.cpp:131] Top shape: 1 256 7 7 (12544)
I0809 18:57:10.256201  6192 net.cpp:139] Memory required for data: 11891712
I0809 18:57:10.256245  6192 layer_factory.hpp:77] Creating layer res4.2.conv2/scale
I0809 18:57:10.256284  6192 net.cpp:86] Creating Layer res4.2.conv2/scale
I0809 18:57:10.256314  6192 net.cpp:408] res4.2.conv2/scale <- res4.2.conv2/bn
I0809 18:57:10.256348  6192 net.cpp:369] res4.2.conv2/scale -> res4.2.conv2/bn (in-place)
I0809 18:57:10.256541  6192 layer_factory.hpp:77] Creating layer res4.2.conv2/scale
I0809 18:57:10.257050  6192 net.cpp:124] Setting up res4.2.conv2/scale
I0809 18:57:10.257086  6192 net.cpp:131] Top shape: 1 256 7 7 (12544)
I0809 18:57:10.257118  6192 net.cpp:139] Memory required for data: 11941888
I0809 18:57:10.257161  6192 layer_factory.hpp:77] Creating layer res4.2.sum
I0809 18:57:10.257197  6192 net.cpp:86] Creating Layer res4.2.sum
I0809 18:57:10.257226  6192 net.cpp:408] res4.2.sum <- res4.2.conv2/bn
I0809 18:57:10.257257  6192 net.cpp:408] res4.2.sum <- res4.1.sum_res4.1.relu_0_split_1
I0809 18:57:10.257290  6192 net.cpp:382] res4.2.sum -> res4.2.sum
I0809 18:57:10.257392  6192 net.cpp:124] Setting up res4.2.sum
I0809 18:57:10.257421  6192 net.cpp:131] Top shape: 1 256 7 7 (12544)
I0809 18:57:10.257452  6192 net.cpp:139] Memory required for data: 11992064
I0809 18:57:10.257477  6192 layer_factory.hpp:77] Creating layer res4.2.relu
I0809 18:57:10.257514  6192 net.cpp:86] Creating Layer res4.2.relu
I0809 18:57:10.257544  6192 net.cpp:408] res4.2.relu <- res4.2.sum
I0809 18:57:10.257575  6192 net.cpp:369] res4.2.relu -> res4.2.sum (in-place)
I0809 18:57:10.259987  6192 net.cpp:124] Setting up res4.2.relu
I0809 18:57:10.260074  6192 net.cpp:131] Top shape: 1 256 7 7 (12544)
I0809 18:57:10.260120  6192 net.cpp:139] Memory required for data: 12042240
I0809 18:57:10.260151  6192 layer_factory.hpp:77] Creating layer res4.2.sum_res4.2.relu_0_split
I0809 18:57:10.260208  6192 net.cpp:86] Creating Layer res4.2.sum_res4.2.relu_0_split
I0809 18:57:10.260247  6192 net.cpp:408] res4.2.sum_res4.2.relu_0_split <- res4.2.sum
I0809 18:57:10.260299  6192 net.cpp:382] res4.2.sum_res4.2.relu_0_split -> res4.2.sum_res4.2.relu_0_split_0
I0809 18:57:10.260352  6192 net.cpp:382] res4.2.sum_res4.2.relu_0_split -> res4.2.sum_res4.2.relu_0_split_1
I0809 18:57:10.260690  6192 net.cpp:124] Setting up res4.2.sum_res4.2.relu_0_split
I0809 18:57:10.260743  6192 net.cpp:131] Top shape: 1 256 7 7 (12544)
I0809 18:57:10.260782  6192 net.cpp:131] Top shape: 1 256 7 7 (12544)
I0809 18:57:10.260813  6192 net.cpp:139] Memory required for data: 12142592
I0809 18:57:10.260845  6192 layer_factory.hpp:77] Creating layer res5.1.conv1
I0809 18:57:10.260897  6192 net.cpp:86] Creating Layer res5.1.conv1
I0809 18:57:10.261018  6192 net.cpp:408] res5.1.conv1 <- res4.2.sum_res4.2.relu_0_split_0
I0809 18:57:10.261075  6192 net.cpp:382] res5.1.conv1 -> res5.1.conv1
I0809 18:57:10.310441  6192 net.cpp:124] Setting up res5.1.conv1
I0809 18:57:10.310585  6192 net.cpp:131] Top shape: 1 512 4 4 (8192)
I0809 18:57:10.310647  6192 net.cpp:139] Memory required for data: 12175360
I0809 18:57:10.310694  6192 layer_factory.hpp:77] Creating layer res5.1.conv1/bn
I0809 18:57:10.310760  6192 net.cpp:86] Creating Layer res5.1.conv1/bn
I0809 18:57:10.310796  6192 net.cpp:408] res5.1.conv1/bn <- res5.1.conv1
I0809 18:57:10.310842  6192 net.cpp:382] res5.1.conv1/bn -> res5.1.conv1/bn
I0809 18:57:10.312170  6192 net.cpp:124] Setting up res5.1.conv1/bn
I0809 18:57:10.312243  6192 net.cpp:131] Top shape: 1 512 4 4 (8192)
I0809 18:57:10.312288  6192 net.cpp:139] Memory required for data: 12208128
I0809 18:57:10.312343  6192 layer_factory.hpp:77] Creating layer res5.1.conv1/scale
I0809 18:57:10.312393  6192 net.cpp:86] Creating Layer res5.1.conv1/scale
I0809 18:57:10.312430  6192 net.cpp:408] res5.1.conv1/scale <- res5.1.conv1/bn
I0809 18:57:10.312497  6192 net.cpp:369] res5.1.conv1/scale -> res5.1.conv1/bn (in-place)
I0809 18:57:10.312919  6192 layer_factory.hpp:77] Creating layer res5.1.conv1/scale
I0809 18:57:10.313844  6192 net.cpp:124] Setting up res5.1.conv1/scale
I0809 18:57:10.313946  6192 net.cpp:131] Top shape: 1 512 4 4 (8192)
I0809 18:57:10.314010  6192 net.cpp:139] Memory required for data: 12240896
I0809 18:57:10.314110  6192 layer_factory.hpp:77] Creating layer res5.1.conv1/relu
I0809 18:57:10.314179  6192 net.cpp:86] Creating Layer res5.1.conv1/relu
I0809 18:57:10.314309  6192 net.cpp:408] res5.1.conv1/relu <- res5.1.conv1/bn
I0809 18:57:10.314374  6192 net.cpp:369] res5.1.conv1/relu -> res5.1.conv1/bn (in-place)
I0809 18:57:10.319372  6192 net.cpp:124] Setting up res5.1.conv1/relu
I0809 18:57:10.319506  6192 net.cpp:131] Top shape: 1 512 4 4 (8192)
I0809 18:57:10.319548  6192 net.cpp:139] Memory required for data: 12273664
I0809 18:57:10.319581  6192 layer_factory.hpp:77] Creating layer res5.1.conv2
I0809 18:57:10.319648  6192 net.cpp:86] Creating Layer res5.1.conv2
I0809 18:57:10.319686  6192 net.cpp:408] res5.1.conv2 <- res5.1.conv1/bn
I0809 18:57:10.319766  6192 net.cpp:382] res5.1.conv2 -> res5.1.conv2
I0809 18:57:10.397670  6192 net.cpp:124] Setting up res5.1.conv2
I0809 18:57:10.397801  6192 net.cpp:131] Top shape: 1 512 4 4 (8192)
I0809 18:57:10.397855  6192 net.cpp:139] Memory required for data: 12306432
I0809 18:57:10.397899  6192 layer_factory.hpp:77] Creating layer res5.1.conv2/bn
I0809 18:57:10.397959  6192 net.cpp:86] Creating Layer res5.1.conv2/bn
I0809 18:57:10.398114  6192 net.cpp:408] res5.1.conv2/bn <- res5.1.conv2
I0809 18:57:10.398177  6192 net.cpp:382] res5.1.conv2/bn -> res5.1.conv2/bn
I0809 18:57:10.399340  6192 net.cpp:124] Setting up res5.1.conv2/bn
I0809 18:57:10.399425  6192 net.cpp:131] Top shape: 1 512 4 4 (8192)
I0809 18:57:10.399463  6192 net.cpp:139] Memory required for data: 12339200
I0809 18:57:10.399509  6192 layer_factory.hpp:77] Creating layer res5.1.conv2/scale
I0809 18:57:10.399555  6192 net.cpp:86] Creating Layer res5.1.conv2/scale
I0809 18:57:10.399608  6192 net.cpp:408] res5.1.conv2/scale <- res5.1.conv2/bn
I0809 18:57:10.399781  6192 net.cpp:369] res5.1.conv2/scale -> res5.1.conv2/bn (in-place)
I0809 18:57:10.400007  6192 layer_factory.hpp:77] Creating layer res5.1.conv2/scale
I0809 18:57:10.400547  6192 net.cpp:124] Setting up res5.1.conv2/scale
I0809 18:57:10.400583  6192 net.cpp:131] Top shape: 1 512 4 4 (8192)
I0809 18:57:10.400616  6192 net.cpp:139] Memory required for data: 12371968
I0809 18:57:10.400663  6192 layer_factory.hpp:77] Creating layer res5.1.skipConv
I0809 18:57:10.400712  6192 net.cpp:86] Creating Layer res5.1.skipConv
I0809 18:57:10.400744  6192 net.cpp:408] res5.1.skipConv <- res4.2.sum_res4.2.relu_0_split_1
I0809 18:57:10.400784  6192 net.cpp:382] res5.1.skipConv -> res5.1.skipConv
I0809 18:57:10.416625  6192 net.cpp:124] Setting up res5.1.skipConv
I0809 18:57:10.416868  6192 net.cpp:131] Top shape: 1 512 4 4 (8192)
I0809 18:57:10.417244  6192 net.cpp:139] Memory required for data: 12404736
I0809 18:57:10.417302  6192 layer_factory.hpp:77] Creating layer res5.1.skipConv/bn
I0809 18:57:10.417429  6192 net.cpp:86] Creating Layer res5.1.skipConv/bn
I0809 18:57:10.417476  6192 net.cpp:408] res5.1.skipConv/bn <- res5.1.skipConv
I0809 18:57:10.417526  6192 net.cpp:382] res5.1.skipConv/bn -> res5.1.skipConv/bn
I0809 18:57:10.418823  6192 net.cpp:124] Setting up res5.1.skipConv/bn
I0809 18:57:10.418889  6192 net.cpp:131] Top shape: 1 512 4 4 (8192)
I0809 18:57:10.418929  6192 net.cpp:139] Memory required for data: 12437504
I0809 18:57:10.418979  6192 layer_factory.hpp:77] Creating layer res5.1.skipConv/scale
I0809 18:57:10.419041  6192 net.cpp:86] Creating Layer res5.1.skipConv/scale
I0809 18:57:10.419076  6192 net.cpp:408] res5.1.skipConv/scale <- res5.1.skipConv/bn
I0809 18:57:10.419116  6192 net.cpp:369] res5.1.skipConv/scale -> res5.1.skipConv/bn (in-place)
I0809 18:57:10.419322  6192 layer_factory.hpp:77] Creating layer res5.1.skipConv/scale
I0809 18:57:10.419878  6192 net.cpp:124] Setting up res5.1.skipConv/scale
I0809 18:57:10.419917  6192 net.cpp:131] Top shape: 1 512 4 4 (8192)
I0809 18:57:10.419989  6192 net.cpp:139] Memory required for data: 12470272
I0809 18:57:10.420032  6192 layer_factory.hpp:77] Creating layer res5.1.sum
I0809 18:57:10.420079  6192 net.cpp:86] Creating Layer res5.1.sum
I0809 18:57:10.420110  6192 net.cpp:408] res5.1.sum <- res5.1.conv2/bn
I0809 18:57:10.420145  6192 net.cpp:408] res5.1.sum <- res5.1.skipConv/bn
I0809 18:57:10.420208  6192 net.cpp:382] res5.1.sum -> res5.1.sum
I0809 18:57:10.420354  6192 net.cpp:124] Setting up res5.1.sum
I0809 18:57:10.420397  6192 net.cpp:131] Top shape: 1 512 4 4 (8192)
I0809 18:57:10.420433  6192 net.cpp:139] Memory required for data: 12503040
I0809 18:57:10.420461  6192 layer_factory.hpp:77] Creating layer res5.1.relu
I0809 18:57:10.420501  6192 net.cpp:86] Creating Layer res5.1.relu
I0809 18:57:10.420531  6192 net.cpp:408] res5.1.relu <- res5.1.sum
I0809 18:57:10.420578  6192 net.cpp:369] res5.1.relu -> res5.1.sum (in-place)
I0809 18:57:10.424608  6192 net.cpp:124] Setting up res5.1.relu
I0809 18:57:10.424755  6192 net.cpp:131] Top shape: 1 512 4 4 (8192)
I0809 18:57:10.424818  6192 net.cpp:139] Memory required for data: 12535808
I0809 18:57:10.424855  6192 layer_factory.hpp:77] Creating layer res5.1.sum_res5.1.relu_0_split
I0809 18:57:10.424918  6192 net.cpp:86] Creating Layer res5.1.sum_res5.1.relu_0_split
I0809 18:57:10.425060  6192 net.cpp:408] res5.1.sum_res5.1.relu_0_split <- res5.1.sum
I0809 18:57:10.425124  6192 net.cpp:382] res5.1.sum_res5.1.relu_0_split -> res5.1.sum_res5.1.relu_0_split_0
I0809 18:57:10.425176  6192 net.cpp:382] res5.1.sum_res5.1.relu_0_split -> res5.1.sum_res5.1.relu_0_split_1
I0809 18:57:10.425529  6192 net.cpp:124] Setting up res5.1.sum_res5.1.relu_0_split
I0809 18:57:10.425590  6192 net.cpp:131] Top shape: 1 512 4 4 (8192)
I0809 18:57:10.425632  6192 net.cpp:131] Top shape: 1 512 4 4 (8192)
I0809 18:57:10.425667  6192 net.cpp:139] Memory required for data: 12601344
I0809 18:57:10.425698  6192 layer_factory.hpp:77] Creating layer res5.2.conv1
I0809 18:57:10.425758  6192 net.cpp:86] Creating Layer res5.2.conv1
I0809 18:57:10.425798  6192 net.cpp:408] res5.2.conv1 <- res5.1.sum_res5.1.relu_0_split_0
I0809 18:57:10.425843  6192 net.cpp:382] res5.2.conv1 -> res5.2.conv1
I0809 18:57:10.506129  6192 net.cpp:124] Setting up res5.2.conv1
I0809 18:57:10.506217  6192 net.cpp:131] Top shape: 1 512 4 4 (8192)
I0809 18:57:10.506260  6192 net.cpp:139] Memory required for data: 12634112
I0809 18:57:10.506302  6192 layer_factory.hpp:77] Creating layer res5.2.conv1/bn
I0809 18:57:10.506357  6192 net.cpp:86] Creating Layer res5.2.conv1/bn
I0809 18:57:10.506392  6192 net.cpp:408] res5.2.conv1/bn <- res5.2.conv1
I0809 18:57:10.506430  6192 net.cpp:382] res5.2.conv1/bn -> res5.2.conv1/bn
I0809 18:57:10.507549  6192 net.cpp:124] Setting up res5.2.conv1/bn
I0809 18:57:10.507601  6192 net.cpp:131] Top shape: 1 512 4 4 (8192)
I0809 18:57:10.507721  6192 net.cpp:139] Memory required for data: 12666880
I0809 18:57:10.507776  6192 layer_factory.hpp:77] Creating layer res5.2.conv1/scale
I0809 18:57:10.507833  6192 net.cpp:86] Creating Layer res5.2.conv1/scale
I0809 18:57:10.507870  6192 net.cpp:408] res5.2.conv1/scale <- res5.2.conv1/bn
I0809 18:57:10.507913  6192 net.cpp:369] res5.2.conv1/scale -> res5.2.conv1/bn (in-place)
I0809 18:57:10.508134  6192 layer_factory.hpp:77] Creating layer res5.2.conv1/scale
I0809 18:57:10.508882  6192 net.cpp:124] Setting up res5.2.conv1/scale
I0809 18:57:10.508981  6192 net.cpp:131] Top shape: 1 512 4 4 (8192)
I0809 18:57:10.509042  6192 net.cpp:139] Memory required for data: 12699648
I0809 18:57:10.509140  6192 layer_factory.hpp:77] Creating layer res5.2.conv1/relu
I0809 18:57:10.509208  6192 net.cpp:86] Creating Layer res5.2.conv1/relu
I0809 18:57:10.509248  6192 net.cpp:408] res5.2.conv1/relu <- res5.2.conv1/bn
I0809 18:57:10.509300  6192 net.cpp:369] res5.2.conv1/relu -> res5.2.conv1/bn (in-place)
I0809 18:57:10.511720  6192 net.cpp:124] Setting up res5.2.conv1/relu
I0809 18:57:10.511808  6192 net.cpp:131] Top shape: 1 512 4 4 (8192)
I0809 18:57:10.511862  6192 net.cpp:139] Memory required for data: 12732416
I0809 18:57:10.511899  6192 layer_factory.hpp:77] Creating layer res5.2.conv2
I0809 18:57:10.511982  6192 net.cpp:86] Creating Layer res5.2.conv2
I0809 18:57:10.512037  6192 net.cpp:408] res5.2.conv2 <- res5.2.conv1/bn
I0809 18:57:10.512099  6192 net.cpp:382] res5.2.conv2 -> res5.2.conv2
I0809 18:57:10.592172  6192 net.cpp:124] Setting up res5.2.conv2
I0809 18:57:10.592265  6192 net.cpp:131] Top shape: 1 512 4 4 (8192)
I0809 18:57:10.592308  6192 net.cpp:139] Memory required for data: 12765184
I0809 18:57:10.592350  6192 layer_factory.hpp:77] Creating layer res5.2.conv2/bn
I0809 18:57:10.592408  6192 net.cpp:86] Creating Layer res5.2.conv2/bn
I0809 18:57:10.592443  6192 net.cpp:408] res5.2.conv2/bn <- res5.2.conv2
I0809 18:57:10.592481  6192 net.cpp:382] res5.2.conv2/bn -> res5.2.conv2/bn
I0809 18:57:10.593578  6192 net.cpp:124] Setting up res5.2.conv2/bn
I0809 18:57:10.593622  6192 net.cpp:131] Top shape: 1 512 4 4 (8192)
I0809 18:57:10.593657  6192 net.cpp:139] Memory required for data: 12797952
I0809 18:57:10.593708  6192 layer_factory.hpp:77] Creating layer res5.2.conv2/scale
I0809 18:57:10.593750  6192 net.cpp:86] Creating Layer res5.2.conv2/scale
I0809 18:57:10.593780  6192 net.cpp:408] res5.2.conv2/scale <- res5.2.conv2/bn
I0809 18:57:10.593814  6192 net.cpp:369] res5.2.conv2/scale -> res5.2.conv2/bn (in-place)
I0809 18:57:10.593982  6192 layer_factory.hpp:77] Creating layer res5.2.conv2/scale
I0809 18:57:10.594537  6192 net.cpp:124] Setting up res5.2.conv2/scale
I0809 18:57:10.594611  6192 net.cpp:131] Top shape: 1 512 4 4 (8192)
I0809 18:57:10.594655  6192 net.cpp:139] Memory required for data: 12830720
I0809 18:57:10.594699  6192 layer_factory.hpp:77] Creating layer res5.2.sum
I0809 18:57:10.594738  6192 net.cpp:86] Creating Layer res5.2.sum
I0809 18:57:10.594769  6192 net.cpp:408] res5.2.sum <- res5.2.conv2/bn
I0809 18:57:10.594802  6192 net.cpp:408] res5.2.sum <- res5.1.sum_res5.1.relu_0_split_1
I0809 18:57:10.594838  6192 net.cpp:382] res5.2.sum -> res5.2.sum
I0809 18:57:10.594983  6192 net.cpp:124] Setting up res5.2.sum
I0809 18:57:10.595016  6192 net.cpp:131] Top shape: 1 512 4 4 (8192)
I0809 18:57:10.595050  6192 net.cpp:139] Memory required for data: 12863488
I0809 18:57:10.595077  6192 layer_factory.hpp:77] Creating layer res5.2.relu
I0809 18:57:10.595110  6192 net.cpp:86] Creating Layer res5.2.relu
I0809 18:57:10.595139  6192 net.cpp:408] res5.2.relu <- res5.2.sum
I0809 18:57:10.595170  6192 net.cpp:369] res5.2.relu -> res5.2.sum (in-place)
I0809 18:57:10.598268  6192 net.cpp:124] Setting up res5.2.relu
I0809 18:57:10.598335  6192 net.cpp:131] Top shape: 1 512 4 4 (8192)
I0809 18:57:10.598376  6192 net.cpp:139] Memory required for data: 12896256
I0809 18:57:10.598405  6192 layer_factory.hpp:77] Creating layer pool2
I0809 18:57:10.598456  6192 net.cpp:86] Creating Layer pool2
I0809 18:57:10.598603  6192 net.cpp:408] pool2 <- res5.2.sum
I0809 18:57:10.598670  6192 net.cpp:382] pool2 -> pool2
I0809 18:57:10.600850  6192 net.cpp:124] Setting up pool2
I0809 18:57:10.600916  6192 net.cpp:131] Top shape: 1 512 1 1 (512)
I0809 18:57:10.600955  6192 net.cpp:139] Memory required for data: 12898304
I0809 18:57:10.600984  6192 layer_factory.hpp:77] Creating layer fc
I0809 18:57:10.601025  6192 net.cpp:86] Creating Layer fc
I0809 18:57:10.601055  6192 net.cpp:408] fc <- pool2
I0809 18:57:10.601104  6192 net.cpp:382] fc -> fc
I0809 18:57:10.601675  6192 net.cpp:124] Setting up fc
I0809 18:57:10.601714  6192 net.cpp:131] Top shape: 1 2 (2)
I0809 18:57:10.601747  6192 net.cpp:139] Memory required for data: 12898312
I0809 18:57:10.601786  6192 layer_factory.hpp:77] Creating layer prob
I0809 18:57:10.601831  6192 net.cpp:86] Creating Layer prob
I0809 18:57:10.601862  6192 net.cpp:408] prob <- fc
I0809 18:57:10.601897  6192 net.cpp:382] prob -> prob
I0809 18:57:10.605357  6192 net.cpp:124] Setting up prob
I0809 18:57:10.605520  6192 net.cpp:131] Top shape: 1 2 (2)
I0809 18:57:10.605561  6192 net.cpp:139] Memory required for data: 12898320
I0809 18:57:10.605590  6192 net.cpp:202] prob does not need backward computation.
I0809 18:57:10.605628  6192 net.cpp:202] fc does not need backward computation.
I0809 18:57:10.605656  6192 net.cpp:202] pool2 does not need backward computation.
I0809 18:57:10.605685  6192 net.cpp:202] res5.2.relu does not need backward computation.
…
